data/checkpoints/dqn_best.pth (torch, 72274 bytes, 6 tensors)

net.0.weight f4 [128, 4]
0	0x3ed4a242	0.41530043
1	0xbeb53f3a	-0.353998
2	0xbeeecc7c	-0.46640384
3	0xbcb81a20	-0.022473395
4	0x3edc5dee	0.43040413
5	0x3e53e924	0.20694405
6	0xbcd4c1e0	-0.025971353
7	0xbe95ea58	-0.29280353
8	0x3ec8adfe	0.39195246
9	0xbee02c20	-0.43783665
10	0x3e7c23a4	0.24622971
11	0xbee3428c	-0.4438671
12	0xbbab7d00	-0.005233407
13	0x3dd7a8a0	0.105302095
14	0x3e467850	0.19381833
15	0xbe830e2e	-0.25596756
16	0x3edc74c8	0.43057847
17	0xbea300be	-0.31836504
18	0x3d82ac10	0.063804746
19	0xbed2f842	-0.4120503
20	0x3deaba28	0.11461288
21	0xbd29c360	-0.04144609
22	0x3ee8a8f8	0.45441413
23	0x3ca4df60	0.020126045
24	0x3eaeeda2	0.34165674
25	0xbe1600b4	-0.14648706
26	0x3e93523a	0.2877367
27	0x3d82b8f0	0.0638293
28	0xbe1df250	-0.15424466
29	0xbe8b233c	-0.2717532
30	0x3c2d6300	0.0105826855
31	0xbeb204ce	-0.3476929
32	0xbdacbdd8	-0.08434647
33	0xbeb24cec	-0.34824312
34	0xbe06e9b4	-0.13175088
35	0xbe7c8400	-0.24659729
36	0xbde75538	-0.11295551
37	0xbe6ac9ec	-0.2292859
38	0xbec80b5c	-0.39071167
39	0xbeed9064	-0.46399224
40	0x3e9293f6	0.2862851
41	0xbdf90ac8	-0.121602595
42	0x3ec59bd8	0.38595462
43	0x3e3c18d8	0.18368852
44	0x3df7d0e0	0.121003866
45	0x3ea0e2f4	0.31423151
46	0xbeda676a	-0.42657024
47	0xbedbb866	-0.42914122
48	0x3e8ddf98	0.2770965
49	0x3e095fec	0.13415498
50	0x3e705950	0.2347157
51	0xbece8756	-0.40337628
52	0xbee543be	-0.44778246
53	0x3eb6516c	0.35608995
54	0xbe410948	-0.18851197
55	0xbe33442c	-0.17506474
56	0x3eb4fe68	0.35350347
57	0xbebf7fbc	-0.3740214
58	0xbede6caa	-0.4344228
59	0xbd8b0180	-0.067873955
60	0x3cce5600	0.025187492
61	0x3ece7f32	0.40331417
62	0x3c2499c0	0.0100464225
63	0xbe79caa0	-0.24393702
64	0xbe1ed1d4	-0.1550973
65	0x3ed94260	0.42433453
66	0x3ef76cbe	0.4832515
67	0x3e91a2a6	0.28444403
68	0xbe39d42c	-0.18147343
69	0x3e4fa908	0.20279324
70	0x3ccea140	0.025223374
71	0x3e337448	0.17524827
72	0x3da8c188	0.08240038
73	0xbd2a6100	-0.041596413
74	0xbe995c2c	-0.29953134
75	0xbeab3fee	-0.33447212
76	0x3e037018	0.12835729
77	0x3ec1e0e8	0.37866902
78	0x3e8a6cee	0.27036232
79	0xbeafb1fa	-0.34315473
80	0xbed37ed6	-0.41307706
81	0x3ec9b6d4	0.393973
82	0x3e8831ce	0.26600498
83	0x3e39f1e0	0.18158674
84	0x3df60b70	0.120139
85	0xbe9b92cc	-0.30385435
86	0x3e890e50	0.26768732
87	0x3efbbd86	0.49168032
88	0x3d810ca0	0.06301236
89	0x3eca993c	0.39570034
90	0x3ea76130	0.32691336
91	0x3cd90940	0.026493669
92	0x3e25e4ec	0.16200608
93	0x3ede422c	0.4340986
94	0xbea4ae7c	-0.3216437
95	0x3df3eeb8	0.11910766
96	0x3df99100	0.1218586
97	0x3d347840	0.04405999
98	0x3dc7eaa0	0.09761548
99	0x3eb493c6	0.35268992
100	0xbea09e3e	-0.3137073
101	0xbede4378	-0.4341085
102	0xbd433280	-0.047655582
103	0xbd3cfc10	-0.046138823
104	0xbdbc1a58	-0.09184712
105	0xbef4458e	-0.47709316
106	0xbef6df0e	-0.48217052
107	0xbe735de8	-0.23766291
108	0x3e4eb00c	0.20184344
109	0x3d531b30	0.0515396
110	0xbef68f86	-0.48156375
111	0x3ed3ecd2	0.41391617
112	0x3e987172	0.29774052
113	0xbeceba60	-0.40376568
114	0x3edb017c	0.4277457
115	0x3e38c164	0.18042523
116	0x3e4bdc60	0.19908285
117	0xbe87c7f8	-0.26519752
118	0x3eac5158	0.3365581
119	0xbebebf38	-0.37255263
120	0xbe02f28c	-0.12787837
121	0xbef2299c	-0.4729737
122	0x3ea9ec94	0.33188307
123	0xbe94ebd8	-0.29086185
124	0x3e8341e6	0.25636214
125	0x3e91b41c	0.28457725
126	0x3d1bb610	0.038015425
127	0x3de54130	0.11194074
128	0x3e4cbe98	0.19994581
129	0x3e7600e4	0.24023777
130	0xbdfb9388	-0.12283999
131	0xbec8c2a0	-0.39210987
132	0x3d5e0dc0	0.05421233
133	0xbde38af8	-0.111104906
134	0xbef21fe0	-0.47289944
135	0xbeb76ef6	-0.35826844
136	0x3d953f00	0.07287407
137	0x3c195480	0.009358525
138	0xbefc223a	-0.49244863
139	0x3edcc488	0.4311869
140	0xbe121ebc	-0.14269537
141	0x3ea9689c	0.33087623
142	0xbdc790c8	-0.09744412
143	0x3e8244fc	0.25443256
144	0xbe97307e	-0.29529184
145	0x3e619898	0.22030866
146	0xbe0dc844	-0.13845927
147	0x3eb37bc6	0.3505537
148	0x3ed27d94	0.41111434
149	0xbec8cc46	-0.39218348
150	0x3e0c1a50	0.13681912
151	0x3e1e0ae4	0.15433842
152	0xbdd77d58	-0.10521954
153	0x3e7c103c	0.24615568
154	0x3c970020	0.018432677
155	0xbe063c3c	-0.13108915
156	0xbebc8208	-0.36817956
157	0x3e0a01dc	0.13477272
158	0xbeb113da	-0.34585458
159	0xbeca2b48	-0.39486146
160	0x3d2d6260	0.042330146
161	0x3d35b950	0.04436618
162	0xbe8cff54	-0.2753855
163	0xbeb8109c	-0.35950172
164	0x3ee67e98	0.45018458
165	0xbe08b3d8	-0.13349855
166	0xbe612fa0	-0.21990824
167	0x3ed53682	0.4164315
168	0xbda628d0	-0.08113253
169	0xbe25b7a8	-0.1618334
170	0x3ecab578	0.39591575
171	0xbdb75e68	-0.089535534
172	0xbdbb6a68	-0.09151155
173	0x3e5daa94	0.21647102
174	0xbecc945c	-0.3995694
175	0xbe20af04	-0.15691763
176	0xbe9ca596	-0.30595082
177	0x3ecf1f18	0.4045341
178	0x3df3e448	0.119087756
179	0x3c5e5200	0.013569355
180	0xbe1235ac	-0.14278287
181	0xbeb5a19e	-0.35474867
182	0x3e0f92ac	0.14020795
183	0xbda65390	-0.08121407
184	0xbebbac82	-0.3665505
185	0xbe9f895a	-0.31159478
186	0xbd272a00	-0.04081154
187	0xbeafe7a0	-0.34356403
188	0x3efec002	0.49755865
189	0x3e376fcc	0.17913741
190	0x3cae9c40	0.02131474
191	0xbc3b0c80	-0.011416554
192	0xbe4da3ac	-0.20081967
193	0x3eaa416c	0.33253038
194	0x3e09f60c	0.13472766
195	0xbdba6390	-0.09101021
196	0x3d178630	0.036993206
197	0xbe914c58	-0.28378558
198	0xbe1f9ab8	-0.15586364
199	0xbccc34a0	-0.024927437
200	0xbce143e0	-0.027498186
201	0x3e005008	0.1253053
202	0xbe98330a	-0.2972644
203	0xbea330d8	-0.31873202
204	0x3e0912f8	0.13386142
205	0xbcbc7c20	-0.023008406
206	0xbdfbd6c0	-0.1229682
207	0xbeb44d8a	-0.35215408
208	0xbe86850a	-0.26273376
209	0xbeff9b60	-0.4992323
210	0x3ecbb6fa	0.39788038
211	0x3c607f40	0.013702214
212	0x3e0e5494	0.13899451
213	0xbdc8c390	-0.098029256
214	0xbeda13ae	-0.4259314
215	0x3efade9a	0.48997957
216	0x3ea3f618	0.32023692
217	0xbdb4d000	-0.08828735
218	0xbc7b1880	-0.0153256655
219	0x3dca9180	0.09891033
220	0xbe2e030c	-0.1699335
221	0x3d3e0f40	0.046401262
222	0x3ef92d16	0.4866721
223	0x3ec2512a	0.37952548
224	0x3d020860	0.03174627
225	0xbeacf9f4	-0.3378445
226	0x3ec943c8	0.39309525
227	0xbce0eb60	-0.027455986
228	0x3ec32c9a	0.38119966
229	0xbebd1e76	-0.36937302
230	0x3dd216e0	0.10258269
231	0xbdddcc08	-0.108299315
232	0x3d8f6560	0.070017576
233	0x3df11160	0.11770892
234	0xbec97582	-0.39347464
235	0xbe095e28	-0.13414824
236	0x3e3a4dfc	0.18193811
237	0x3ecf2d5c	0.40464294
238	0xbe5c12d8	-0.21491563
239	0x3e257138	0.16156471
240	0xbebb52fc	-0.3658675
241	0x3eca67ea	0.39532405
242	0xbea6c6be	-0.32573503
243	0x3da864e8	0.08222371
244	0xbe3acf20	-0.18243074
245	0x3eed9c76	0.46408433
246	0x3d272950	0.040810883
247	0x3e24b074	0.16082937
248	0xbe52b188	-0.20575535
249	0x3e49dbac	0.19712704
250	0xbe149088	-0.1450826
251	0x3e15fe60	0.14647818
252	0x3d275900	0.04085636
253	0xbd8e0610	-0.0693475
254	0xbeac6948	-0.33674073
255	0x3ed7a06e	0.42114586

net.0.bias f4 [128]
0	0x3e851ea2	0.25999933
1	0x3e61880c	0.22024554
2	0xbe8e8afe	-0.27840418
3	0x3ef9dc26	0.48800772
4	0xbeba392a	-0.36371738
5	0x3eb9160e	0.3614964
6	0xbec4c310	-0.3843007
7	0x3ebc26c4	0.36748326
8	0x3df7a5a8	0.12092143
9	0x3e289368	0.16462481
10	0x3d82ab88	0.06380373
11	0xbef57c82	-0.47946554
12	0xbe039528	-0.12849867
13	0xbe654e4c	-0.22393149
14	0x3bf50400	0.0074772835
15	0xbc94a500	-0.018145084
16	0xbd7f6150	-0.062348664
17	0x3e5e49cc	0.21707839
18	0xbe82b448	-0.2552817
19	0xbeeb7184	-0.45985043
20	0xbded64d8	-0.115915
21	0xbd1cc860	-0.03827703
22	0x3ebc362e	0.36760086
23	0xbea5c434	-0.32376254
24	0x3ebffb70	0.3749652
25	0xbea47724	-0.32122147
26	0xbecdf152	-0.40223175
27	0x3ebb59f8	0.36592078
28	0xbec8f5c0	-0.39249992
29	0x3e0d12a8	0.13776648
30	0x3e76c59c	0.2409882
31	0x3d8e78b0	0.06956613
32	0x3ea200e2	0.316413
33	0x3ed3020e	0.41212505
34	0x3e5d3038	0.21600425
35	0xbe14fb30	-0.14548945
36	0xbe60f5e8	-0.21968806
37	0x3eebf550	0.46085596
38	0x3d7026d0	0.058630764
39	0x3eccbd4e	0.39988178
40	0x3ef01ae4	0.46895516
41	0xbca65e00	-0.020308495
42	0xbeaec428	-0.3413403
43	0x3cab3bc0	0.020902514
44	0xbed98830	-0.42486715
45	0x3ea6842c	0.32522714
46	0xbdafd3f0	-0.08585346
47	0x3e97256a	0.29520732
48	0x3e7c9aec	0.24668473
49	0xbe2d3068	-0.16912997
50	0x3e4a6ab4	0.19767267
51	0x3ecfd5a0	0.4059267
52	0x3e9fb122	0.3118983
53	0xbe5b37c4	-0.21407992
54	0x3ed95224	0.4244548
55	0x3e8dd738	0.2770326
56	0xbec2431c	-0.37941825
57	0x3e6c3ccc	0.23070067
58	0x3e285eec	0.1644246
59	0x3eb1691e	0.3465051
60	0xbdb76368	-0.08954507
61	0x3ee78522	0.4521876
62	0xbe08f07c	-0.13372988
63	0x3eabcea2	0.33556086
64	0x3cab65c0	0.020922542
65	0xbea1b086	-0.3157999
66	0x3e32e734	0.1747101
67	0xbeb40a92	-0.35164315
68	0xbd23a1d0	-0.03994924
69	0xbec3f496	-0.38272542
70	0x3ea25104	0.31702435
71	0xbe874060	-0.26416302
72	0xbe0a6d20	-0.1351819
73	0x3db06960	0.08613849
74	0xbecf21f4	-0.40455592
75	0x3e9c84b4	0.30569994
76	0xbe8fbcf4	-0.28073847
77	0x3ec4f378	0.38467002
78	0x3e351b0c	0.17686099
79	0xbe140644	-0.14455515
80	0xbe20a940	-0.15689564
81	0xbefb366e	-0.49064964
82	0x3e8d8c5e	0.27646154
83	0xbeae9f0e	-0.34105724
84	0xbee9ea7a	-0.45686704
85	0xbdc21e90	-0.094784856
86	0xbe58d55c	-0.2117514
87	0x3ebafe0a	0.3652194
88	0x3ca62e20	0.020285666
89	0x3deb5f60	0.11492801
90	0xbd59f910	-0.05321604
91	0x3e10088c	0.1406576
92	0x3ede2806	0.4338991
93	0x3edad3ea	0.42739803
94	0x3d698680	0.057013035
95	0xbe3b7210	-0.1830523
96	0xbe826350	-0.25466394
97	0xbe633df8	-0.22191608
98	0xbe021664	-0.12703854
99	0xbed86d48	-0.42270875
100	0xbe830fe4	-0.2559806
101	0x3cb1c620	0.021700919
102	0x3eb497ee	0.35272163
103	0x3cbbeca0	0.02293998
104	0xbee8b34c	-0.45449293
105	0x3d138a10	0.03602034
106	0x3e025d78	0.12730968
107	0xbedf9f5e	-0.43676275
108	0xbece7b6c	-0.40328538
109	0xbeafea7a	-0.3435858
110	0xbdffa0b0	-0.124818206
111	0xbec1aaa0	-0.3782549
112	0x3dae3930	0.085070014
113	0xbedfb1aa	-0.43690234
114	0x3ee0a266	0.438739
115	0xbc96fec0	-0.018432021
116	0x3e8bffa6	0.27343482
117	0xbd8206b8	-0.06348938
118	0x3eb805ee	0.35942024
119	0xbeb5c524	-0.3550197
120	0x3e8a8e8e	0.27061886
121	0x3d424620	0.047430158
122	0xbd65de30	-0.056120098
123	0xbe30caa4	-0.17264801
124	0xbed17190	-0.40906954
125	0xbce066a0	-0.027392685
126	0x3e2b35fc	0.16719812
127	0x3eb54a66	0.35408324

net.2.weight f4 [128, 128]
0	0xbd9d5055	-0.07681338
1	0x3cc3a4ec	0.023882352
2	0x3d60a792	0.054847308
3	0x3c6a7ba0	0.014311701
4	0x3d1c8206	0.038209938
5	0x3c8b4c30	0.017004102
6	0xbc787f18	-0.01516702
7	0xbd8217e0	-0.0635221
8	0x3c1645d8	0.0091719255
9	0x3d834621	0.064098604
10	0x3d3ad222	0.045610555
11	0x3d3abfbe	0.045593016
12	0x3cd4c024	0.025970526
13	0xbdac79ad	-0.08421645
14	0xbcb14c40	-0.021642804
15	0xbd674f1c	-0.05647193
16	0xbcc2040c	-0.02368357
17	0x3da9703d	0.08273361
18	0xbd4dbd39	-0.050229285
19	0x3d809715	0.062788166
20	0x3d8a05f9	0.067394204
21	0xbd221427	-0.03957
22	0xbc46a980	-0.012125373
23	0x3d61d336	0.055133067
24	0xba5b6500	-0.0008369237
25	0x3d9bef07	0.0761395
26	0x3d4d9722	0.05019296
27	0x3d082852	0.033241577
28	0xba9fbe80	-0.0012187511
29	0xbd27ca43	-0.040964376
30	0x3d8071d1	0.06271709
31	0x3d562922	0.05228532
32	0x3d1e8c22	0.03870786
33	0x3d93693b	0.071978055
34	0xbcd23de4	-0.025664277
35	0xbd1cd7b9	-0.038291667
36	0xbcbd54dc	-0.023111753
37	0xbd745ef6	-0.059660874
38	0xbd5d6fd5	-0.05406173
39	0xbc264d50	-0.010150269
40	0xbd65e142	-0.056123026
41	0x3d3a7592	0.04552228
42	0x3d8a5273	0.06754007
43	0x3bd49550	0.006487526
44	0xbd5a5065	-0.053299326
45	0xbdb2476c	-0.08705029
46	0x3c87df50	0.016585976
47	0xbca7afd4	-0.020469584
48	0xbda56dd0	-0.08077586
49	0xbd139cea	-0.036038317
50	0x3d8507c9	0.064956255
51	0x3aa06540	0.0012237206
52	0x3d9dabe3	0.076988004
53	0xbb4e6800	-0.0031495094
54	0x3d1ab53e	0.037770502
55	0x3d6db762	0.058036216
56	0x3d452692	0.048132487
57	0xbda7fb9b	-0.08202287
58	0x3bc9dc30	0.0061602816
59	0x3d5c5cb2	0.05379934
60	0x3dac0847	0.08400016
61	0xbd467be8	-0.04845801
62	0x3bb76790	0.0055970624
63	0x3d54045a	0.051761962
64	0x3d107eb6	0.03527709
65	0x3d8fee37	0.07027858
66	0x3d83d89f	0.064378016
67	0x3d92fc07	0.07176977
68	0x3d30b072	0.04313702
69	0x3d9ebfc7	0.077514224
70	0xbd3220b5	-0.043488223
71	0x3d1b423a	0.037904955
72	0xbd604463	-0.05475272
73	0x3d7f6ab2	0.062357612
74	0x3b12e600	0.0022414923
75	0x3d989fe7	0.07452374
76	0xbcd333c0	-0.025781512
77	0xb96a8400	-0.00022365153
78	0x3b0f2d40	0.002184704
79	0xbd633651	-0.055471722
80	0xbd99b1a8	-0.07504588
81	0x3d1f3832	0.03887195
82	0x3c83094c	0.015995644
83	0xbc1d27e8	-0.009592034
84	0x3d20f2ee	0.039294176
85	0x3cbaae78	0.022788271
86	0xbda81356	-0.08206813
87	0x3cd50d60	0.026007354
88	0xbd9fe1d0	-0.07806742
89	0x3d9f2b1d	0.07771895
90	0xbcfdacc6	-0.030966174
91	0xbbcf0b90	-0.006318517
92	0xbc4d4670	-0.012529001
93	0x3d74bf92	0.05975301
94	0x3d4cf37e	0.0500369
95	0xbd93e760	-0.07221866
96	0xbd7f6972	-0.06235642
97	0xbd0b99bd	-0.034082163
98	0x3be24700	0.0069054365
99	0x3a6a1a00	0.0008930266
100	0x3d46d3f2	0.04854197
101	0x3d681646	0.056661867
102	0x3d9630fb	0.07333561
103	0xbc9724e8	-0.018450215
104	0x3d23956a	0.039937414
105	0xbdab1e75	-0.083554186
106	0x3dad98d1	0.08476413
107	0x3c23c3a8	0.009995379
108	0xbc5be930	-0.013422295
109	0xbd66384d	-0.056206036
110	0x3d3edac2	0.046595342
111	0x3d810af1	0.06300915
112	0x3d807fb7	0.0627436
113	0xbd108ab8	-0.035288543
114	0xbd991d71	-0.07476319
115	0xbbdf7dc0	-0.0068204105
116	0x3c74c430	0.014939353
117	0x3b8c5e00	0.0042836666
118	0x3bcccb00	0.0062497854
119	0x3d1ecb66	0.038768195
120	0x3d7be5c2	0.06149841
121	0x3d2b3f2e	0.0418083
122	0xbd6a59d8	-0.057214588
123	0x3cdb3880	0.02676034
124	0x3ca05e64	0.019576259
125	0xbce46a4e	-0.027882721
126	0xbc9eb66c	-0.019374095
127	0xbda259bc	-0.07927272
128	0xbd1ca3b4	-0.038242057
129	0xbd9b767c	-0.075909585
130	0xbc35bc58	-0.011092268
131	0xbd82c854	-0.06385866
132	0x3d18b662	0.03728331
133	0x3d41192e	0.047143154
134	0xbda5c25b	-0.08093711
135	0x3d980f4d	0.074247934
136	0x3d340e8e	0.043959193
137	0xbc2d64d8	-0.010583125
138	0xbda9ce6c	-0.08291325
139	0xbbc04350	-0.0058673993
140	0xbd1aab38	-0.037760943
141	0x3dad4633	0.08460655
142	0x3d8a45f5	0.067516245
143	0xbc180760	-0.009279102
144	0xbd129296	-0.035784326
145	0x3d69fee6	0.057127856
146	0xbd414500	-0.047184944
147	0xbc13e8e0	-0.00902769
148	0xbce71680	-0.028208971
149	0x3cbcf2a4	0.023064919
150	0x3d9cc173	0.07654085
151	0xbd09700e	-0.03355413
152	0x3d2e2812	0.042518683
153	0xbda60a7c	-0.081074685
154	0xbce230a4	-0.027611084
155	0x3d160f0a	0.036635436
156	0xbc2ec6a8	-0.0106674805
157	0x3c7d95a8	0.015477575
158	0xbd426e49	-0.047468457
159	0xbd1fa05d	-0.038971294
160	0xbd8efec9	-0.0698219
161	0x3da1295d	0.078692175
162	0xbda3e35e	-0.08002351
163	0xbbf82cb0	-0.0075736865
164	0x3c0406a8	0.008058228
165	0x3d205dea	0.039152063
166	0x3c83941c	0.016061835
167	0x3c6310d0	0.013858989
168	0xbcdb160e	-0.026743915
169	0x3dab90b1	0.08377207
170	0x3d8daf31	0.06918181
171	0xbc856168	-0.016281798
172	0x3d6b7266	0.057482146
173	0x3c8b8910	0.01703313
174	0x3d865561	0.065592535
175	0x3d8043d9	0.06262941
176	0x3db4478d	0.0880271
177	0x3cf8a500	0.030352116
178	0xbcc9ed74	-0.02464936
179	0xbdae9da1	-0.08526159
180	0xbd6110d4	-0.05494769
181	0x3d472dde	0.048627727
182	0x3cd40338	0.025880441
183	0xbcd47e42	-0.02593911
184	0xbbb77350	-0.005598463
185	0x3b6fdd60	0.0036600456
186	0xbd840c80	-0.06447697
187	0xbd7c19b0	-0.061547935
188	0xbd87fd23	-0.06640079
189	0x3d73c0be	0.059509985
190	0x3d9f5721	0.077802904
191	0xbcc95980	-0.02457881
192	0xbc81d5a4	-0.015848942
193	0xbcd2cbc8	-0.025731936
194	0x3bb8bc70	0.005637698
195	0x3d50bd96	0.050962053
196	0x3d310b0e	0.043223433
197	0xbcd2ac9c	-0.025717072
198	0xbd42402e	-0.047424488
199	0x3db16a69	0.08662874
200	0x3d36f06e	0.044662885
201	0xbcfa6b18	-0.030568644
202	0x3cd91e44	0.02650369
203	0x3c9f9da0	0.019484341
204	0xbd81ea5e	-0.0634353
205	0xbcbe85b4	-0.023257114
206	0x3d991b33	0.07475891
207	0xbcf06780	-0.029346228
208	0x3ca940d8	0.020660803
209	0xbd7ae466	-0.061252974
210	0xbafc3000	-0.0019240379
211	0x3d45fa3e	0.048334353
212	0xbd955b2e	-0.07292782
213	0x3d94fe45	0.072750606
214	0x3ce3dd10	0.027815372
215	0xbd8f1990	-0.069872975
216	0x3da26667	0.07929688
217	0xbd17ac37	-0.03702947
218	0xbd9860a2	-0.07440306
219	0xbd920984	-0.07130721
220	0xbdb148e3	-0.0865648
221	0x3d989d5d	0.0745189
222	0x3cce5074	0.025184847
223	0xbcc05218	-0.023476645
224	0x3d1133e2	0.03544987
225	0x3d9c6fab	0.076384865
226	0xbd67d017	-0.056594934
227	0xbd9c930f	-0.07645237
228	0x3b76e300	0.0037671924
229	0x3d974a49	0.07387216
230	0x3bedc4c0	0.0072561204
231	0x3c6730a8	0.014110722
232	0x3bef0ef0	0.007295482
233	0x3d93f5f9	0.0722465
234	0xbd15faed	-0.036616255
235	0x3c9f2028	0.019424513
236	0xbcf238e4	-0.029568143
237	0xbd6dfd50	-0.058102906
238	0x3cae4874	0.021274783
239	0x3c1a55b8	0.009419851
240	0x3d9674f7	0.07346528
241	0xbc9edb80	-0.019391775
242	0x3cd4ef90	0.025993139
243	0x3cc5d098	0.024147317
244	0x3b21bd00	0.0024679303
245	0xbcc8d280	-0.024514437
246	0xbda6e1b6	-0.0814852
247	0xbc693150	-0.014232948
248	0x3c6d8480	0.0144969225
249	0x3d72fd8a	0.059323825
250	0xbd51fef4	-0.051268533
251	0x3d08099a	0.03321228
252	0xbce8b46c	-0.028406344
253	0x3d42b0ca	0.04753188
254	0x3da647d9	0.081191726
255	0x3da578b7	0.08079665

net.2.bias f4 [128]
0	0xbbee5e00	-0.0072743893
1	0x3d6bdc6e	0.057583265
2	0xbd24ca7d	-0.04023217
3	0x3d16b43a	0.03679297
4	0xbda0c8a1	-0.07850767
5	0x3d429bbe	0.04751181
6	0xbda942eb	-0.08264717
7	0xbb8ce570	-0.004299812
8	0xbd04bf11	-0.032408778
9	0x3ce2ca0c	0.027684234
10	0x3d935d75	0.0719556
11	0x3bdb4e00	0.006692648
12	0xbdad91ec	-0.08475098
13	0x3d813c49	0.063103266
14	0x3c461518	0.01208999
15	0xbd703946	-0.05864837
16	0x3d70ce86	0.058790706
17	0xbd36de20	-0.04464543
18	0x3d7bc00e	0.061462454
19	0xbd93cf2f	-0.072172515
20	0xbd9085b8	-0.07056755
21	0x3d3a3f36	0.04547044
22	0xbd49506d	-0.049148966
23	0xbcd9ccf6	-0.02658699
24	0x3d956291	0.07294191
25	0xbd682cbe	-0.056683294
26	0xbd7fb32c	-0.06242673
27	0x3ccec2fc	0.02523946
28	0xbd8a3cc8	-0.06749874
29	0xbda60660	-0.08106685
30	0xbcd716a0	-0.026255906
31	0x3d2bc436	0.04193517
32	0x3d23354a	0.039845742
33	0x3d4bbc36	0.04974004
34	0xbdabb455	-0.08384005
35	0xbb0d4440	-0.0021555573
36	0xbd1930f3	-0.037400197
37	0xbd5fc811	-0.054634158
38	0xbd519091	-0.05116326
39	0xbd8a810e	-0.067628965
40	0x3d80150b	0.06254014
41	0x3cc83a3c	0.02444183
42	0xbda2be52	-0.07946457
43	0x3d3560da	0.044281818
44	0xbd882f89	-0.066496916
45	0x3c274268	0.010208704
46	0xbd2967b8	-0.04135868
47	0xbda9f8d1	-0.08299411
48	0xbd5a98df	-0.053368445
49	0xbdb19def	-0.086727016
50	0x3d47fc86	0.04882481
51	0x3c047978	0.008085601
52	0xbdaf16ab	-0.085492454
53	0x3d1b22ce	0.03787499
54	0x3d86581d	0.06559775
55	0xbd70d6d6	-0.058798634
56	0xbccb01e4	-0.024781175
57	0xbcf51a56	-0.029919785
58	0x3d17539e	0.036944978
59	0x3d97b119	0.074068256
60	0x3d505342	0.05086065
61	0xbd93c5bb	-0.072154485
62	0xbda0a0af	-0.07843148
63	0x3c220f80	0.009891391
64	0xbd03671a	-0.032080747
65	0x3d0ca7f4	0.03433986
66	0x3c63b0e0	0.013897151
67	0xbc5504c0	-0.013001621
68	0x3d20d02a	0.03926102
69	0xbd80f646	-0.06296973
70	0xbd32e1bd	-0.043672312
71	0x3c473c18	0.012160324
72	0xbd724058	-0.059143394
73	0xbd2799e4	-0.040918246
74	0x3d8e3f8b	0.069457136
75	0xbd9950dd	-0.074861266
76	0x3da97319	0.08273906
77	0xbd9ee25e	-0.0775802
78	0x3cac25b8	0.02101408
79	0x3d833c9b	0.06408044
80	0xbc8ff0d0	-0.017570883
81	0x3b62b340	0.0034591705
82	0x3d7746be	0.0603702
83	0xbcd88308	-0.026429668
84	0xbda06e82	-0.07833578
85	0xbc734b40	-0.014849484
86	0x3d2af622	0.041738637
87	0x3d6b9872	0.05751843
88	0x3c33cf88	0.010974772
89	0xbda4c989	-0.08046252
90	0xbc2d1fb0	-0.010566637
91	0x3d586156	0.0528272
92	0x3c376b78	0.011195056
93	0x3c9f7420	0.019464552
94	0xbd82d212	-0.06387724
95	0x3d43fffe	0.047851555
96	0x3ca3b950	0.019985825
97	0xbb2fe900	-0.002684176
98	0x3dabdf93	0.08392253
99	0x3c36ab30	0.011149213
100	0xbd65289b	-0.055946928
101	0x3da65ba5	0.081229486
102	0xbda820c3	-0.08209374
103	0xbd2212f8	-0.03956887
104	0x3d4bc2c6	0.049746297
105	0xbd957e0b	-0.072994314
106	0x3cf2c660	0.029635608
107	0xbd67f9ff	-0.0566349
108	0xbc380bd8	-0.0112332925
109	0x3d2bad82	0.041913517
110	0x3c8a4f18	0.016883418
111	0xbc30adc8	-0.01078362
112	0x3d8241f3	0.06360235
113	0x3da4b967	0.08043175
114	0xbc5951d8	-0.013264142
115	0xbcd3aeec	-0.025840245
116	0x3c336bc0	0.010950983
117	0xbdb110ac	-0.08645758
118	0x3ab06ec0	0.001346074
119	0xbc15daa0	-0.009146363
120	0xbd8904c6	-0.066903636
121	0xbd773636	-0.060354434
122	0x3d58952e	0.052876644
123	0xbd0bf1dd	-0.034166206
124	0x3d1a52b6	0.037676536
125	0x3da8fd93	0.082514904
126	0xbd40f305	-0.04710676
127	0xbd1f0d2a	-0.038830914

net.4.weight f4 [2, 128]
0	0xbd0d06b2	-0.034430213
1	0xbd97f0f2	-0.074190035
2	0x3cb47fec	0.022033654
3	0xbd3d7400	-0.046253204
4	0x3d604d86	0.054761432
5	0xbd897fd7	-0.06713837
6	0xbc6a6110	-0.014305368
7	0xbc6ba920	-0.014383584
8	0xbda755ff	-0.08170699
9	0x3d3f9b2a	0.046778835
10	0xbd80436e	-0.06262861
11	0x3d8dcb83	0.069235824
12	0x3d1ee0a2	0.038788445
13	0xbc29eea8	-0.0103718415
14	0xbcc8ea94	-0.024525918
15	0x3aa02cc0	0.0012220368
16	0x3d8c6963	0.068560384
17	0x3d096efe	0.033553116
18	0x3d806591	0.06269372
19	0xbd02c73e	-0.031928293
20	0xbdb395d4	-0.08768812
21	0x3d1523e4	0.03641118
22	0x3ce78134	0.028259851
23	0xbd83c8a2	-0.06434752
24	0x3bf20780	0.007386148
25	0xbd1e207b	-0.038605195
26	0x3c491f38	0.01227551
27	0x3c038770	0.008027896
28	0x3d97f777	0.07420247
29	0x3c0dd4e8	0.008656718
30	0x3ca8ddf0	0.02061364
31	0x3d9c0f7f	0.07620143
32	0xbcae3264	-0.021264262
33	0x3d333b12	0.043757506
34	0x3a91f7c0	0.0011136457
35	0x3d4261ce	0.047456555
36	0xbd241fb6	-0.040069304
37	0x3bff7ae0	0.0077966303
38	0xbd1a1d77	-0.037625756
39	0x3ca4fdc4	0.020140536
40	0x3ca99534	0.020701028
41	0xbcf538c4	-0.029934295
42	0xbca743e4	-0.020418115
43	0x3cc84cc8	0.024450675
44	0xba598e80	-0.0008299127
45	0xbd8f3a9c	-0.06993601
46	0xbd420024	-0.047363415
47	0x3c88f0a0	0.016716301
48	0xbd6a30e9	-0.05717555
49	0xbdb2e877	-0.087357454
50	0x3d5658ee	0.052330904
51	0xbcb60f0c	-0.022223972
52	0xbdb4e099	-0.08831901
53	0xbd641963	-0.055688273
54	0xbd80c6dc	-0.062879294
55	0x3b5c9da0	0.0033663288
56	0x3c1204f0	0.00891231
57	0xbcf77832	-0.03020868
58	0x3c2ac060	0.010421842
59	0x3d25c6c6	0.04047277
60	0x3d7474ea	0.05968181
61	0x3d2d758e	0.042348437
62	0x3cb047f4	0.021518685
63	0x3c80c134	0.015717126
64	0x3d9f4dd7	0.07778519
65	0xbb804550	-0.0039145127
66	0xbd3c99fb	-0.046045285
67	0xbc9ebc78	-0.019376978
68	0xbd8c0e8c	-0.06838712
69	0x3baa3bf0	0.0051951334
70	0x3d2844e6	0.04108133
71	0x3d7f14ea	0.062275805
72	0x3dade07f	0.08490085
73	0x3cca3e6c	0.024687968
74	0x3d0505f2	0.032476373
75	0x3d83f2d7	0.064428024
76	0x3d2d5826	0.042320393
77	0xbd97f148	-0.074190676
78	0xbc4ae250	-0.012383059
79	0x3daeb395	0.08530346
80	0xbd876691	-0.0661136
81	0x3d5055a6	0.05086293
82	0xbd894e90	-0.06704438
83	0x3c64c330	0.013962552
84	0xbbdd6f80	-0.0067576766
85	0xbd859096	-0.06521718
86	0x3d9e95f5	0.07743446
87	0xbc415868	-0.011800863
88	0x3d16ddca	0.03683261
89	0xbd98db8e	-0.07463752
90	0x3ccd1f28	0.02503927
91	0xbcf41c2c	-0.02979859
92	0xbd2df9b7	-0.042474475
93	0x3d2a5212	0.041582175
94	0x3d01f554	0.031728104
95	0x3d79f8be	0.061028235
96	0x3d9f91ef	0.077915065
97	0xbd1cc123	-0.038270127
98	0x3d9920d1	0.07476962
99	0x3c40a410	0.011757866
100	0x3cdb0e88	0.026740327
101	0x3b75d5c0	0.0037511438
102	0xbd0c65c3	-0.034276735
103	0x3ce42b34	0.027852632
104	0xbca1ab94	-0.019735135
105	0x3d64525e	0.055742614
106	0x3da239ff	0.07921218
107	0x3c8ca608	0.017169014
108	0x3d9efda3	0.07763221
109	0xbda02d88	-0.078211844
110	0x3d93e25d	0.0722091
111	0xbbc8b690	-0.006125279
112	0x3bacac40	0.0052695572
113	0xbc59bc28	-0.013289489
114	0x3d2ac6de	0.04169356
115	0xbd9f0b98	-0.07765883
116	0x3d9871c1	0.07443572
117	0x3cca44a8	0.024690941
118	0x3d4470ce	0.04795914
119	0xbd6f0519	-0.05835447
120	0x3d03b02e	0.03215044
121	0xbc3ce680	-0.011529565
122	0x3c5c04c8	0.013428874
123	0xbd8877ba	-0.06663461
124	0xbd1f34c3	-0.038868677
125	0xbd961f34	-0.0733017
126	0xbdab6919	-0.08369655
127	0x3cb07990	0.02154234
128	0xbd63c806	-0.05561068
129	0x3d974da9	0.073878594
130	0xbd8cb3da	-0.068702415
131	0x3d1affe6	0.0378417
132	0x3d9bbea7	0.076047234
133	0xbcf1af66	-0.029502582
134	0xbd45e05b	-0.048309665
135	0x3cd9a3d8	0.026567385
136	0xba963e00	-0.0011462569
137	0xbd978281	-0.073979385
138	0x3d7a852a	0.06116215
139	0xbd6cc08e	-0.057800822
140	0xbda61823	-0.081100725
141	0x3d79bfb2	0.06097383
142	0xbc800b8c	-0.015630506
143	0x3ccf522c	0.025307737
144	0x3acee340	0.0015784279
145	0xbd554c2a	-0.05207459
146	0xbda76cab	-0.08175024
147	0xbd7a02a4	-0.061037675
148	0x3ca42a24	0.020039625
149	0xbdace0b5	-0.08441297
150	0xbd8beb2f	-0.06831967
151	0xbda28a33	-0.07936516
152	0x3d699c2e	0.05703371
153	0xbd20f42c	-0.03929536
154	0x3d98131d	0.074255206
155	0xbcc0b248	-0.023522511
156	0xbd954ccc	-0.072900385
157	0x3b808e70	0.00392323
158	0x3d9b257b	0.07575508
159	0x3d3ec5f2	0.046575494
160	0xbd0eb81b	-0.034843545
161	0x3c69a118	0.014259599
162	0x3b9b5040	0.004739791
163	0xbda3c225	-0.079960145
164	0x3d76a846	0.06021907
165	0x3d5cceb2	0.053908058
166	0x3b9b56e0	0.004740581
167	0x3db30c7b	0.08742615
168	0xbbf087f0	-0.0073404238
169	0xbd88b395	-0.066748776
170	0x3b528ee0	0.0032128617
171	0x3d3b90da	0.045792438
172	0x3d81c7d3	0.063369416
173	0xbd77a61a	-0.06046114
174	0x3d417032	0.04722614
175	0xbcc85c70	-0.02445814
176	0xbc18b2f8	-0.009320013
177	0x3ccb6d88	0.024832502
178	0x3d41df06	0.047331832
179	0xbd4c927b	-0.049944382
180	0x3d5f2de6	0.05448713
181	0xbd81f186	-0.06344895
182	0x3c724cc8	0.014788814
183	0xbc4c9018	-0.0124855265
184	0x3d9aa563	0.07551076
185	0xbcf847cc	-0.030307673
186	0xbd393fed	-0.04522698
187	0xbd027474	-0.03184934
188	0xbdadc044	-0.084839374
189	0xbca2d234	-0.019875623
190	0xbd9f18a3	-0.07768371
191	0xbdb44171	-0.088015445
192	0x3d86d425	0.06583432
193	0xbd8d1528	-0.06888801
194	0xbd0ac64b	-0.033880513
195	0x3b4c0a60	0.0031134114
196	0xbd62eeee	-0.055403642
197	0xbc08b920	-0.0083449185
198	0xbd9a1185	-0.07522873
199	0xbd279422	-0.040912755
200	0x3dadf7e7	0.08494549
201	0xbd498387	-0.0491977
202	0xbd4ba72b	-0.04971997
203	0xbd5a637c	-0.053317532
204	0xbdaa65a0	-0.08320165
205	0x3c1fdde0	0.009757489
206	0x3c4c8ad8	0.012484275
207	0xbd6394cd	-0.05556183
208	0x3d9b3f53	0.075804375
209	0x3d5b5a3a	0.053552844
210	0xbce9c842	-0.028537873
211	0xbdb47127	-0.088106446
212	0x3c2a30e8	0.010387637
213	0x3da09311	0.07840551
214	0x3db218fd	0.086961724
215	0x3d21c142	0.039490946
216	0x3d877225	0.06613568
217	0xbd3bc6dd	-0.045843948
218	0xbd7e109e	-0.062027566
219	0xbc5f09b8	-0.013613157
220	0xbda2dcb3	-0.07952251
221	0xbca0872c	-0.019595705
222	0xbd5a6df0	-0.0533275
223	0x3da2c14f	0.07947027
224	0xbd43e4be	-0.047825567
225	0x3ce809b4	0.02832494
226	0xbd250010	-0.040283263
227	0x3da4199d	0.08012698
228	0x3d642712	0.055701323
229	0xbd716bb8	-0.05894062
230	0x3c8254e8	0.015909627
231	0xbd40c81f	-0.04706585
232	0x3c9192a4	0.017770119
233	0xbdb3f6b4	-0.08787289
234	0xbcd675e4	-0.026179262
235	0x3d884a29	0.0665477
236	0xbaf23740	-0.00184796
237	0xbdaca863	-0.08430555
238	0x3d113c70	0.03545803
239	0x3c8f2b50	0.017476708
240	0x3da1649b	0.07880517
241	0xbc77f150	-0.015133217
242	0x3d74d75a	0.059775688
243	0xbb934c40	-0.0044951737
244	0xbd982e52	-0.0743071
245	0xbd8af977	-0.06785863
246	0xbc9898a0	-0.018627465
247	0x3cfcb988	0.030850187
248	0xbdb05fc2	-0.08612014
249	0xbd4b4145	-0.049622793
250	0xbbbad7a0	-0.005701974
251	0x3d477dce	0.04870396
252	0x3d1edba6	0.03878369
253	0x3c006fc0	0.007839143
254	0x3c663710	0.014051214
255	0xbc4066a0	-0.011743218

net.4.bias f4 [2]
0	0x3a491400	0.0007670522
1	0x3ccaddc0	0.024763942
