data/checkpoints/dqn_episode_200.pth (torch, 72408 bytes, 6 tensors)

net.0.weight f4 [128, 4]
000000 9c d1 c6 be 87 19 6b 3d 62 f6 f6 be 4d 16 f6 be
       -0.38831794 0.05739739 -0.4823485 -0.4806389
000010 8f 32 04 bd 95 d5 fe 3e 90 46 a7 3a 77 70 c9 3e
       -0.03227478 0.49772325 0.0012762118 0.39343616
000020 ad 77 50 be 23 d3 c4 bc fc ed 2e 3d 3e 8e f5 3e
       -0.20358153 -0.02402646 0.04270743 0.47960085
000030 2a 12 f0 bd 0f a3 1b be a7 78 db bd 75 10 95 3e
       -0.117222145 -0.1519892 -0.10716372 0.29114118
000040 22 67 84 3d 91 a3 dc be 79 09 e3 3e c1 ff 01 bf
       0.064649835 -0.4309354 0.44343165 -0.50780874
000050 47 2b 63 3e 89 29 67 be dc 56 b6 3e 31 85 47 bc
       0.22184478 -0.22574438 0.35613143 -0.012177751
000060 56 03 ff 3e 14 db c7 3e 98 96 ab 3e 1e 3c c2 3d
       0.49807233 0.3903433 0.3351333 0.09484123
000070 5b 6a 90 be ee cd b0 be cb 18 f4 3e a7 ae b4 3e
       -0.28206143 -0.34532112 0.47675166 0.352895
000080 39 30 da bd b5 08 e1 be 83 64 88 3e f6 63 df be
       -0.10653729 -0.43951955 0.26639184 -0.43630952
000090 91 12 a1 be 8b 85 27 3e 39 f9 c7 3e 2f f1 a1 be
       -0.31459478 0.16359536 0.3905733 -0.3162932
0000a0 1a 14 44 3e 55 65 bb be 46 ba f2 bc ec e9 82 3e
       0.19148293 -0.36600748 -0.029629838 0.25569093
0000b0 4d 5d 7d bd 03 ed e6 be 8b 68 a4 be c6 66 d0 3d
       -0.061856557 -0.451027 -0.3211101 0.101758525
0000c0 9c 50 48 bc 53 cf ad be e0 06 2a 3e 3e 29 8c 3d
       -0.01222625 -0.33947238 0.16604185 0.06843804
0000d0 e6 bc b3 3e 65 20 8d be 70 8c 9b 3d 4a 04 05 3e
       0.35105056 -0.27563778 0.07595146 0.12989917
0000e0 65 fb 72 be 4f d3 58 be 90 02 00 3e 1f 41 32 bd
       -0.23728712 -0.21174358 0.12500978 -0.043519136
0000f0 ef f1 1a 3e ab e8 9a be 7f 62 f0 bc b5 83 ff be
       0.15131353 -0.30255637 -0.029343842 -0.49905172
000100 46 fb 35 3d 22 31 80 be f8 73 4b 3e ef 27 ac 3e
       0.044429086 -0.25037485 0.19868457 0.33624217
000110 00 c1 5d 3e 73 7e a3 bd 50 09 f8 be 6a 07 69 be
       0.21655655 -0.07983103 -0.48444605 -0.22756734
000120 e8 c0 ce 3e ad 3d 2a bc a4 84 fb 3e e6 cb 04 be
       0.4038155 -0.010390681 0.49124634 -0.12968406
000130 f3 8f 8b be 7b af bc be 95 2a eb be 00 46 8b be
       -0.27258262 -0.3685263 -0.45930925 -0.27201843
000140 59 0f 99 be fb 8e 2b 3d 6b ac 31 3d 35 28 a6 be
       -0.29894522 0.041884404 0.04337732 -0.3245255
000150 ac a5 d0 be 7b 7a c7 be 61 6e 9f 3e 2e 63 db 3e
       -0.40751398 -0.38960633 0.311389 0.42849106
000160 1c f5 97 3e 0a 78 00 3e af ef 72 be c7 c6 96 3d
       0.2967919 0.12545791 -0.23724245 0.073621325
000170 89 48 10 be 3c 97 a0 3e eb 6e c1 be e3 68 ab be
       -0.1409017 0.31365383 -0.37779936 -0.3347846
000180 97 34 c0 3e c5 49 fa 3e 5b 80 6e be 62 d7 c8 be
       0.37540123 0.48884407 -0.23291151 -0.39226824
000190 9b 4e 8f 3e b1 06 69 be ae e7 0c bd e6 b2 ae be
       0.2798966 -0.22756459 -0.034400634 -0.34120864
0001a0 63 24 d6 be f1 74 b3 be 16 e5 d3 3e 32 e1 cb 3c
       -0.41824636 -0.35050157 0.41385716 0.024887655
0001b0 77 10 4c 3e e3 8e bd 3e e3 8f 83 be 09 b4 ca 3d
       0.19928156 0.37023076 -0.25695714 0.0989762
0001c0 8d 84 08 bd 04 4b c2 be 17 6e 33 bd 43 34 3e be
       -0.033329535 -0.37947857 -0.04380616 -0.18574624
0001d0 ce 4d 1f be 5e 57 f4 3e 0c 61 ef 3e 1e 23 ce 3e
       -0.15557024 0.47722906 0.46753728 0.40261167
0001e0 e6 68 8c 3e 02 70 ea be 78 91 20 be 4f a8 98 be
       0.2742378 -0.4578858 -0.15680492 -0.2981591
0001f0 36 6a 10 be 08 3d c9 3e ff d9 32 be 5f d8 fc be
       -0.14103016 0.39304376 -0.17465971 -0.49383828
000200 d6 4c 46 3b ac d7 81 bc f6 70 cb bd 26 43 cb be
       0.00302582 -0.01584991 -0.09933655 -0.39699668
000210 87 58 2b bd b6 7b 51 3e da 04 a4 be 60 c8 a4 3e
       -0.041832473 0.20457348 -0.3203495 0.32184124
000220 65 f7 8b be 1f 59 80 3e a6 f0 a7 3d 0f 6e ee be
       -0.27337185 0.25067994 0.08200197 -0.46568343
000230 8d 64 d0 3e 9b 9c 8f be ab 70 81 3e 6f 39 09 3e
       0.40701714 -0.28049168 0.2528127 0.13400815
000240 61 a7 e3 bd c4 62 00 bf 45 d9 39 bd 82 c8 29 3e
       -0.11115909 -0.50150704 -0.04537322 0.16580394
000250 d6 ab 2c be 23 9e 5c 3c 7d 1c 1f 3d 92 a7 cf bd
       -0.16862425 0.013465437 0.038845528 -0.101393834
000260 d2 87 3d 3e 6b c8 a8 3e 59 fe a9 be 4c 35 e7 3d
       0.18508843 0.32965407 -0.33201864 0.112894624
000270 73 b9 89 be 16 6e 34 3d 02 0c bc be df da e0 3d
       -0.268993 0.0440503 -0.3672791 0.10979246
000280 63 e6 1b 3e 29 a8 95 3e 32 c9 a9 3e f7 91 e0 3e
       0.15224604 0.2922986 0.33161312 0.43861362
000290 08 f6 d3 be 8b 23 76 be f4 fd c4 3e 1f 7e e6 3e
       -0.41398644 -0.24036996 0.38475 0.45018098
0002a0 21 f0 01 be 53 0c c4 3c a4 4f b3 3d c6 29 3e 3e
       -0.12689258 0.023931658 0.087554246 0.18570623
0002b0 43 dd 0d be 53 90 83 be 0f b4 ec bd 3a 4c c7 be
       -0.13853936 -0.25696048 -0.11557781 -0.38925344
0002c0 98 8b ce be c4 11 d5 be dd 64 d2 bc 9e e1 9c 3e
       -0.40340877 -0.41615117 -0.025682861 0.30640882
0002d0 ac b6 36 3e b9 0e 51 3e 90 db 57 be 1b fb 23 bc
       0.17843121 0.20415772 -0.2107985 -0.010008599
0002e0 56 b8 23 be 5b 4c 76 bd 88 09 99 be 72 97 54 bd
       -0.15988287 -0.060131412 -0.29890084 -0.051902242
0002f0 1d f6 f4 3d 48 3c ea 3e 26 63 99 3e 9b ce 9a be
       0.11961005 0.45749116 0.29958457 -0.30235752
000300 ee e6 97 3e 54 8d c6 be 73 d0 ee be 9e fb f6 3e
       0.29668373 -0.387797 -0.4664341 0.48238844
000310 47 76 8f be be 66 bc be 68 8c cb be 06 22 b3 bd
       -0.28019926 -0.36797136 -0.3975556 -0.08746724
000320 7a 9b b8 bd 81 13 90 3d ea 19 22 bd 74 df af 3e
       -0.0901403 0.0703497 -0.039575495 0.3435017
000330 91 25 e4 3e 61 44 b1 3e 6d d6 d7 3d 0c 71 95 be
       0.4455991 0.3462248 0.10538945 -0.2918781
000340 88 b8 d6 be 4b e0 e0 3e e5 10 86 3e 4a 37 68 3e
       -0.4193766 0.43921122 0.26184765 0.22677341
000350 96 39 84 bd c1 53 aa be e0 9e ed bd 2e 19 fa 3e
       -0.06456296 -0.33267024 -0.116025686 0.48847336
000360 d6 45 0c 3e c6 5c 15 bd e2 59 14 3c f4 09 94 3d
       0.13698515 -0.03646543 0.009054633 0.07228461
000370 b1 48 2b be 90 e3 70 bd c1 f9 95 3e 3d 5c 31 bc
       -0.16726948 -0.05881077 0.2929211 -0.010825214
000380 9c ca e6 be 9b 35 d1 bd dc e2 c3 3d fa 7c ad be
       -0.45076454 -0.102153026 0.09564754 -0.33884412
000390 db 5c 89 3e 63 41 03 bf 47 b7 a8 3e b6 09 0b 3e
       0.26828656 -0.5127165 0.3295233 0.13577923
0003a0 07 08 96 be ee 03 db be 2a f5 eb bd 6f c0 6b 3e
       -0.29303 -0.42776436 -0.11521371 0.23022626
0003b0 25 ef 7a bd 54 26 15 3e 66 4f 77 bd b9 4b 94 be
       -0.061263222 0.14565402 -0.060378455 -0.28964022
0003c0 11 21 44 bd 4e 51 8b be d2 15 36 be 78 59 a8 3d
       -0.047883097 -0.27210468 -0.17781761 0.0822019
0003d0 47 c3 37 3e 70 9c ad be fc 5e e2 be b6 9e 2c 3e
       0.17945586 -0.33908415 -0.44213092 0.16857418
0003e0 f1 08 c1 3e 16 9e e8 be 20 62 cd 3e be 64 2d be
       0.37702134 -0.4543311 0.40113926 -0.16932961
0003f0 5e 7f 6c be c8 20 15 be 86 af 15 3e f5 ac cc 3d
       -0.23095462 -0.14563286 0.14617738 0.099939264

net.0.bias f4 [128]
000000 9a f2 cd 3e b1 07 85 3e 96 33 cc 3e 39 2e 17 be
       0.40224153 0.2598243 0.39883107 -0.14763726
000010 88 0c f1 be 9f a8 a4 3d de 7c a1 bc 4d 2a 27 be
       -0.47079873 0.080399744 -0.019712862 -0.1632473
000020 c1 e6 dc be 55 8d ac 3e 91 5e b4 3e ba c9 f3 be
       -0.431448 0.33701578 0.35228398 -0.47614843
000030 b1 12 02 bf 9a 8b 9b 3d 61 bf 45 3d c3 ea e5 bc
       -0.5080977 0.07594986 0.048278216 -0.028066045
000040 96 85 65 3e c1 92 85 bd 27 86 58 be f7 da df 3d
       0.2241424 -0.06522132 -0.21144925 0.10930436
000050 c5 ab 8f be ec 25 f0 bc 0d e5 ee bd c4 52 96 be
       -0.28060737 -0.029314958 -0.11664782 -0.2936002
000060 2c 4a ab bc 8f ed d4 be 42 90 f2 bd a6 ce 4b be
       -0.020909391 -0.41587493 -0.11843921 -0.19903049
000070 4a 5c 48 3e bd b3 81 be 8d 48 cd bd c1 41 2c bd
       0.19566455 -0.25332442 -0.100236036 -0.042054895
000080 93 a5 b7 3e 0e 60 a9 be 19 12 51 3e 3a e7 f3 be
       0.3586851 -0.33081096 0.2041706 -0.4763735
000090 ca 6e 01 3e 3f 36 54 3c bc c7 04 3e fc af 54 3e
       0.12639919 0.012952386 0.12966818 0.20770258
0000a0 fb bb ef bc 2f 59 ad 3e ca 81 59 3e c0 a1 9f be
       -0.02926444 0.33857104 0.21240917 -0.31178093
0000b0 68 d6 08 3e 54 c3 9d be e7 8e 9f 3e 1c d2 ec bd
       0.1336304 -0.30813086 0.31163713 -0.11563513
0000c0 ee bf f7 be 3a 85 8b 3e 91 80 c0 be 7b 37 f5 be
       -0.48388618 0.2725008 -0.37598088 -0.4789389
0000d0 f7 1a 07 3f a7 e3 54 bd 2d fe 37 3e 3a b0 cb 3e
       0.5277552 -0.05197492 0.17968054 0.39782888
0000e0 28 65 12 3e 98 76 b1 3e 81 95 a4 be 5a 22 f7 bd
       0.142964 0.34660792 -0.32145312 -0.12067099
0000f0 6a 6b 1f 3e 87 31 72 3c 2b e4 47 3d 22 f3 00 3f
       0.15568319 0.014782316 0.048801582 0.5037099
000100 53 31 ca 3e e4 61 a6 3c 46 7c a5 be 3f 29 4e be
       0.39490756 0.02031035 -0.32321376 -0.20132922
000110 9d e8 f8 bd c4 d6 da 3e f3 f3 47 3e e2 e9 96 bd
       -0.121537425 0.42741978 0.19526653 -0.07368828
000120 81 e8 fb bc 6a 29 f0 3e 11 80 6b bd 1d c4 5c be
       -0.030750515 0.46906596 -0.05749518 -0.21559186
000130 7e ed 7b bd a6 19 6d 3e c2 31 51 bd a7 87 2b 3d
       -0.061505787 0.23154315 -0.051072843 0.041877415
000140 8c 01 5e bd 7b bd a4 be 79 fd b7 3e 55 ec 00 3f
       -0.054200694 -0.32175812 0.35935572 0.50360614
000150 bb a1 ce 3e a4 be e0 3e 58 a8 a6 3d cc a4 34 3e
       0.40357766 0.43895447 0.08137578 0.1764099
000160 ea 98 68 3e 0e e1 ec 3d 3f 16 b1 3e ec 58 cf be
       0.22714582 0.11566363 0.34587285 -0.4049753
000170 35 b9 00 bf 7c 9e f2 be 69 92 c1 be 62 49 83 be
       -0.50282604 -0.4738654 -0.37807015 -0.25641924
000180 6c f0 73 3e a8 c6 37 bd 30 12 5c be 55 51 af 3d
       0.23822182 -0.044867188 -0.21491313 0.08560435
000190 47 69 c3 3d 0b ba d5 be 40 ab a2 bd 73 6d d3 be
       0.095415644 -0.41743502 -0.079428196 -0.4129444
0001a0 51 55 aa 3e 9d 59 97 3e 34 34 f6 be 4c ad 0c 3e
       0.33268216 0.29560557 -0.48086703 0.13737983
0001b0 dc 0b 2b be ea ac 26 be 55 cd e4 3c bf 9e 8a bd
       -0.16703743 -0.16276899 0.027929941 -0.0676856
0001c0 fe a3 6a 3e 38 24 c7 be e7 3c dc be ea 7b 3b be
       0.2291412 -0.3889482 -0.43015215 -0.18308988
0001d0 99 48 33 3d 8c 16 cd be 97 3b 01 3e e8 21 12 be
       0.043770406 -0.40056264 0.12620388 -0.14270747
0001e0 57 ec 2e 3e b7 36 10 bd 85 2b fd 3e f2 b9 88 be
       0.17082344 -0.03520843 0.49447265 -0.26704365
0001f0 3e e2 91 be ba 2d d8 be a7 24 e7 be 49 d8 80 3e
       -0.28492922 -0.42222387 -0.4514515 0.25165012

net.2.weight f4 [128, 128]
000000 38 e1 84 3c 0d fa ad 3d 06 15 6c 3d 6d 5e a4 3d
       0.016220674 0.08494959 0.057637237 0.08025823
000010 88 71 81 bc 56 56 2b 3d 9c 17 0f 3c b1 be 82 3c
       -0.015801206 0.041830383 0.008733656 0.01596007
000020 7b 4c 0c 3d 3f 51 cc 3d f1 a5 be bc 6e 72 95 3d
       0.034252625 0.09976434 -0.023272486 0.07297216
000030 56 73 8c bd ee f3 2c 3d 81 05 60 3d 5b b9 92 3d
       -0.06857936 0.042224817 0.05469275 0.0716426
000040 cb 11 0e bb 3c 24 35 3d ba 2a 1b 3d 7e 2e f6 bc
       -0.0021678086 0.04422401 0.037882544 -0.030051466
000050 16 d4 08 3d a4 13 ad 3d 95 9a 43 bc 89 aa 97 bd
       0.033405386 0.08451012 -0.011938711 -0.07405574
000060 02 bb a7 3b bf 40 20 bd 40 d6 f8 bc c3 db 02 bd
       0.0051187286 -0.039124247 -0.0303756 -0.031947862
000070 42 32 b8 bd 14 8a b1 3d 62 1e 14 bd 1f 88 2d bd
       -0.08993961 0.086689144 -0.036161788 -0.042366143
000080 2b 72 09 3d a5 bd 84 3c 1c c9 68 3d 0f 5e 82 3d
       0.033556145 0.01620371 0.056832418 0.063655965
000090 18 81 92 3d 3e d1 95 bb 9e 71 49 3d c5 0c e3 3c
       0.07153529 -0.0045720628 0.04918062 0.02771605
0000a0 25 6c b6 3d 1a 98 49 bc 2d fc 01 bd 64 71 30 3d
       0.08907346 -0.01230433 -0.031734634 0.043076888
0000b0 25 b5 a5 bd df 14 4a 3d ee 03 89 bd 37 9c 9a bd
       -0.08091191 0.04933631 -0.06690203 -0.07549327
0000c0 c2 cf df bc 7e 1e 7f 3d 71 f5 6a bd 50 a6 b3 bc
       -0.027320746 0.06228494 -0.057362977 -0.02192989
0000d0 60 52 9e 3d e6 fd 80 3d 52 91 a8 bd 30 2a 5f bd
       0.077305555 0.06298427 -0.08230843 -0.054483593
0000e0 97 24 0c 3d d1 78 bb 3c b7 38 55 bd 97 70 34 bd
       0.034214582 0.022884758 -0.05205604 -0.044052687
0000f0 e1 68 8f 3d 0c e2 02 3e 65 ae 90 3d f4 5d e2 bb
       0.07002426 0.12781543 0.07064513 -0.0069081727
000100 be f0 96 bd 60 ab 81 3c 95 32 b3 3c 78 44 46 3d
       -0.07370137 0.015828788 0.021874705 0.04840514
000110 4a 43 9a 3d 0b cd 69 3d b5 13 2a bc e5 41 bf 3c
       0.075323656 0.05708031 -0.010380675 0.02334685
000120 22 71 97 3b fa 18 09 3d 6e fb 46 bd 66 6c 9e 3d
       0.004621641 0.033471085 -0.048579626 0.07735519
000130 29 b5 bb 3c 57 12 a6 bd d1 32 80 3d 61 1d 1b bd
       0.022913532 -0.08108967 0.062596925 -0.037869815
000140 b1 9b cc bc 6d d7 0e 3d c2 b5 ca bb 76 a0 70 3d
       -0.024976583 0.034873415 -0.006186218 0.058746777
000150 ef b5 a2 3d 72 4a 8f bd bf 3a fa 3c 1f de 35 3d
       0.07944857 -0.06996621 0.03054559 0.044401284
000160 56 bb 6c 3d 07 cc 10 3d 7d ff f4 bb 9b 9b 14 bd
       0.057795845 0.035350826 -0.0074767456 -0.03628121
000170 c4 07 87 3d 9f da 8a 3d 63 df a5 bd 50 32 6a 3d
       0.06593278 0.0677998 -0.08099248 0.057176888
000180 3e 41 05 bc f6 a3 60 3a 96 30 79 3d 63 ed 7b bd
       -0.008133231 0.0008569354 0.06083735 -0.061505686
000190 8d 2a ac bc 9f 92 7a bd 42 c9 4e 3d 2f 24 ad 3d
       -0.021016384 -0.061174985 0.050484903 0.08454167
0001a0 b6 bb ea bc cd c2 67 bb a0 2b 7b bd 40 34 8a 3d
       -0.02865396 -0.0035363913 -0.0613209 0.06748247
0001b0 8a 5a ac 3d 41 26 9f 3d c4 62 b6 3d c6 41 6d bd
       0.084157065 0.07770968 0.08905557 -0.057924055
0001c0 93 b1 22 bb 04 77 2f 3d 0a 3b 53 bc 10 f6 af 3d
       -0.002482508 0.04283811 -0.012892494 0.085918546
0001d0 bc 92 89 bd 8b e8 45 3d 33 5d 63 3d 33 f3 89 3d
       -0.067174405 0.048317473 0.055508804 0.0673584
0001e0 8e 16 95 3d 97 ef 26 3d 7a bc eb bb f1 0d 90 bd
       0.072796926 0.040755834 -0.007194099 -0.07033909
0001f0 b1 65 93 bd c8 33 9c bd 7c 45 e9 3c dc 83 71 3d
       -0.071971305 -0.07627064 0.028475516 0.05896364
000200 97 d6 31 bd 17 f8 42 3d 5a 8b a1 3d b4 13 a7 3b
       -0.04341754 0.04759988 0.07887907 0.0050987843
000210 a5 19 39 3d bb df 05 3c 59 5c 88 bd 8c 87 87 3d
       0.045190472 0.008171017 -0.06658239 0.066176504
000220 bc b1 9c bc ce 13 a0 3c d0 7a a4 3d 41 f1 a3 3d
       -0.01912772 0.019540694 0.08031237 0.08005
000230 de a7 ba 3c d4 af 99 3d 3b ad 90 bd 0e 90 81 3c
       0.022785123 0.0750424 -0.07064291 0.015815761
000240 5c 6d a5 3d 1f 88 18 3d 44 41 07 3d 76 8b 5b bd
       0.08077499 0.03723919 0.033021227 -0.053599797
000250 92 4c ac 3d 84 0f 3b 3d 07 d1 29 bd 96 3b ef bc
       0.08413042 0.045669094 -0.04145911 -0.029203217
000260 85 82 96 3d b2 99 94 bd b7 7a 47 bc 96 35 b9 bd
       0.073491134 -0.072558776 -0.012175254 -0.09043424
000270 da e9 f6 3c c3 34 71 3a ca ce 28 bd 57 21 f9 3c
       0.030140806 0.00092012825 -0.041212834 0.030411405
000280 d3 24 f4 3c 5b 5f 2b 3c 93 82 a0 bd c3 5e 25 bd
       0.029802715 0.010459746 -0.07837405 -0.040373575
000290 da 7b b4 bd a6 6f 2f bd 2e 77 ae bd 04 6f 00 bd
       -0.08812685 -0.042831086 -0.085188255 -0.031355873
0002a0 d9 95 5e bd fa 63 89 3c c4 54 2d bd 5e bf 90 bd
       -0.054342125 0.016771305 -0.042317167 -0.070677504
0002b0 49 16 cf 3c ce 46 ff bc 4e 92 1b bd c3 52 a3 3c
       0.025279181 -0.031161692 -0.037981324 0.019936925
0002c0 66 9e ff bc be 16 e1 3c af e8 35 3d 28 e0 6a 3d
       -0.03120346 0.027476665 0.044411357 0.05734268
0002d0 79 c4 76 3d d2 31 79 bb 51 49 19 3d b3 01 d5 3c
       0.060245965 -0.003802408 0.037423436 0.026001787
0002e0 f6 fb 78 3b 1c e7 30 bd 71 8e 8e bd 27 05 8b 3d
       0.0037991977 -0.043189153 -0.06960762 0.06788092
0002f0 4f 92 56 bd d2 2e b2 bd 39 2a 85 3d b8 a7 85 bd
       -0.052385624 -0.087003365 0.06502194 -0.065261304
000300 7d 46 9c 3d 9a 72 ae bc 15 c0 8f 3d 6a ee 86 bd
       0.07630632 -0.02129488 0.070190586 -0.065884426
000310 f0 97 9e 3d 3d 29 84 3c f2 42 96 bd 9f 97 9a 3d
       0.077438235 0.016132945 -0.073369876 0.07548451
000320 43 e7 ee bc a4 7a 22 3d 46 3f 27 bc 09 63 19 bd
       -0.029163009 0.03966774 -0.010207957 -0.037447963
000330 54 2e 6e 3c c2 f4 45 bd 53 5e 81 bb 07 c1 0a 3d
       0.014537413 -0.048329122 -0.003948012 0.03387549
000340 67 00 1c 3d 81 ac 53 bd ff 69 76 bd a8 19 35 3a
       0.03808632 -0.051678184 -0.06015968 0.0006908425
000350 66 f5 85 3c 2f 82 5d 3d 8c 98 2e bd 03 01 c9 3c
       0.016352367 0.05407923 -0.04262595 0.024536615
000360 14 eb 0d 3d 28 5d 82 bd c3 6e 68 bb 2b b2 55 3d
       0.034648016 -0.063654244 -0.003546641 0.052171867
000370 c6 84 ac bd 3e ea 1f 3d c9 cc 80 3d 5a f1 37 3c
       -0.08423762 0.03904175 0.0628906 0.011226976
000380 38 f0 ae bd bb ea 9d bd dd 32 ad 3c fd d5 9c 3d
       -0.08541912 -0.07710787 0.021142418 0.076580025
000390 5e 40 7d bd 2a 95 7e 3d 49 0b 8a 3d 06 ac 3c bc
       -0.061828963 0.062153973 0.06740434 -0.011515623
0003a0 e9 e8 8d 3d 55 a9 67 3d 65 6a ab 3c 30 b7 82 bd
       0.0692919 0.056557972 0.020924756 -0.063825965
0003b0 13 d5 3c bd 0c 1b b6 3d 21 a7 54 bc e6 af 94 bc
       -0.04610164 0.088918775 -0.0129793 -0.018150281
0003c0 6e f6 8c bd 3e e9 90 bb f7 ff 1c bd 63 9a 20 bd
       -0.0688294 -0.004422336 -0.038330045 -0.039209735
0003d0 75 05 0d 3d 82 cc 59 bb dd 06 4e 3d 4d 95 e5 3c
       0.034429032 -0.0033233468 0.050299514 0.028025294
0003e0 ef 9b 43 bd 97 1c 45 3b 91 4b a0 bd 02 fc 30 3c
       -0.04775613 0.0030076855 -0.07826913 0.010802271
0003f0 1e 6f a5 3d c0 25 03 3d 85 bc 56 3d 70 b1 86 3d
       0.080778345 0.032018423 0.05242588 0.06576812

net.2.bias f4 [128]
000000 0c 9f 8d 3d 7e e3 fa 3c 31 e7 89 3a b8 10 90 3d
       0.069151014 0.030626055 0.0010521171 0.07034439
000010 8d 49 c7 bc 87 64 0c 3d d9 05 58 bd 76 2e 11 bc
       -0.024327064 0.034275558 -0.05273995 -0.008861175
000020 7f 3c 6c 3d c7 9e a3 3b b8 5e 2d bd 9b 5f 54 bd
       0.05767488 0.004993293 -0.04232666 -0.05184899
000030 2e ed 12 bc d2 2a 07 bd 24 0f cd bd 97 6c a7 3c
       -0.008967681 -0.03299982 -0.100126535 0.020437522
000040 21 ad bb 3d a1 43 32 bd 87 51 41 bd e4 aa 69 3c
       0.09163881 -0.043521527 -0.04719689 0.014261935
000050 6d 94 26 3d 6a e5 ff bc 2d 72 0c bd 9a 28 8b bd
       0.040668894 -0.031237323 -0.034288574 -0.067948535
000060 9b a3 9c 3d 68 af 03 3c 54 04 65 bc 3e 10 73 bd
       0.07648393 0.008037426 -0.013978083 -0.05934166
000070 0a 00 3d bd 4f bd b6 bc 01 19 8f 3d 96 b8 d2 3d
       -0.046142615 -0.022307066 0.06987191 0.10289113
000080 aa 1a 55 bb 4c f4 c1 3d 14 83 46 3c 8c 7b 0d 3d
       -0.0032517114 0.09470424 0.012116212 0.03454165
000090 da c0 9b bd 60 e3 e3 bb ed 27 0d bd 7b 95 87 3d
       -0.07605143 -0.0069545954 -0.034461904 0.06620308
0000a0 1c e1 73 bd 10 d5 23 3d ec 56 14 bd c1 f6 94 bd
       -0.059540853 0.039998114 -0.036215708 -0.07273627
0000b0 47 41 11 bb 3a 59 b2 3d 17 0c ca 3d 20 63 f4 3c
       -0.0022164152 0.08708425 0.09865587 0.029832423
0000c0 41 6f 27 3d e4 67 57 3c ff 8f fb bc ae 9a 51 bd
       0.040877584 0.013147328 -0.030708311 -0.051172905
0000d0 4b 26 3b bc a5 ff de bd f3 a3 b5 3d 59 93 c9 bb
       -0.011422704 -0.10888604 0.088691615 -0.0061515984
0000e0 36 8c 8d bd 8c 8b a1 3c 45 f3 bb bd 76 65 8d 3d
       -0.06911509 0.019719861 -0.09177259 0.06904118
0000f0 38 69 88 3c aa 47 68 bd c4 5b ae 3c 46 84 52 3d
       0.016651735 -0.05670897 0.021283992 0.051395677
000100 1a 3d d5 bd 6f f2 cb 3c 43 6b cb bc 62 20 8c 3d
       -0.10412045 0.024895875 -0.02483142 0.06842114
000110 9a 7f 3d 3d 8f 80 4c 3d 91 8b 19 3d e7 e1 3a 3d
       0.04626427 0.04992729 0.037486617 0.045625594
000120 c7 6c 32 bd d4 22 d9 bd 30 3d 8d 3d 5e a8 6c bd
       -0.04356077 -0.10602346 0.06896436 -0.057777755
000130 4f e9 9c bb 67 6f 6e bd b9 ac 8f bc 83 ed a3 3c
       -0.0047885547 -0.05821171 -0.017538415 0.020010715
000140 89 5b 3b 3c c0 32 c8 3b 4d 5a 01 3b 3a 07 0b bd
       0.011435398 0.0061095655 0.0019737661 -0.03394244
000150 49 83 62 ba 69 72 08 bd ea 73 5b 3d 27 53 88 bc
       -0.0008640779 -0.033312235 0.05357734 -0.016641213
000160 40 62 44 3d 23 5b d0 3d fa e6 71 bd e0 a5 b2 bd
       0.04794526 0.10173633 -0.059058167 -0.087230444
000170 f7 ff cd bc 6a e0 a3 bd 2e e5 a6 3d 7e f2 8e 3d
       -0.025146468 -0.08001788 0.08149181 0.069798455
000180 83 d6 8c 3d 5c 67 90 3b d6 f5 4f 3b 42 99 1a 3c
       0.06876852 0.0044068526 0.0031732223 0.009435954
000190 95 ee 73 bd 2d b7 8f 3d 50 7f 4d 3d a0 6e 66 ba
       -0.0595537 0.0701736 0.050170243 -0.0008790288
0001a0 fe 2e 1e bd 38 30 a0 bc 74 0b 85 bd 40 89 45 3d
       -0.038619034 -0.019554242 -0.06496325 0.048226595
0001b0 0a 39 a9 3c 12 10 f5 3b e9 f1 1d bd ab 61 75 3c
       0.020657081 0.0074787224 -0.03856078 0.014976899
0001c0 60 d9 9e 3d 25 91 2a bc f2 0a 33 bd 47 78 26 3d
       0.07756305 -0.010410582 -0.04371161 0.04064205
0001d0 a9 61 cb bc ee 3c 4b bd 5b ee 42 3c 87 80 91 3d
       -0.024826841 -0.049618654 0.011897649 0.07104593
0001e0 15 b0 7a 3d 62 84 54 bb 7f ec 00 bd 62 a7 65 bd
       0.06120308 -0.003242754 -0.03147554 -0.05606783
0001f0 af 12 70 3d 1d af 6c 3c ae ea 1d 3b 51 62 40 3d
       0.058611568 0.014446047 0.0024096179 0.04696876

net.4.weight f4 [2, 128]
000000 35 0d d2 3c 55 12 13 bd ee 07 5d bd 74 b7 ae bd
       0.025641063 -0.035906155 -0.05396264 -0.08531085
000010 5c 07 a9 bd e9 87 ad bd ed 05 08 3d b8 d3 36 3d
       -0.08253357 -0.084731884 0.033208776 0.044635504
000020 2f cc 2e 3d d9 d2 46 3d 6a d6 ad 3c 78 56 41 39
       0.042675193 0.048540924 0.021220405 0.00018438126
000030 7f cc b8 3d 1a a8 85 bd 88 d1 07 3c 5c 34 8e bd
       0.090233795 -0.065262035 0.008289702 -0.069435805
000040 b5 45 c6 3c 02 fc 44 bd 6c 3c d1 3b f6 50 c9 3c
       0.02420316 -0.048091896 0.0063853767 0.024574738
000050 43 d9 3c bd f6 2f a2 bc f9 ef 58 bd b7 4a 62 3c
       -0.046105634 -0.01979826 -0.05296323 0.013811759
000060 b8 34 d5 bc ba 22 ad bc b9 88 37 3c d5 b3 ad bc
       -0.026026115 -0.021134723 0.011202031 -0.021203915
000070 3f af c7 3c 66 cd 95 bd 13 af 44 bd 04 28 71 bd
       0.024375556 -0.07314567 -0.048018526 -0.058876052
000080 58 e2 a1 3d 04 38 5f 3c 56 33 04 3d 2b ff e3 bc
       0.079045 0.013624195 0.03227552 -0.027831635
000090 ac 50 89 3d eb ba b9 3c 62 1a 02 3d 4c b8 65 3d
       0.0670484 0.022672137 0.03176344 0.056083962
0000a0 48 33 89 3d 89 63 55 bd bd fa 5d 3c 11 3d 4b 3d
       0.06699234 -0.052096877 0.01354855 0.049618784
0000b0 84 d2 0e bd 9f 80 70 bd 74 1a 6b ba 84 b8 55 3c
       -0.034868732 -0.058716413 -0.00089684804 0.01304448
0000c0 17 35 40 3d a2 64 0d 3d ee 17 04 bd ca e7 77 bd
       0.04692563 0.0345198 -0.032249384 -0.060523786
0000d0 85 2c 24 bd f2 8e 59 3d e4 d6 6a 3b 15 c7 d3 3c
       -0.04008152 0.05311484 0.0035833651 0.025851766
0000e0 b8 4a 39 3d 68 20 81 3d 3a ad 36 bd 91 40 52 bd
       0.045237273 0.06305009 -0.044598795 -0.051331107
0000f0 15 e3 b2 3d 5c ec 73 bd bd 35 a8 3d d0 a9 f9 3b
       0.08734719 -0.05955158 0.08213375 0.00761912
000100 a8 08 54 3d a4 e5 8f 3d 1a 0c ab bd c9 09 87 bd
       0.051766068 0.07026222 -0.083519176 -0.06593663
000110 f4 dd 30 bd 62 e9 46 bc c6 ac c8 bd 66 f4 b2 3d
       -0.04318042 -0.012140604 -0.09798579 0.087380216
000120 e4 33 35 bd 78 8c 95 3d 4b 75 2f bd a1 c1 34 3d
       -0.04423894 0.07302183 -0.04283647 0.04412997
000130 c3 1a a0 bd 47 d9 59 bd d9 8a 9d bd a2 53 ae 3d
       -0.078176044 -0.053185727 -0.07692499 0.085120454
000140 33 55 a9 bd 55 dd 99 3d f2 62 d9 3b bb 44 ba bc
       -0.082682036 0.07512919 0.0066341097 -0.022737851
000150 88 79 93 bd 23 9d 75 3c 11 9c 88 3d e6 fc 9b bd
       -0.072009146 0.014991078 0.06670392 -0.07616596
000160 97 b5 96 bc 28 ab 0d bd 70 c3 a3 bc b8 45 9a 3d
       -0.018397136 -0.034587055 -0.019990653 0.07532829
000170 29 5b 8c 3c ff 49 53 3d 34 0e 5d 3d 26 a1 5d bd
       0.017133312 0.05158424 0.053968623 -0.05410876
000180 50 53 80 bb 58 ea 9b bc 24 ba df bd 90 85 c7 bc
       -0.0039161816 -0.019032642 -0.109241754 -0.02435568
000190 8c 05 7f bd 29 9e 00 bb 24 93 6e 3d d7 b4 56 bd
       -0.06226115 -0.001962552 0.058245793 -0.052418556
0001a0 5d d3 b6 3c 01 5c 92 bb 85 16 8f 3b f3 40 6b bd
       0.022317583 -0.004466534 0.004366698 -0.057434987
0001b0 66 3f 81 bc ea 2b 87 3d 19 00 e9 bc a1 85 a2 3d
       -0.015777301 0.06600173 -0.02844243 0.07935644
0001c0 8b 42 62 bd ee 03 40 3d 73 76 6f bd 91 2c a0 bd
       -0.05523924 0.046878748 -0.05846257 -0.07821
0001d0 54 8f 12 3d 9a b0 af 3d dd 8f 46 3d 9b 7a 62 bd
       0.03578122 0.08578606 0.048477042 -0.055292707
0001e0 96 d8 6a bd 7a db e2 bc cb 8c 76 3b 19 f1 17 bd
       -0.05733546 -0.027692545 0.003762054 -0.037095163
0001f0 21 8f a4 bd bf 25 80 3d 25 f3 59 3d b9 15 78 3c
       -0.08035112 0.062571995 0.053210396 0.015141898
000200 8f 5f 7c bd 4e 85 33 3d 07 82 2a bc d1 2d a1 bc
       -0.06161457 0.0438283 -0.0104069775 -0.019675167
000210 6c bf d4 3c ea 48 49 3d 16 a6 de 3c 2e 7b 8c 3d
       0.025970183 0.049141802 0.027178805 0.06859432
000220 41 d3 7b 3d db 47 00 3c a5 ef 12 bd 51 ca b8 3c
       0.061480764 0.007829632 -0.035873074 0.02255741
000230 fd 93 6c 3c 61 72 7e bd c0 58 88 3c 66 7d 42 bc
       0.01443958 -0.0621208 0.016643882 -0.011870718
000240 8f 3a 02 bd fc 29 9a 3d 5a 6b 7f bd cc be 33 3d
       -0.031794127 0.07527539 -0.062358238 0.04388313
000250 9c 04 07 b9 d8 cf be bd 04 8f 4f bd 64 6c 44 3d
       -0.0001287632 -0.09316987 -0.0506735 0.04795493
000260 93 46 33 bd ee 4d 98 3d 92 39 53 bd ed 76 21 bd
       -0.043768477 0.07436739 -0.051568575 -0.039420057
000270 65 e0 9f bd 4e 97 0b 3c 48 d5 76 bd e9 11 38 bd
       -0.07806472 0.008519961 -0.060261995 -0.044938955
000280 e0 dc 82 3b c9 05 48 bd d7 e9 47 bd 1c 03 30 bc
       0.0039936155 -0.048833642 -0.04880699 -0.010742929
000290 b3 f4 00 3c 1b 2e a0 bb 75 02 24 3c 1d 11 10 bd
       0.007870841 -0.0048883087 0.010010351 -0.03517257
0002a0 23 eb 7a bd fb aa 69 bd 1f 4a b5 bd e1 a8 7d bd
       -0.0612594 -0.057047825 -0.08852028 -0.061928634
0002b0 16 99 49 bd 60 bc 7d 3d 6e 81 8c bd f3 97 b9 bd
       -0.04921826 0.061947227 -0.06860624 -0.09062185
0002c0 de 6d 88 bd 04 f1 a6 bd 2f f4 23 bc 63 e5 8e bd
       -0.066615805 -0.08151439 -0.010006948 -0.06977346
0002d0 76 5b 2c bd 0e 2c a7 3d eb a8 80 bc a9 f0 82 3d
       -0.04207941 0.081627 -0.015705546 0.063935585
0002e0 88 dd 53 3d 04 38 58 3d f7 2d a8 3d 73 bf 1c bd
       0.05172494 0.052787796 0.08211892 -0.038268518
0002f0 d8 1b a1 3d 90 20 14 bc 97 2b 9e 3c 09 ff 72 bd
       0.07866639 -0.009040967 0.019307895 -0.05932525
000300 cd 8b 1b 3d 80 23 9e 3c bf 34 a5 3d d7 b0 7c 3d
       0.03797512 0.019304037 0.08066701 0.061692085
000310 b4 0f 5a bd b3 59 f7 3c 83 b6 01 bd 70 8b 90 bd
       -0.053237632 0.03019414 -0.031668197 -0.070578456
000320 71 3c 95 bd d5 ff 91 3d be dd 00 bd 1c 59 30 3d
       -0.07286919 0.07128874 -0.03146147 0.04305373
000330 67 fa 31 bd 90 2e 18 bd e2 80 a2 3d 91 9c 8d 3c
       -0.043451693 -0.03715378 0.07934739 0.01728657
000340 a4 dd 7e bd b7 29 8f 3d 28 38 4b bd 57 ef 8b 3d
       -0.06222309 0.06990378 -0.0496141 0.0683276
000350 9b 6c 25 bd c4 e1 9a 3b 42 5e 74 bd 61 31 69 3c
       -0.040386777 0.0047266204 -0.059660204 0.014232964
000360 17 3a 0e 3d 07 08 41 bd 47 66 6f 3d 4e 3a a0 3d
       0.034723368 -0.047126796 0.05844715 0.07823621
000370 ac 2c 55 3d 5c a9 70 bd 84 48 c9 bc f5 aa 22 bd
       0.052044556 -0.058755264 -0.024570711 -0.03971382
000380 ca 11 39 3c 07 c9 54 3d 75 3a 8a 3c 52 14 9c bd
       0.011295745 0.051949527 0.016873578 -0.07621063
000390 74 6a 6d 3d ec c3 8f bd 75 15 94 bd 4c 6a 0b bd
       0.05796285 -0.07019791 -0.07230655 -0.03403692
0003a0 d3 6f 43 bd 8a 2b 49 bd 1c b0 97 39 58 5b cc 3c
       -0.047714066 -0.049113788 0.00028932176 0.0249459
0003b0 10 77 81 bd 7e f0 a1 3d 44 50 11 3c a6 78 8f bd
       -0.063215375 0.07907198 0.0088692345 -0.07005434
0003c0 a8 04 01 bd 77 18 c5 bc 94 4c 56 3d 4c 7c 85 3d
       -0.03149858 -0.024059517 0.052319124 0.06517848
0003d0 b8 d5 00 3d c0 b9 86 3d d2 d4 6b bd 1f 14 41 bd
       0.031453818 0.06578398 -0.05757601 -0.04713833
0003e0 69 5c ce bc 95 4d 90 3c 8f ff 2b 3d c7 fe 32 bd
       -0.025190549 0.017615119 0.041991767 -0.043700006
0003f0 11 83 23 bb cf 78 af bc 93 4e ac 3d 2e e3 b6 3d
       -0.0024949948 -0.02141991 0.08413424 0.0893005

net.4.bias f4 [2]
000000 4a 39 fc 3b e8 0a c7 bd
       0.007697259 -0.09718877
