data/checkpoints/dqn_episode_250.pth (torch, 72408 bytes, 6 tensors)

net.0.weight f4 [128, 4]
0	0xbec62cb5	-0.38705984
1	0x3d733922	0.059380658
2	0xbef64251	-0.4809747
3	0xbef59397	-0.47964165
4	0xbd0598ac	-0.032616302
5	0x3f000389	0.50005394
6	0x3a9959a8	0.0011699693
7	0x3ec94c65	0.39316097
8	0xbe5119a0	-0.20419931
9	0xbcce7843	-0.02520383
10	0x3d2a6a5a	0.04160533
11	0x3ef50976	0.4785878
12	0xbdeee587	-0.116648726
13	0xbe1e15cf	-0.15438007
14	0xbddaacc4	-0.10677484
15	0x3e950f76	0.29113358
16	0x3d835fe5	0.06414775
17	0xbedb7ffa	-0.42871076
18	0x3ee2e3eb	0.44314513
19	0xbf020005	-0.5078128
20	0x3e62837a	0.22120467
21	0xbe68fae6	-0.2275196
22	0x3eb5e7f2	0.35528523
23	0xbc545ea4	-0.012962017
24	0x3efe9b7e	0.49728006
25	0x3ec9684e	0.3933739
26	0x3eab5757	0.33465073
27	0x3dc0cd52	0.09414162
28	0xbe91043f	-0.28323552
29	0xbeb16f63	-0.34655294
30	0x3ef37afd	0.4755477
31	0x3eb41aa8	0.35176587
32	0xbdd7f183	-0.105441116
33	0xbee176dc	-0.44035995
34	0x3e893615	0.26799074
35	0xbedec21a	-0.43507463
36	0xbea05cf5	-0.3132092
37	0x3e282c1d	0.16423078
38	0x3ec7d3c4	0.39028752
39	0xbea26f48	-0.31725526
40	0x3e43298e	0.1905882
41	0xbebc5bf2	-0.367889
42	0xbcfa3236	-0.03054152
43	0x3e82774b	0.25481638
44	0xbd6d000f	-0.057861384
45	0xbee90e32	-0.45518643
46	0xbea290bc	-0.3175105
47	0x3dd6d624	0.10490063
48	0xbc547f29	-0.0129697705
49	0xbeac610a	-0.33667785
50	0x3e2973ff	0.16548155
51	0x3d8ac067	0.06774979
52	0x3eb39131	0.3507171
53	0xbe8be3ee	-0.27322334
54	0x3d9bace8	0.076013386
55	0x3e04dac8	0.12974083
56	0xbe7627b9	-0.2403859
57	0xbe58932c	-0.21149892
58	0x3dfb7a54	0.122791916
59	0xbd381bad	-0.04494827
60	0x3e1b03c5	0.15138157
61	0xbe9d0425	-0.30667225
62	0xbcf18dfa	-0.029486645
63	0xbeff57b3	-0.49871597
64	0x3d31c280	0.04339838
65	0xbe7d3448	-0.24726975
66	0x3e4abe5f	0.19799183
67	0x3eabae9c	0.33531654
68	0x3e5e2860	0.2169509
69	0xbd9fa410	-0.07794964
70	0xbef7ac47	-0.48373625
71	0xbe68770b	-0.22701661
72	0x3ece76c9	0.40325
73	0xbc4a38b7	-0.012342623
74	0x3efb2da8	0.4905827
75	0xbe0564f7	-0.13026796
76	0xbe8b47a3	-0.27203092
77	0xbebb8b50	-0.36629725
78	0xbeeadfbd	-0.45873824
79	0xbe8b0b82	-0.27157217
80	0xbe989ed7	-0.29808685
81	0x3d2ef0be	0.04271006
82	0x3d35b9d9	0.04436669
83	0xbea5b7de	-0.32366842
84	0xbed0c839	-0.40777758
85	0xbec8ae11	-0.39195302
86	0x3e9f37f6	0.31097382
87	0x3edb3dde	0.42820638
88	0x3e97edcc	0.29673612
89	0x3e023310	0.12714791
90	0xbe727bc3	-0.23680024
91	0x3d977641	0.07395602
92	0xbe0f955b	-0.14021818
93	0x3ea17024	0.3153087
94	0xbec11424	-0.3771068
95	0xbeab116d	-0.33411732
96	0x3ec19563	0.37809286
97	0x3efac8fe	0.4898147
98	0xbe6b59fe	-0.22983548
99	0xbec79542	-0.38981062
100	0x3e8f8bc1	0.2803631
101	0xbe656ed0	-0.22405553
102	0xbd0bf3fe	-0.034168236
103	0xbeae75ec	-0.34074342
104	0xbed6ffca	-0.41992027
105	0xbeb2eb6f	-0.34945247
106	0x3ed30c91	0.41220525
107	0x3cb532b4	0.022118904
108	0x3e4c7e69	0.19970097
109	0x3ebe0cf2	0.3711925
110	0xbe8366ad	-0.25664273
111	0x3dca14ef	0.09867274
112	0xbcf118f7	-0.02943085
113	0xbec49b4d	-0.38399735
114	0xbd1a4de5	-0.037671942
115	0xbe36dd4d	-0.17857857
116	0xbe204199	-0.15650024
117	0x3ef3b620	0.47599888
118	0x3eeed6bf	0.46648213
119	0x3ecdb214	0.40174925
120	0x3e8c760c	0.27433813
121	0xbee7d17a	-0.45277005
122	0xbe20e0d5	-0.15710767
123	0xbe9858fe	-0.29755396
124	0xbe1011cf	-0.14069293
125	0x3eca5e35	0.39525
126	0xbe3262dc	-0.17420524
127	0xbefca218	-0.49342418
128	0x3bbebf0e	0.0058211153
129	0xbc941f66	-0.018081378
130	0xbdc7129d	-0.09720347
131	0xbec9a6be	-0.39385027
132	0xbd396460	-0.04526174
133	0x3e5699aa	0.20957056
134	0xbea52175	-0.32252088
135	0x3ea374eb	0.3192514
136	0xbe8b47d0	-0.27203226
137	0x3e7d6a54	0.24747592
138	0x3da999ab	0.08281263
139	0xbeede459	-0.46463278
140	0x3ed0334a	0.4066413
141	0xbe90ce94	-0.28282607
142	0x3e81337c	0.25234592
143	0x3e08d9d5	0.13364346
144	0xbde4327e	-0.11142443
145	0xbf00b166	-0.5027069
146	0xbd3c1e25	-0.045927186
147	0x3e28ec8b	0.16496484
148	0xbe2bfb7a	-0.1679515
149	0x3c76ce33	0.01506381
150	0x3d225656	0.039633118
151	0xbdce2f9a	-0.10067673
152	0x3e39f21a	0.1815876
153	0x3ea928a1	0.3303881
154	0xbeab9278	-0.33510184
155	0x3de4231e	0.111395106
156	0xbe897253	-0.26845035
157	0x3d3b3321	0.045703057
158	0xbebbb28d	-0.3665966
159	0x3de1ff90	0.11035073
160	0x3e1b0c24	0.1514135
161	0x3e97ce71	0.2964969
162	0x3ea92e7b	0.33043274
163	0x3edfb8d7	0.4369571
164	0xbed5397c	-0.4164542
165	0xbe76af24	-0.24090248
166	0x3ec3e8ef	0.38263652
167	0x3ee53929	0.44770172
168	0xbe084b83	-0.13310055
169	0x3cf4cf9f	0.029884158
170	0x3daa5c76	0.08318417
171	0x3e3a9986	0.18222627
172	0xbe0a978b	-0.13534372
173	0xbe857072	-0.2606235
174	0xbde7081b	-0.11280843
175	0xbec6497e	-0.38727945
176	0xbecea613	-0.4036108
177	0xbed596c0	-0.41716576
178	0xbcd87fd6	-0.026428144
179	0x3e9c0f78	0.30480552
180	0x3e35c8ad	0.17752333
181	0x3e527201	0.20551302
182	0xbe581b9c	-0.21104282
183	0xbc2bce94	-0.010486264
184	0xbe223146	-0.15839109
185	0xbd823149	-0.06357057
186	0xbe988821	-0.29791358
187	0xbd4ed983	-0.050500404
188	0x3df418b8	0.11918777
189	0x3ee95fb3	0.45580825
190	0x3e99033a	0.29885274
191	0xbe9afff2	-0.30273396
192	0x3e97caf9	0.29647043
193	0xbec48da3	-0.3838931
194	0xbeeefd64	-0.46677697
195	0x3ef6a75b	0.48174557
196	0xbe8f2e99	-0.2796524
197	0xbebb71d3	-0.36610278
198	0xbecb3187	-0.39686224
199	0xbdb1f75f	-0.086897604
200	0xbdc464a2	-0.09589507
201	0x3d96e4ea	0.07367881
202	0xbd2eb53a	-0.0426533
203	0x3eadbc41	0.3393269
204	0x3ee2b886	0.44281405
205	0x3eb4530e	0.35219616
206	0x3dd3f7f9	0.103500314
207	0xbe965fa6	-0.2936985
208	0xbed6fd84	-0.41990292
209	0x3ee03716	0.43792027
210	0x3e85b1ed	0.2611231
211	0x3e678317	0.226086
212	0xbd85f0dc	-0.06540081
213	0xbeab300a	-0.33435088
214	0xbdef3d5c	-0.11681625
215	0x3ef9cc49	0.4878867
216	0x3e0c149a	0.13679734
217	0xbd0a8889	-0.033821616
218	0x3c13e98a	0.009027848
219	0x3d939daf	0.0720781
220	0xbe2c101c	-0.1680302
221	0xbd772311	-0.060336176
222	0x3e958cab	0.29208884
223	0xbc3da47f	-0.011574863
224	0xbee505d0	-0.44730997
225	0xbdd651eb	-0.10464843
226	0x3dcbf29b	0.09958383
227	0xbeab6fda	-0.33483773
228	0x3e88f8a6	0.26752204
229	0xbf03b010	-0.51440525
230	0x3ea8205a	0.32837182
231	0x3e09f214	0.13471252
232	0xbe959a04	-0.29219067
233	0xbed9d867	-0.42547914
234	0xbde9611b	-0.113954745
235	0x3e6c7121	0.2309003
236	0xbd78d7a2	-0.06075252
237	0x3e12ab42	0.14323142
238	0xbd76713c	-0.060166582
239	0xbe9419d9	-0.2892597
240	0xbd330339	-0.043704245
241	0xbe8d7a1b	-0.27632222
242	0xbe328c89	-0.17436422
243	0x3daf7d3f	0.08568811
244	0x3e385429	0.18000855
245	0xbeaf210c	-0.342049
246	0xbee25c81	-0.442112
247	0x3e2e485b	0.17019789
248	0x3ec08257	0.3759944
249	0xbee96114	-0.45581877
250	0x3eccbfef	0.39990184
251	0xbe2e80d5	-0.17041333
252	0xbe6d2a05	-0.2316056
253	0xbe1695ac	-0.14705533
254	0x3e14fd8f	0.1454985
255	0x3dcb1cfb	0.09917637

net.0.bias f4 [128]
0	0x3ecbe1f2	0.3982082
1	0x3e824953	0.25446567
2	0x3ece24a6	0.40262336
3	0xbe10f3de	-0.14155528
4	0xbef33537	-0.47501537
5	0x3dae27a2	0.08503653
6	0xbcd0c674	-0.025485255
7	0xbe22a754	-0.15884143
8	0xbeda473a	-0.42632467
9	0x3eaee4b8	0.34158874
10	0x3eb6c10a	0.35694152
11	0xbeef5ab6	-0.46748894
12	0xbf03753f	-0.5135078
13	0x3d911651	0.07084335
14	0x3d554b35	0.052073676
15	0xbcd7dbd4	-0.02634994
16	0x3e5f9511	0.21834208
17	0xbd8f884c	-0.070084184
18	0xbe53be76	-0.20678124
19	0x3dd6b3bb	0.104834996
20	0xbe91a4e3	-0.2844611
21	0xbcc6dbe6	-0.024274778
22	0xbdf71fe2	-0.12066628
23	0xbe98bf5f	-0.29833505
24	0xbca11827	-0.019664837
25	0xbed68269	-0.4189637
26	0xbde9eb61	-0.11421848
27	0xbe498fa3	-0.196837
28	0x3e4a52e4	0.19758183
29	0xbe7f5920	-0.24936342
30	0xbdd39395	-0.103308834
31	0xbd40a1f2	-0.047029443
32	0x3eba79a2	0.36420923
33	0xbead3bce	-0.3383469
34	0x3e56d09f	0.2097802
35	0xbef17e16	-0.47166508
36	0x3e067569	0.13130726
37	0x3c0b147c	0.008488771
38	0x3e065414	0.13118011
39	0x3e5006a1	0.20315029
40	0xbd1109cb	-0.03540973
41	0x3eaf5109	0.34241512
42	0x3e50d7d3	0.2039483
43	0xbe9c6ede	-0.30553335
44	0x3e0cd761	0.13754036
45	0xbea09d3b	-0.31369957
46	0x3ea23290	0.316792
47	0xbde53fc7	-0.11193805
48	0xbefad3de	-0.48989767
49	0x3e890801	0.2676392
50	0xbec3039e	-0.38088697
51	0xbef604bc	-0.48050487
52	0x3f085fc8	0.5327115
53	0xbd422f0f	-0.04740816
54	0x3e3292ff	0.17438887
55	0x3ece199e	0.4025392
56	0x3e12f484	0.14351088
57	0x3eb37daf	0.35056826
58	0xbea7406e	-0.32666343
59	0xbdeb34da	-0.1148469
60	0x3e23ea0c	0.1600725
61	0x3caf3dc9	0.021391766
62	0x3d58b538	0.0529072
63	0x3f02441e	0.5088519
64	0x3ec6981f	0.38787934
65	0x3cc7f81b	0.024410298
66	0xbea84bc3	-0.32870302
67	0xbe496e65	-0.19671018
68	0xbdf11178	-0.1177091
69	0x3ed86252	0.42262512
70	0x3e4cd912	0.20004681
71	0xbd98157d	-0.074259736
72	0xbd15fb61	-0.036616687
73	0x3eeda3db	0.46414074
74	0xbd81dae4	-0.06340578
75	0xbe597c93	-0.21238928
76	0xbd86d59f	-0.06583714
77	0x3e737dd2	0.23778465
78	0xbd563ee7	-0.052306082
79	0x3d3f5b21	0.046717767
80	0xbd5123d1	-0.051059548
81	0xbea277e1	-0.31732085
82	0x3eb6a2bc	0.3567103
83	0x3f022c20	0.5084858
84	0x3ed02374	0.4065205
85	0x3eddf5ed	0.4335169
86	0x3daf674d	0.08564625
87	0x3e311607	0.17293559
88	0x3e63c65b	0.22243635
89	0x3df75df2	0.120784655
90	0x3eb361c2	0.3503552
91	0xbed1a84d	-0.40948716
92	0xbf022763	-0.5084135
93	0xbef08831	-0.46978906
94	0xbec4192c	-0.38300455
95	0xbe8159d3	-0.25263843
96	0x3e7910a2	0.24322751
97	0xbd4b4c40	-0.049633265
98	0xbe5718b2	-0.21005514
99	0x3db7bd37	0.08971637
100	0x3db9148f	0.09037124
101	0xbed43c27	-0.41452143
102	0xbd98730f	-0.07443821
103	0xbed5acdb	-0.4173344
104	0x3ead43ff	0.3384094
105	0x3e950739	0.29107073
106	0xbef3be68	-0.47606206
107	0x3e1115d4	0.14168483
108	0xbe25b5c9	-0.16182627
109	0xbe2b1927	-0.16708814
110	0x3d052f53	0.032515835
111	0xbd9687a0	-0.07350087
112	0x3e6ea7c5	0.23306186
113	0xbec931ad	-0.39295712
114	0xbeded0b5	-0.43518606
115	0xbe404dd4	-0.18779689
116	0x3d44d538	0.048054904
117	0xbece2b67	-0.40267488
118	0x3dfbd151	0.12295783
119	0xbe122fdd	-0.14276071
120	0x3e29a9d2	0.16568688
121	0xbcf99c66	-0.030470084
122	0x3f001236	0.5002779
123	0xbe8bea2e	-0.27327102
124	0xbe94452d	-0.28959027
125	0xbed9aed6	-0.42516202
126	0xbee932e2	-0.45546633
127	0x3e8163fc	0.25271595

net.2.weight f4 [128, 128]
0	0x3c87902e	0.016548242
1	0x3dad61fd	0.084659554
2	0x3d6b191b	0.05739699
3	0x3da42046	0.08013968
4	0xbc878e09	-0.01654722
5	0x3d29ea71	0.041483346
6	0x3c094d9c	0.00838032
7	0x3c8002dd	0.015626365
8	0x3d14fb87	0.036372688
9	0x3dcda0aa	0.1004041
10	0xbcc03722	-0.02346379
11	0x3d968622	0.073498026
12	0xbd8cf8a6	-0.068833634
13	0x3d2c02cc	0.041994855
14	0x3d6b38b1	0.057427112
15	0x3d932d16	0.07186334
16	0xbb1e5775	-0.0024161015
17	0x3d36c4e3	0.04462136
18	0x3d19869d	0.037481893
19	0xbcf3155e	-0.029673275
20	0x3d09e8e4	0.033669367
21	0x3dac796e	0.084215984
22	0xbc28459a	-0.010270501
23	0xbd970b5a	-0.07375212
24	0x3b5f653e	0.0034087445
25	0xbd1bbbab	-0.03802077
26	0xbcf85b1d	-0.030316884
27	0xbcf0c155	-0.029389063
28	0xbdb74183	-0.08948042
29	0x3db0b2d2	0.08627857
30	0xbd085c3f	-0.033291098
31	0xbd2c6e16	-0.042097174
32	0x3d0a95ff	0.033834454
33	0x3c83d5d1	0.016093167
34	0x3d69aa91	0.05704743
35	0x3d81b339	0.06333012
36	0x3d92dfc6	0.07171588
37	0xbb8bf414	-0.0042710397
38	0x3d5558b0	0.052086532
39	0x3ce65d23	0.028120583
40	0x3db5c089	0.08874614
41	0xbc4e8bff	-0.01260662
42	0xbd03056e	-0.0319876
43	0x3d3198c5	0.043358583
44	0xbda4b3e2	-0.080421224
45	0x3d4bfaf7	0.049799886
46	0xbd884601	-0.06653977
47	0xbd9c539a	-0.07633133
48	0xbcdf6410	-0.027269393
49	0x3d8067bc	0.06269786
50	0xbd6bb0e6	-0.05754175
51	0xbcb4854e	-0.02203622
52	0x3d9e03b2	0.077155486
53	0x3d80a922	0.062822595
54	0xbda8f364	-0.08249548
55	0xbd611c74	-0.054958776
56	0x3d0d5747	0.034507062
57	0x3cb91dd8	0.022597238
58	0xbd52b097	-0.05143794
59	0xbd33879e	-0.043830507
60	0x3d981d73	0.07427492
61	0x3e11b0be	0.14227578
62	0x3d900227	0.070316605
63	0xbbdf88fe	-0.0068217507
64	0xbd925553	-0.071451806
65	0x3c8378cd	0.016048813
66	0x3cb0709f	0.021538077
67	0x3d44f940	0.048089266
68	0x3d99b231	0.075046904
69	0x3d6be6b2	0.057593055
70	0xbc310f27	-0.010806835
71	0x3cbbdb1a	0.022931624
72	0x3b9ca945	0.0047809207
73	0x3d0b4a01	0.034006122
74	0xbd46593e	-0.04842495
75	0x3d9daf38	0.07699436
76	0x3cbe5282	0.023232702
77	0xbda5dfd0	-0.080993295
78	0x3d7a7cb4	0.061154082
79	0xbd1ca3a1	-0.038241986
80	0xbccdde54	-0.025130428
81	0x3d0ffa68	0.035150915
82	0xbbbd5dff	-0.0057790275
83	0x3d7048f8	0.05866334
84	0x3da6cf14	0.08144966
85	0xbd8ff65c	-0.07029411
86	0x3d2e173b	0.042502623
87	0x3d3bfd50	0.045895875
88	0x3d6e1027	0.058120873
89	0x3d0f684f	0.035011586
90	0xbc002cee	-0.007823212
91	0xbd136f0a	-0.035994567
92	0x3d86889a	0.065690234
93	0x3d894e94	0.06704441
94	0xbda4eb4d	-0.080526926
95	0x3d685422	0.05672086
96	0xbc0b4a65	-0.008501624
97	0x3a0f95b6	0.0005477326
98	0x3d77fa6e	0.060541563
99	0xbd7cee9a	-0.061750986
100	0xbca89592	-0.020579133
101	0xbd7d0aa6	-0.061777733
102	0x3d4d2ef3	0.050093602
103	0x3dada3c3	0.08478501
104	0xbce7df78	-0.0283048
105	0xbb51cf1b	-0.0032014314
106	0xbd7ba94d	-0.061440755
107	0x3d896560	0.06708789
108	0x3dacaf45	0.084318675
109	0x3da0e22c	0.07855639
110	0x3db54f6a	0.08853038
111	0xbd68c734	-0.0568306
112	0xbb411351	-0.0029460976
113	0x3d30b8eb	0.0431451
114	0xbc5566de	-0.013025014
115	0x3daf9073	0.085724734
116	0xbd8a1a3e	-0.067432866
117	0x3d442dd4	0.047895268
118	0x3d6b3529	0.057423744
119	0x3d891453	0.0669333
120	0x3d96e459	0.073677726
121	0x3d248e02	0.04017449
122	0xbbdd4dd9	-0.006753665
123	0xbd9046ec	-0.07044777
124	0xbd926c16	-0.07149522
125	0xbd9bc64b	-0.07606181
126	0x3cec2852	0.02882782
127	0x3d6f34d1	0.05839998
128	0xbd3093eb	-0.043109816
129	0x3d415c5e	0.04720723
130	0x3da0bfac	0.078490585
131	0x3b94e6cd	0.004544115
132	0x3d3a3015	0.04545601
133	0x3c01bc73	0.007918465
134	0xbd88eacb	-0.06685408
135	0x3d86e8c2	0.06587364
136	0xbca32a25	-0.019917557
137	0x3c943f09	0.018096464
138	0x3da3b379	0.07993216
139	0x3da42a62	0.080158964
140	0x3cb80709	0.022464292
141	0x3d990436	0.07471506
142	0xbd98786c	-0.07444844
143	0x3c839916	0.016064208
144	0x3da4b59c	0.08042452
145	0x3d19a621	0.03751195
146	0x3d066a9e	0.03281652
147	0xbd5a6963	-0.05332316
148	0x3dad0139	0.08447499
149	0x3d39be5a	0.04534755
150	0xbd34abc9	-0.04410914
151	0xbcecae7a	-0.02889179
152	0x3d9a63a4	0.07538536
153	0xbd9802f4	-0.07422438
154	0xbc4fa0f2	-0.01267265
155	0xbdbed357	-0.093176536
156	0x3cf91c7e	0.030409094
157	0x3a27a139	0.00063945685
158	0xbd3285bd	-0.043584574
159	0x3cfbf251	0.030755194
160	0x3cf71d9a	0.030165482
161	0x3c22c25c	0.009934034
162	0xbd9fbeef	-0.078000896
163	0xbd2683a4	-0.040652886
164	0xbdb603c8	-0.0888744
165	0xbd2e1d8d	-0.04250865
166	0xbdaee896	-0.08540456
167	0xbcff2ed4	-0.03115026
168	0xbd5fe30a	-0.05465988
169	0x3c86b0b1	0.016441675
170	0xbd2eb2ce	-0.04265099
171	0xbd8fff3b	-0.07031103
172	0x3cc5886b	0.0241129
173	0xbcfe7164	-0.031059928
174	0xbd1a8760	-0.03772676
175	0x3ca4caae	0.020116176
176	0xbd014537	-0.03156015
177	0x3ce32074	0.027725436
178	0x3d33fad0	0.043940365
179	0x3d6895d3	0.05678351
180	0x3d739756	0.059470497
181	0xbb8a4b23	-0.004220383
182	0x3d17cc2e	0.037059955
183	0x3cd3a729	0.025836544
184	0x3b86f191	0.0041181524
185	0xbd321a03	-0.043481838
186	0xbd9071bf	-0.07052945
187	0x3d8bc6fe	0.06825064
188	0xbd61b09b	-0.055100065
189	0xbdc03df4	-0.093868166
190	0x3d84b7f4	0.06480399
191	0xbd87702d	-0.06613193
192	0x3d99be49	0.07506997
193	0xbcb59e80	-0.022170305
194	0x3d8f3cb7	0.06994002
195	0xbd8780e6	-0.06616382
196	0x3d9deb16	0.07710855
197	0x3c765855	0.015035708
198	0xbd96bf5d	-0.073607184
199	0x3d9a8dc4	0.07546571
200	0xbcf5fe82	-0.030028585
201	0x3d234828	0.039863735
202	0xbc307bf9	-0.010771745
203	0xbd1a8f71	-0.037734453
204	0x3c734803	0.014848712
205	0xbd440ef3	-0.04786582
206	0xbb73a66e	-0.0037178057
207	0x3d098c99	0.03358135
208	0x3d1a4d9b	0.037671667
209	0xbd528302	-0.05139447
210	0xbd751aaa	-0.059839882
211	0x392b3537	0.00016327655
212	0x3c5b1053	0.013370591
213	0x3d5c4294	0.05377443
214	0xbd459169	-0.048234377
215	0x3cb7d21f	0.02243906
216	0x3d0f171f	0.03493416
217	0xbd8258f3	-0.06364622
218	0xbb7605ae	-0.0037540006
219	0x3d570e0c	0.05250363
220	0xbdad486b	-0.08461078
221	0x3d20394f	0.039117154
222	0x3d811d3a	0.06304403
223	0x3c349852	0.011022644
224	0xbdaf386a	-0.08555682
225	0xbd9e9b4a	-0.07744463
226	0x3caa837b	0.020814648
227	0x3d9c1198	0.07620543
228	0xbd7c7c60	-0.06164205
229	0x3d7e7d39	0.06213114
230	0x3d8991fe	0.06717299
231	0xbc382a56	-0.011240562
232	0x3d8e9993	0.06962886
233	0x3d68c3b0	0.056827247
234	0x3ca68804	0.02032853
235	0xbd832238	-0.06403011
236	0xbd3e94ec	-0.04652874
237	0x3db4ceb8	0.08828491
238	0xbc582ae0	-0.013193816
239	0xbc9b7538	-0.018976793
240	0xbd8d8581	-0.069102295
241	0xbb85c24c	-0.004082
242	0xbd1eb8f3	-0.0387506
243	0xbd2228fd	-0.03958987
244	0x3d0b4657	0.03400263
245	0xbb61a646	-0.0034431382
246	0x3d49ef64	0.049300566
247	0x3ce407bf	0.027835725
248	0xbd4986ab	-0.049200695
249	0x3b3e31e4	0.0029021436
250	0xbd9fdc12	-0.07805647
251	0x3c263490	0.010144368
252	0x3da5c68d	0.08094511
253	0x3d04ad16	0.03239163
254	0x3d57f59a	0.05272446
255	0x3d86dd6a	0.065852

net.2.bias f4 [128]
0	0x3d95cc8e	0.07314406
1	0x3cea1d68	0.028578475
2	0x3bb3e9ba	0.005490509
3	0x3d9a85b6	0.075450346
4	0xbca17329	-0.019708233
5	0x3d1b5c40	0.037929773
6	0xbd6cad83	-0.05778266
7	0xbc63a0f1	-0.013893352
8	0x3d5e48c0	0.0542686
9	0xb97e6abb	-0.00024263088
10	0xbd214834	-0.0393755
11	0xbd66c4dd	-0.056340087
12	0xbc666d0d	-0.014064086
13	0xbce4496f	-0.027867047
14	0xbdce8508	-0.100839674
15	0x3cd0d21d	0.025490815
16	0x3dbe1e7d	0.09283159
17	0xbd3f8513	-0.04675777
18	0xbd3048d6	-0.04303821
19	0x3c15317c	0.009106036
20	0x3d335ac6	0.04378774
21	0xbcd700f1	-0.026245566
22	0xbceef8c3	-0.029171353
23	0xbd953b6a	-0.07286723
24	0x3da6e4c1	0.081491
25	0x3b717b9b	0.0036847356
26	0xbc589918	-0.013220094
27	0xbd5e9a7a	-0.05434654
28	0xbd2b74d7	-0.041859474
29	0xbc8cc8a0	-0.01718551
30	0x3d999d2b	0.075006805
31	0x3ddd3433	0.10800972
32	0xbc07c0e2	-0.008285733
33	0x3dc772a7	0.09738665
34	0x3c7a9464	0.015294168
35	0x3d21c0e3	0.03949059
36	0xbda61cc1	-0.08110953
37	0xbc3a86b0	-0.011384651
38	0xbd159b2d	-0.03652494
39	0x3d801812	0.06254591
40	0xbd78f51f	-0.06078064
41	0x3d38c8ef	0.0451135
42	0xbd014584	-0.031560436
43	0xbd96a055	-0.073548
44	0x3b1e84e4	0.0024188096
45	0x3db271c6	0.08713107
46	0x3dcb460d	0.099254705
47	0x3d0cda4e	0.03438788
48	0x3d2c6f1b	0.042098146
49	0x3c8c8341	0.01715243
50	0xbcd2c66e	-0.025729384
51	0xbd3c6acb	-0.046000283
52	0xbbd0d77c	-0.006373344
53	0xbde970f8	-0.113985
54	0x3dbc6bc2	0.09200241
55	0xbc3229c0	-0.010874212
56	0xbd97fe75	-0.07421581
57	0x3c8a04aa	0.016847927
58	0xbdc30960	-0.095232725
59	0x3d9773b5	0.07395116
60	0x3c3c62da	0.011498177
61	0xbd5151f6	-0.051103555
62	0x3c83593f	0.016033767
63	0x3d558ae8	0.052134424
64	0xbddfb853	-0.10923829
65	0x3c9ccd8f	0.019140987
66	0xbcc5e75f	-0.024158178
67	0x3d8d1170	0.068880916
68	0x3d525b32	0.051356502
69	0x3d3cee8d	0.046125937
70	0x3d2e9299	0.042620275
71	0x3d3286fd	0.043585766
72	0xbd32d31f	-0.043658372
73	0xbde3fdf2	-0.111324206
74	0x3d977558	0.073954284
75	0xbd82aa25	-0.06380109
76	0x39eff3d4	0.00045767298
77	0xbd5c6670	-0.05380863
78	0xbc96b1ce	-0.01839533
79	0x3c740ccd	0.01489563
80	0x3c87b6ea	0.016566712
81	0x3a9f29cc	0.0012143194
82	0x3bcac8d4	0.0061884914
83	0xbd1d75d9	-0.038442466
84	0x3b8b61ef	0.004253618
85	0xbd1dc613	-0.038518976
86	0x3d55deb7	0.05221435
87	0xbc3f3dae	-0.01167242
88	0x3d38a6a5	0.0450808
89	0x3ddaaae4	0.10677126
90	0xbd790225	-0.06079306
91	0xbdbd5957	-0.09245556
92	0xbcf66e10	-0.030081779
93	0xbda3a172	-0.079897776
94	0x3d9fd554	0.07804361
95	0x3d996edc	0.07491848
96	0x3d8a27b4	0.06745854
97	0x3b0f1730	0.002183389
98	0x3c0457ed	0.008077604
99	0x3c6f3d55	0.014602025
100	0xbd74900f	-0.059707697
101	0x3d9a0537	0.07520526
102	0x3d55bd1f	0.052182313
103	0x3b8a4220	0.0042193085
104	0xbd0efd32	-0.034909435
105	0xbc723246	-0.014782494
106	0xbd8789c5	-0.06618074
107	0x3d5006cc	0.050787732
108	0x3cd3406b	0.025787553
109	0x3b6a0ab4	0.0035711946
110	0xbd0c1c43	-0.03420664
111	0x3c643ec0	0.013930976
112	0x3da948cf	0.0826584
113	0xbc343c53	-0.011000711
114	0xbd2ea913	-0.04264171
115	0x3d2ea59f	0.042638417
116	0xbcd63b20	-0.02615124
117	0xbd604ccb	-0.054760735
118	0x3c5ea91b	0.013590123
119	0x3d9b5cef	0.07586085
120	0x3d87fe15	0.06640259
121	0x39a457b0	0.0003134585
122	0xbd139ed4	-0.036040142
123	0xbd502bd1	-0.050823037
124	0x3d8259cc	0.06364784
125	0x3c486ed8	0.012233458
126	0xbb290363	-0.0025789372
127	0x3d2c128c	0.042009875

net.4.weight f4 [2, 128]
0	0x3cd43411	0.025903733
1	0xbd127ffc	-0.035766587
2	0xbd5bb17b	-0.053636055
3	0xbdad8f3a	-0.08474584
4	0xbda74442	-0.08167316
5	0xbdac446b	-0.08411487
6	0x3d04c673	0.03241582
7	0x3d313306	0.04326155
8	0x3d2de8cc	0.04245834
9	0x3d43025d	0.047609676
10	0x3cafd8d5	0.021465698
11	0xb988e336	-0.00026109227
12	0x3db77ea0	0.08959699
13	0xbd8472fc	-0.06467244
14	0x3c08250f	0.008309617
15	0xbd8bb9da	-0.06822558
16	0x3cc52bf3	0.024068808
17	0xbd477862	-0.04869879
18	0x3bf0bc37	0.0073466557
19	0x3cc1c12e	0.023651686
20	0xbd37a0d9	-0.04483113
21	0xbc9a5d1b	-0.018843224
22	0xbd563847	-0.052299764
23	0x3c4d8ff4	0.012546528
24	0xbccc9364	-0.024972625
25	0xbcb35571	-0.021891328
26	0x3c250c5b	0.010073747
27	0xbca7d963	-0.0204894
28	0x3ccfabf4	0.025350548
29	0xbd94618c	-0.07245168
30	0xbd411fee	-0.04714959
31	0xbd6eca14	-0.058298185
32	0x3da060f7	0.078309946
33	0x3c27d4a2	0.010243567
34	0x3d03f695	0.03221758
35	0xbcded62b	-0.027201733
36	0x3d882f24	0.06649616
37	0x3cb4df51	0.022079142
38	0x3cfff0f3	0.031242823
39	0x3d60993b	0.054833632
40	0x3d871042	0.06594898
41	0xbd52f32f	-0.05150145
42	0x3c639253	0.013889867
43	0x3d48b92b	0.049004715
44	0xbd0bccd8	-0.0341309
45	0xbd6f8d80	-0.058484554
46	0x3ac2d1e5	0.0014863579
47	0x3c683bbf	0.014174401
48	0x3d442195	0.04788359
49	0x3d0ecc2e	0.03486269
50	0xbd017e23	-0.031614434
51	0xbd70fc28	-0.058834225
52	0xbd1ff7f0	-0.03905481
53	0x3d570849	0.052498136
54	0x3a0bdead	0.00053356105
55	0x3ccf1a97	0.025281234
56	0x3d37057f	0.044682976
57	0x3d802fda	0.06259127
58	0xbd3936ae	-0.045218162
59	0xbd4fded4	-0.050749615
60	0x3db1bee5	0.08678988
61	0xbd6cf7ba	-0.057853438
62	0x3da73845	0.081650294
63	0x3bc06b55	0.00587217
64	0x3d52154a	0.051289834
65	0x3d8bcdf2	0.0682639
66	0xbdaa58b0	-0.08317697
67	0xbd86873c	-0.06568763
68	0xbd2e72f4	-0.042590097
69	0xbc4b2cf7	-0.012400857
70	0xbdc6b6da	-0.09702845
71	0x3db0762a	0.08616288
72	0xbd325513	-0.043538164
73	0x3d9078ef	0.07054316
74	0xbd2b5cd4	-0.041836575
75	0x3d3356ee	0.043784074
76	0xbd9e8eb6	-0.07742064
77	0xbd46087e	-0.048347943
78	0xbd97f4dd	-0.07419751
79	0x3dad70ee	0.08468805
80	0xbda61e51	-0.08111251
81	0x3d9772fc	0.073949784
82	0x3be531ee	0.0069944775
83	0xbcbe799c	-0.023251347
84	0xbd9130d1	-0.07089389
85	0x3c6cb9ca	0.014448592
86	0x3d86da55	0.06584612
87	0xbd99322f	-0.07480275
88	0xbca2280b	-0.019794485
89	0xbd08dd1b	-0.033413988
90	0xbc8c8f42	-0.017158154
91	0x3d98c962	0.07460286
92	0x3c7a8f3b	0.015292938
93	0x3d534c1d	0.05158626
94	0x3d58432e	0.052798443
95	0xbd5be1f1	-0.05368227
96	0xbb83cd0d	-0.0040222467
97	0xbca283b9	-0.0198382
98	0xbddd202a	-0.107971504
99	0xbcc68915	-0.024235288
100	0xbd7f239f	-0.06228983
101	0xbade46c7	-0.0016958349
102	0x3d6e9d6a	0.05825559
103	0xbd527ab0	-0.051386535
104	0x3cb92570	0.02260086
105	0xbb5bc117	-0.0033531839
106	0x3b82e05e	0.003994032
107	0xbd614e35	-0.055006225
108	0xbc7946a0	-0.015214592
109	0x3d863e40	0.06554842
110	0xbce5806d	-0.02801534
111	0x3da19ed1	0.0789162
112	0xbd5eb2ed	-0.054369856
113	0x3d3f1c9e	0.04665815
114	0xbd6d46be	-0.057928793
115	0xbd9f937e	-0.07791804
116	0x3d12148e	0.035664134
117	0x3daea6b4	0.0852789
118	0x3d4657a1	0.048423413
119	0xbd5eb625	-0.054372925
120	0xbd659f3a	-0.056060053
121	0xbcdd4bb5	-0.027013639
122	0x3b4a4e9f	0.0030869616
123	0xbd15a835	-0.036537368
124	0xbda34052	-0.079712525
125	0x3d7ed225	0.06221213
126	0x3d5912aa	0.052996315
127	0x3c70ffff	0.014709472
128	0xbd7aff6c	-0.061278746
129	0x3d31cb5e	0.043406837
130	0xbc255d10	-0.010092989
131	0xbc9df54c	-0.019282006
132	0x3cd828bf	0.026386617
133	0x3d4a0588	0.04932168
134	0x3cd967a9	0.026538687
135	0x3d897dc8	0.06713444
136	0x3d7af204	0.06126596
137	0x3be888f2	0.0070964033
138	0xbd11271f	-0.0354377
139	0x3cb3af68	0.021934226
140	0x3c62c5ae	0.013841076
141	0xbd7c7d2f	-0.061642822
142	0x3c882900	0.016621113
143	0xbc314f0e	-0.010822071
144	0xbcffaa9c	-0.031209283
145	0x3d97171b	0.07377454
146	0xbd7ad331	-0.061236564
147	0x3d2f6ff6	0.042831384
148	0x3a9600cf	0.0011444333
149	0xbdbbf89c	-0.09178278
150	0xbd4cdb0a	-0.05001358
151	0x3d3bdd84	0.04586555
152	0xbd2e871f	-0.04260933
153	0x3d96573d	0.07340858
154	0xbd551612	-0.052023
155	0xbd1ea08e	-0.038727336
156	0xbd9d7d38	-0.07689899
157	0x3c14c36b	0.009079794
158	0xbd73df05	-0.05953886
159	0xbd35853f	-0.044316527
160	0x3b54cde3	0.003247135
161	0xbd64833b	-0.055789214
162	0xbd46c20d	-0.048524905
163	0xbc2870cf	-0.010280802
164	0x3bf2c6aa	0.0074089365
165	0xbbadd032	-0.00530436
166	0x3c135e8e	0.008994712
167	0xbd126be9	-0.035747442
168	0xbd77ded1	-0.06051523
169	0xbd6748ce	-0.056465916
170	0xbdb4604c	-0.0880743
171	0xbd804031	-0.062622435
172	0xbd453aa3	-0.048151623
173	0x3d78679f	0.060645696
174	0xbd93bbb3	-0.07213535
175	0xbdb68ca6	-0.08913545
176	0xbd83dfad	-0.06439147
177	0xbda5e08d	-0.0809947
178	0xbc19f401	-0.009396554
179	0xbd8b7fd9	-0.068114944
180	0xbd27d061	-0.04097021
181	0x3da5af44	0.0809007
182	0xbc769d5f	-0.015052169
183	0x3d81a4d2	0.06330265
184	0x3d51c320	0.051211476
185	0x3d572f67	0.05253544
186	0x3da667d3	0.08125272
187	0xbd1aa4fe	-0.037755005
188	0x3da0137e	0.07816218
189	0xbbfce0b8	-0.0077172183
190	0x3c9b0002	0.018920902
191	0xbd76d5ce	-0.060262494
192	0x3d1985f1	0.037481252
193	0x3c8f6d19	0.017508077
194	0x3da3fa1b	0.08006688
195	0x3d7c3b26	0.061579846
196	0xbd57b557	-0.052663174
197	0x3cf3def3	0.029769396
198	0xbcfc635e	-0.0308091
199	0xbd910ed5	-0.07082907
200	0xbd922768	-0.071364224
201	0x3d8c3177	0.06845372
202	0xbcfabf5d	-0.030608827
203	0x3d2de1e7	0.042451765
204	0xbd2f6382	-0.042819507
205	0xbd1205f6	-0.035650216
206	0x3da0c2e1	0.0784967
207	0x3c8a44e4	0.016878553
208	0xbd798123	-0.06091417
209	0x3d8cfe65	0.068844594
210	0xbd49b178	-0.049241513
211	0x3d8a0539	0.067392774
212	0xbd20bd33	-0.039242934
213	0x3b90a193	0.0044137924
214	0xbd72978e	-0.059226565
215	0x3c7bcbf5	0.015368451
216	0x3d0597f6	0.032615624
217	0xbd3c0227	-0.04590049
218	0x3d6716f3	0.05641837
219	0x3d9edae7	0.07756596
220	0x3d4bef6c	0.049788877
221	0xbd6ff1ea	-0.058580317
222	0xbccffde8	-0.025389627
223	0xbd20eb53	-0.039286923
224	0x3c33fb94	0.010985274
225	0x3d4f9fa2	0.050689347
226	0x3c91f38a	0.017816324
227	0xbd9bc19a	-0.07605286
228	0x3d6c2b28	0.057658345
229	0xbd8efde9	-0.06982023
230	0xbd9344d1	-0.0719086
231	0xbd06f4ac	-0.03294818
232	0xbd4179c4	-0.047235265
233	0xbd4446d2	-0.047919102
234	0xb98a2ff9	-0.00026357154
235	0x3cd8216a	0.02638312
236	0xbd802a98	-0.06258124
237	0x3da11c4b	0.078667246
238	0x3c14fbd0	0.00909324
239	0xbd8f2e3e	-0.06991242
240	0xbcfb5a47	-0.030682696
241	0xbcc64203	-0.024201399
242	0x3d54e5dd	0.051977027
243	0x3d854049	0.06506402
244	0x3cffa23a	0.031205285
245	0x3d8609c8	0.065448344
246	0xbd6ad32a	-0.057330288
247	0xbd3d668d	-0.04624038
248	0xbcc56986	-0.024098169
249	0x3c8fd59e	0.017557915
250	0x3d2996d1	0.041403595
251	0xbd310a06	-0.04322245
252	0xbb06a0dd	-0.002054266
253	0xbcb2e7c7	-0.021839036
254	0x3dabb999	0.08385009
255	0x3db5ca17	0.08876436

net.4.bias f4 [2]
0	0x3b27b23b	0.0025588411
1	0xbdd12605	-0.1021233
