data/checkpoints/dqn_episode_150.pth (torch, 72408 bytes, 6 tensors)

net.0.weight f4 [128, 4]
00000000: 5f9c c7be 9fc2 603d d858 f7be 13bd f6be
00000010: fda7 02bd f0c8 fd3e ad44 123b b0b3 c93e
00000020: 41e3 4fbe e9e8 c0bc b7f4 303d 0109 f63e
00000030: debc eebd 65db 1abe ae93 dbbd 073c 953e
00000040: ee7f 883d 60c7 debe c27d e43e 0852 01bf
00000050: ea81 633e afbf 64be 2136 b63e a6d9 43bc
00000060: f86b ff3e ca6c c63e 8026 ac3e 97c1 c33d
00000070: e6f3 8fbe 9aff afbe 2727 f43e 62f4 b43e
00000080: 95c8 e1bd 1c61 e0be 41e7 863e 5589 e0be
00000090: 2206 a3be 5f3c 2b3e 7fbb c53e 7532 a4be
000000a0: 93c4 443e bb79 babe 69ae f1bc 8538 833e
000000b0: a5cd 83bd c183 e5be 5861 a5be 2565 cd3d
000000c0: 2332 3fbc 43c9 aebe 9f05 2b3e 4f71 8d3d
000000d0: dff6 b33e b46e 8ebe c76b 9d3d 7f89 053e
000000e0: 271f 73be 7a77 56be 690e fd3d 8d5f 37bd
000000f0: 3a47 1b3e d100 9abe e5d7 ebbc 1f43 ffbe
00000100: f3dd 393d e481 81be 13c5 4c3e 0da8 ac3e
00000110: 3154 5d3e 8dfc a6bd 8cff f7be 9c57 69be
00000120: 25f4 ce3e 29e8 0ebc a75f fb3e 058a 04be
00000130: c6c6 8bbe ab4f bdbe 632b ebbe 3191 8bbe
00000140: a878 99be 7e3d 293d 40f1 303d 1a74 a6be
00000150: 5b79 d0be ab75 c6be e750 9f3e 7177 db3e
00000160: f4cd 973e efe1 fe3d a743 73be a07c 963d
00000170: 83a7 10be d3c8 9f3e 5d48 c1be 7988 abbe
00000180: e36e c23e e554 f73e fd87 6abe 2ee2 c6be
00000190: 30c3 8f3e dc19 6ebe 79cd 06bd 1a14 aebe
000001a0: 24b3 d4be 845c b4be 25b8 d43e e320 de3c
000001b0: 79f4 4c3e e445 bc3e 00ca 82be 4f61 cf3d
000001c0: 1aa1 16bd 8c4b bfbe b111 46bd 742f 45be
000001d0: 707a 1ebe 99a5 f43e 9963 ef3e 506c ce3e
000001e0: 371b 8c3e 6126 ebbe 4d50 21be b3dc 98be
000001f0: 4fa6 10be 9d50 c83e ad9a 32be e3eb fcbe
00000200: 55d4 e93a 0e80 71bc a1bd cebd da07 ccbe
00000210: fdba 1cbd 9516 4e3e a09e a1be 052a a73e
00000220: 67c0 8cbe 66d7 813e 6779 a53d fde1 eebe
00000230: 378e d03e 60b4 8ebe 905f 813e 078e 093e
00000240: f927 e2bd 7750 00bf e183 3abd d65d 2a3e
00000250: d74b 2dbe 7824 443c 127b 1f3d 356b d0bd
00000260: fa65 433e 03b7 a63e 499f a7be 5a18 ed3d
00000270: 3dd7 89be fcda 2b3d 9be8 bbbe 9081 e03d
00000280: 9ac9 1c3e 0af0 933e 557c aa3e b141 e13e
00000290: 59e0 d2be 6881 73be 6c2d c53e 8524 e73e
000002a0: 387e fabd d6a0 a53c 954a b93d db4b 403e
000002b0: 0f08 10be b0f9 82be 180a f2bd 4f1e c8be
000002c0: 031b cfbe ee98 d3be 44f4 dbbc 63e8 9c3e
000002d0: d247 363e be1e 4f3e 71af 57be 573e 28bc
000002e0: 6c8d 25be 81ea 69bd 0d05 9abe 1910 60bd
000002f0: c550 f43d 967a eb3e 7ce8 983e 6c74 9bbe
00000300: e0cb 973e a629 c8be e9a1 eebe 4228 f73e
00000310: d498 8fbe 4c68 bdbe 5d61 cbbe db5c b3bd
00000320: 0e9e b0bd 9ed7 8c3d fca8 15bd 5f9f b13e
00000330: ea50 e73e 28a6 ae3e 5c15 e33d 6f97 92be
00000340: 16d5 d6be 4fe6 e13e 94b1 853e 7f4f 683e
00000350: 5ea3 83bd 2d6d a9be 1876 eebd 673a fa3e
00000360: 768f 0c3e 535d 1ebd 6d9d 1f3c 7ea7 943d
00000370: 009a 2abe 2657 6bbd 3cf3 953e 8e8d 2bbc
00000380: c687 e8be d491 cabd c2fc be3d f0de aebe
00000390: 1aad 893e 9fd6 02bf f9c7 a83e 0ca7 0b3e
000003a0: d285 96be 67cc dbbe b030 edbd c22c 6b3e
000003b0: 946d 7ebd c206 183e 6db9 7cbd c6c4 94be
000003c0: 8f98 43bd b1c6 8bbe 1564 35be e8fb a83d
000003d0: b1c8 393e 888e aebe e9c1 e1be eea7 2a3e
000003e0: 986d c13e ce60 e7be 616c cd3e 3dd9 2cbe
000003f0: bf13 6dbe 2d20 13be c0aa 143e 5f7f cc3d
-0.3898649 0.054873105 -0.4830997 -0.48191127 -0.031898487 0.49567366 0.0022318766 0.39394903
-0.20301534 -0.02354856 0.04320213 0.48053744 -0.11657117 -0.15122755 -0.10721527 0.2914736
0.06665026 -0.43511486 0.44627196 -0.50515795 0.22217527 -0.22338746 0.35588172 -0.011953747
0.4988706 0.38754874 0.33623123 0.09558409 -0.28115767 -0.34374696 0.4768612 0.353427
-0.11024586 -0.4382409 0.26348308 -0.43854776 -0.31840616 0.16722248 0.3861961 -0.32069746
0.19215612 -0.36420998 -0.02950211 0.25629058 -0.06435708 -0.44827083 -0.3230083 0.100290574
-0.011669668 -0.34137926 0.16701363 0.069063775 0.35149285 -0.27818835 0.076865725 0.13040732
-0.23742352 -0.20944014 0.12356264 -0.04476886 0.1516389 -0.30078748 -0.02878947 -0.49855897
0.045377683 -0.2529441 0.19997053 0.33721963 0.21614148 -0.08153639 -0.48437154 -0.22787327
0.40420642 -0.0087223435 0.49096414 -0.12943275 -0.2730009 -0.36974844 -0.4593154 -0.2725921
-0.29974866 0.04131841 0.043198824 -0.32510453 -0.40717587 -0.3876165 0.3111641 0.42864564
0.29649317 0.12445437 -0.23756276 0.07347989 -0.141264 0.31207904 -0.3775052 -0.33502558
0.37975225 0.48306957 -0.22903438 -0.38844436 0.28078604 -0.23252052 -0.032910798 -0.3399971
-0.41542923 -0.35226834 0.4154674 0.027115291 0.20015134 0.36772072 -0.2554474 0.10125982
-0.036774732 -0.37362325 -0.048356716 -0.19256383 -0.15476394 0.4778259 0.46755674 0.4031701
0.27364513 -0.45927718 -0.15753289 -0.2985588 -0.14125942 0.39124003 -0.17441817 -0.49398717
0.0017839769 -0.014740003 -0.100947626 -0.3984974 -0.038264263 0.20125802 -0.31566334 0.32649246
-0.2749054 0.25359648 0.08079796 -0.4665679 0.407335 -0.2787199 0.2526822 0.13433085
-0.110427804 -0.5012278 -0.045535926 0.16637358 -0.16923462 0.011971585 0.03893573 -0.10176698
0.1908187 0.32561502 -0.32738712 0.1157691 -0.26922026 0.041956887 -0.367009 0.10962212
0.1531128 0.28894073 0.33297983 0.4399543 -0.4118679 -0.23779833 0.38511217 0.4514505
-0.122311056 0.020218294 0.090474285 0.18778937 -0.14065574 -0.2558112 -0.118183315 -0.39085624
-0.40450296 -0.41327614 -0.026849873 0.30646047 0.17800835 0.20226571 -0.2106302 -0.010268769
-0.1616723 -0.057108406 -0.30081978 -0.054702852 0.11929468 0.45991963 0.29864872 -0.3036226
0.29647732 -0.39094275 -0.46607903 0.48272902 -0.28046286 -0.36993635 -0.3972272 -0.08757945
-0.086238965 0.06877063 -0.03653811 0.34691903 0.4517892 0.34111142 0.11088058 -0.2863116
-0.41959447 0.44121024 0.26112044 0.22686575 -0.06427644 -0.33091107 -0.11643618 0.48872682
0.13726601 -0.03866322 0.009742123 0.07258509 -0.16660309 -0.057456158 0.29287136 -0.010470761
-0.45416087 -0.09891096 0.093255535 -0.34154463 0.2688988 -0.51108736 0.32965067 0.13637942
-0.29398972 -0.42929384 -0.11581552 0.22966293 -0.06211622 0.14846328 -0.061700273 -0.29056376
-0.047752913 -0.27300027 -0.1771396 0.08251172 0.18142964 -0.34093118 -0.44093254 0.16665623
0.37778926 -0.45191044 0.4012175 -0.16879745 -0.23152064 -0.14367743 0.14518261 0.099852316

net.0.bias f4 [128]
00000000: e0fd cf3e 2cb3 873e 795d ca3e bdd6 1bbe
00000010: 999b edbe a00d 9b3d 9e34 6cbc 76cd 2bbe
00000020: 25bd debe 98f5 a73e 8f27 b23e 1c69 f6be
00000030: 4ddc 00bf f650 a63d 333a 2a3d 8abf edbc
00000040: 8104 6b3e a95c 78bd c33e 5dbe 22f4 e73d
00000050: 6cba 8dbe ea00 0bbd 2b73 e8bd 9ae5 93be
00000060: 786d 7bbc a180 d2be fd05 f9bd 150f 4cbe
00000070: 6449 473e 0acf 83be 2b9e cabd efb0 19bd
00000080: 6df8 b43e 413c a5be aa18 4c3e 090d f6be
00000090: 9a58 f93d f4cc 8e3c 2af5 053e 146e 593e
000000a0: 2da1 c5bc 68c3 aa3e cc9c 5f3e ef45 a2be
000000b0: a2f1 033e 3866 9bbe e8fe 9c3e b5fc f6bd
000000c0: ed40 f5be 7efb 8d3e f284 bfbe c2cb f2be
000000d0: 0dc7 053f c52e 68bd b3f9 3c3e 7f5b c93e
000000e0: a177 123e ef5f af3e 845d a2be bf8c 01be
000000f0: 730a 1f3e fd4a 363c dc12 363d 1317 ff3e
00000100: 9735 cd3e 4248 833c 740d a3be c83f 52be
00000110: e042 00be ad50 dc3e c930 433e f52d 98bd
00000120: 9c52 d2bc f085 f23e 705d 57bd 5577 60be
00000130: bf93 69bd b48c 663e c498 50bd ad21 193d
00000140: fcca 69bd 3b2e a7be 55dd b93e 7798 ff3e
00000150: 7454 ce3e a257 e33e beb2 a23d b41d 373e
00000160: 69ba 6d3e 3f8c e13d 6f08 af3e 90f4 ccbe
00000170: 56b4 febe f9d8 f4be b429 bfbe 1e3f 85be
00000180: 13f3 6e3e a108 24bd 8abc 60be 86fb a83d
00000190: 0339 cd3d 64bb d7be 9780 acbd d190 d1be
000001a0: 0128 a73e 149d 993e 3914 f9be 8bc0 083e
000001b0: 8022 30be 4bc7 21be 2094 c03c eba0 7cbd
000001c0: 41b8 663e 835c c5be d0c3 d9be 10a8 36be
000001d0: 09cb 253d 4968 ccbe 19ed 013e fbd1 11be
000001e0: 6210 333e 8166 23bd 5878 fa3e a8e1 85be
000001f0: e77f 8fbe 4646 d7be 352b e5be f029 803e
0.4062338 0.26503885 0.3952444 -0.15218635 -0.46407774 0.07570958 -0.014416842 -0.16777596
-0.4350368 0.3280456 0.34795806 -0.48127067 -0.5033615 0.08120911 0.04155941 -0.029021997
0.22950937 -0.060635243 -0.21605973 0.113258615 -0.2768129 -0.03393642 -0.113500915 -0.2888611
-0.015345924 -0.4111376 -0.12159345 -0.19927628 0.1946159 -0.25743896 -0.098934494 -0.037522253
0.35345784 -0.32272533 0.19931284 -0.4805682 0.121751025 0.017431714 0.13081804 0.21233398
-0.024124706 0.33352208 0.21837157 -0.3169398 0.12885144 -0.30351424 0.30663228 -0.12059919
-0.47901097 0.27730936 -0.37406117 -0.4742108 0.5225685 -0.056685228 0.18454628 0.39327618
0.14303447 0.3425288 -0.31711972 -0.12651347 0.1553133 0.011126277 0.04445158 0.49822292
0.40079948 0.016025666 -0.318462 -0.20532143 -0.12525511 0.430303 0.19061579 -0.074306406
-0.025674157 0.4736781 -0.052579343 -0.21920522 -0.057025667 0.22514611 -0.05092694 0.03738563
-0.057078347 -0.3265246 0.36301675 0.4992101 0.40298808 0.44402796 0.079442486 0.17882425
0.23215641 0.11013078 0.34186122 -0.40030336 -0.4974696 -0.47821787 -0.37336504 -0.26024717
0.23334913 -0.04004729 -0.21946922 0.08251099 0.1002064 -0.42135155 -0.08422964 -0.409308
0.32647708 0.30002654 -0.4864824 0.133547 -0.1720066 -0.1579868 0.023508132 -0.0616769
0.22531225 -0.38547143 -0.42532206 -0.17837548 0.040476833 -0.39923313 0.12688102 -0.14240257
0.17486718 -0.039892677 0.4891994 -0.26148725 -0.2802727 -0.42045802 -0.44759527 0.25031996

net.2.weight f4 [128, 128]
00000000: a1db 843c b329 ae3d 5b2c 6c3d 0a16 a53d
00000010: f3b6 8abc 0fd1 2a3d 9063 0f3c 0999 803c
00000020: aead f73c bb03 c03d 850c bdbc 454d 963d
00000030: 40f1 8cbd a062 2d3d 882b 543d b1e0 903d
00000040: bc0c 12bb 6c5d 363d 80c1 1a3d ade6 f5bc
00000050: 58d1 073d 9f7b ac3d c51a 3dbc cf88 97bd
00000060: a476 bd3b 5299 1dbd 2c3e 03bd 6d5f febc
00000070: 8e86 b8bd a13e b13d 7bbf 11bd b8b5 2dbd
00000080: f75b 093d 29c4 8a3c 02dd 673d 257c 823d
00000090: fdf6 923d f29a a2bb 519b 423d b719 e43c
000000a0: 105f b63d c36e 4ebc a9f1 02bd de3f 303d
000000b0: 1b75 a6bd 095d 4e3d 87cb 88bd 6996 9bbd
000000c0: cedb d9bc 924c 7f3d e01a 6abd b2ad b6bc
000000d0: 1cba 9c3d 0c98 813d 9e55 a8bd 8a62 62bd
000000e0: 3bcf 0a3d 6402 bb3c 1765 5abd 4791 34bd
000000f0: a965 8c3d ae8c e63d 4c68 903d d216 00bc
00000100: fc00 9abd 64bb 7e3c 6778 b23c d12b 463d
00000110: 9999 993d 7642 673d 4f51 2fbc 6fdd bb3c
00000120: 73fe ac3b bc05 0a3d ac7e 44bd 68f4 9d3d
00000130: 0016 bc3c d2c6 a6bd 3a84 813d 9e81 1bbd
00000140: 440f cabc bf82 0f3d 1ae6 c8bb d0b1 6d3d
00000150: 6b03 a43d 5a67 8fbd ac25 633c c50d 373d
00000160: 5ae4 6c3d e137 093d 7862 fabb 2df7 14bd
00000170: 0d2f 873d d5f7 893d 36f9 a4bd b61d 6b3d
00000180: 3aae 0dbc 56a1 663a 85d2 793d fdcd 7abd
00000190: 73d9 a9bc 8600 7dbd 8459 4c3d c6b1 ac3d
000001a0: 0547 edbc 0d67 68bb 2b35 7abd 0f00 8a3d
000001b0: d29b aa3d 5d10 9f3d 0705 b53d 9e6d 78bd
000001c0: c847 3cbb da3d 2f3d 4e92 4cbc 9545 b03d
000001d0: c4a6 88bd 76be 433d 369f 5b3d 49eb 893d
000001e0: 99e5 963d 384a 253d 5343 f0bb ed28 90bd
000001f0: 81c9 91bd 9b75 9cbd 5cba e93c 338e 6f3d
00000200: bd46 33bd 2c8b 443d 023e a23d 1c50 ac3b
00000210: 8326 3d3d 5a5f 0c3c 36ab 87bd cf9b 883d
00000220: 19d6 85bc 3fe3 c63c 04db a43d 0899 a23d
00000230: 4768 be3c db27 9a3d c34c 8dbd ce3a 843c
00000240: 5135 a63d 1027 163d 6bcb 083d 0625 5dbd
00000250: dbee ab3d 053c 3d3d ca1b 28bd a05a f2bc
00000260: b416 933d c68a 95bd 13d0 30bc d0c5 b9bd
00000270: 5c4d f43c 4fc3 b93a 1e8c 2ebd f393 f63c
00000280: 9928 f13c eb84 2b3c 5ee3 a0bd 633b 24bd
00000290: c17a b4bd 07c3 2fbd 5c7b acbd ec0d 02bd
000002a0: 53fc 5cbd 1ff7 8d3c 5d36 2bbd 2a7b 91bd
000002b0: 8f6e d53c 539d 03bd fa39 1dbd 8cf3 a83c
000002c0: 2a6b 00bd a2d7 dd3c 92da 363d 8cde 6e3d
000002d0: ab31 7b3d 8d4c 72bb a946 1a3d 691f dc3c
000002e0: b1cc 703b a082 2fbd 7ee7 8abd b35c 8a3d
000002f0: 0788 50bd 20b2 a2bd 7fe1 853d cc9a 83bd
00000300: c681 9f3d 40ef a7bc ff7f 903d 4a46 86bd
00000310: 79b1 9f3d 6ec5 8f3c 9610 95bd 473d 9c3d
00000320: 2a16 eebc e02c 203d ae61 27bc b34a 17bd
00000330: aeea 673c 8e53 46bd 71ff 85bb 2195 0c3d
00000340: 9a7b 1c3d 0f56 55bd f25a 78bd 17bb bb3a
00000350: 7c47 893c 0b29 5f3d c714 0bbd 0edb cc3c
00000360: 8979 0c3d 0589 7fbd d5bc 4fbb e282 543d
00000370: 15e5 abbd 1fee 223d 0617 7f3d e674 3b3c
00000380: 03c9 adbd ae2c 9dbd d932 af3c f731 9d3d
00000390: 8e56 7fbd bbb3 803d f684 8b3d fa80 3ebc
000003a0: 4478 8d3d 6866 663d 1f5f b03c c5f0 81bd
000003b0: 6baf 3abd 5c19 b73d 754f 46bc 8b09 70bc
000003c0: fc84 8bbd fd31 9cbb a5c0 1cbd 7fa9 1fbd
000003d0: cbc6 0e3d 35d6 1cbb ecb4 563d 4f43 e83c
000003e0: 7dc2 44bd 98ba 6f3b 73dc a0bd b850 383c
000003f0: d4a8 a33d 6329 023d 6f0e 553d 9b45 883d
0.016218008 0.08504047 0.05765949 0.08060844 -0.01693294 0.04170328 0.008751765 0.015697973
0.030234184 0.093757115 -0.023077259 0.07338957 -0.06881952 0.042330384 0.051799327 0.070741065
-0.0022285422 0.044522688 0.037782192 -0.030017221 0.03315863 0.08422016 -0.011542027 -0.07399141
0.0057819653 -0.038476296 -0.032041714 -0.031051362 -0.09010039 0.08654524 -0.035583 -0.04240963
0.03353497 0.01693924 0.056607254 0.06371335 0.071760155 -0.0049623186 0.047511403 0.027844293
0.089048505 -0.01259965 -0.031968746 0.04302966 -0.08127805 0.050381694 -0.06679445 -0.07597048
-0.026594069 0.062328883 -0.057154536 -0.022299621 0.07652685 0.06327829 -0.08219455 -0.055269755
0.033889037 0.022828288 -0.053319063 -0.04408386 0.06855328 0.11257301 0.07051143 -0.007817941
-0.07519719 0.015547607 0.021785928 0.04838163 0.074999996 0.056459866 -0.010700538 0.022932736
0.005279356 0.033696875 -0.047972366 0.077126324 0.02295971 -0.08143391 0.06324048 -0.03796541
-0.024665482 0.0350368 -0.006130946 0.058030903 0.080084644 -0.070021346 0.013863962 0.044690866
0.05783496 0.033500556 -0.007641133 -0.036368538 0.06600771 0.06736723 -0.08055346 0.05740138
-0.008647496 0.00087978446 0.060991783 -0.061231602 -0.02073357 -0.061768077 0.049890056 0.08432345
-0.028964529 -0.0035461814 -0.06108586 0.067382924 0.083305016 0.07766793 0.088388495 -0.060651414
-0.0028729308 0.042783596 -0.012486054 0.08607022 -0.06672433 0.04778906 0.053618632 0.0673433
0.07368011 0.040353984 -0.0073322444 -0.07039056 -0.07118512 -0.07639619 0.028531246 0.05848522
-0.043768633 0.047984287 0.07921983 0.005258573 0.046179306 0.008567655 -0.06624453 0.06670343
-0.016337441 0.024278281 0.080495864 0.07939345 0.023243083 0.07527133 -0.06899407 0.016141322
0.08115638 0.036658347 0.03339712 -0.053990386 0.083951674 0.046199817 -0.041042127 -0.029584229
0.07182065 -0.073018596 -0.010791796 -0.09070933 0.029822044 0.0014172586 -0.042614095 0.030099845
0.029438304 0.010468702 -0.07855867 -0.040095698 -0.08812476 -0.042910602 -0.084219664 -0.03175156
-0.053951573 0.01732975 -0.04179989 -0.0710357 0.026053695 -0.032132458 -0.03838537 0.020623945
-0.0313522 0.02708036 0.04464204 0.058317706 0.061326664 -0.0036971897 0.037665043 0.026870446
0.00367431 -0.042849183 -0.06782435 0.06755962 -0.050910976 -0.07944131 0.065371506 -0.064260095
0.07788424 -0.020499825 0.07055663 -0.06556375 0.07797522 0.017550196 -0.07278554 0.07628875
-0.029063303 0.039105296 -0.01021616 -0.036936473 0.014155073 -0.048419528 -0.004089289 0.034321908
0.038203813 -0.052084025 -0.060633607 0.0014322725 0.01675772 0.0544825 -0.03395536 0.025006797
0.034295592 -0.06238653 -0.0031698246 0.051882632 -0.08393303 0.03977787 0.062277816 0.011441445
-0.084856056 -0.076745376 0.02138655 0.07675546 -0.062338404 0.06284281 0.0681247 -0.01162743
0.069077045 0.056250006 0.021529732 -0.06344751 -0.045577448 0.08940384 -0.012103905 -0.014650713
-0.06812474 -0.0047667013 -0.038269658 -0.038980003 0.034857552 -0.0023931388 0.052418634 0.028352408
-0.04803704 0.0036579724 -0.07854547 0.011249714 0.07991186 0.03177775 0.052015718 0.06653901

net.2.bias f4 [128]
00000000: dab1 853d 26c0 063d c1b4 f8ba 92ed 853d
00000010: 390c ecbc 0558 fc3c 44fb 43bd 4b9f 8fbb
00000020: 69c5 733d ac2a 253c c048 39bd c08f 42bd
00000030: 7cae 83bb 8083 1bbd 220b c3bd a921 7e3c
00000040: 836b b63d 610a 26bd 2655 53bd 06a2 9d3c
00000050: fd3b 1e3d 7b5c 15bd 1dc1 20bd 6b14 82bd
00000060: 40ae 923d 1fc0 483c 1848 7ebc 0572 83bd
00000070: 8e0f 4ebd 1891 dfbc abb7 863d 8b92 c83d
00000080: bc88 d73a 2d4c bc3d e07e 333c 789b f33c
00000090: dcae 91bd 1cba 2bbb 7ade fdbc 36f3 8e3d
000000a0: ed27 73bd 558b 0f3d 4cbc 26bd 090a 94bd
000000b0: 1c70 a4bb 0ba7 b23d d2b7 be3d 21b8 cf3c
000000c0: 719c 1a3d d6b0 173c 6fa2 11bd 6219 66bd
000000d0: 5ca3 85bc 95e7 d4bd 669b af3d 806d 18bb
000000e0: c76f 83bd 2d36 ad3c c3f3 b4bd 57f9 863d
000000f0: a442 b13c b7d0 78bd f00e d83c cf07 2b3d
00000100: 0f15 cbbd 83b3 f43c e4d4 cdbc 8fcf 8b3d
00000110: e353 293d d79e 5b3d c41e 053d f1f1 3a3d
00000120: 38dd 37bd 3cdc cfbd 6711 853d 499f 57bd
00000130: b6a9 21bc 0fa0 79bd 16ac 84bc 0f9c cc3c
00000140: 347f d33b d87d 323c bb6f abba 8039 f2bc
00000150: 8729 bfbb 7d40 e6bc f503 603d f23e b1bc
00000160: 461a 513d 815a c63d dde0 68bd 7f4c a8bd
00000170: 0f0f aabc 18e6 a1bd 18b4 ab3d 2ccb 843d
00000180: 881d 8e3d 5a92 0a3c a4ec d2ba 11eb 913b
00000190: eca2 71bd dac6 853d f4ba 443d 4b35 bfbb
000001a0: 2a0c 2dbd eb24 c6bc 7cee 83bd f7f8 383d
000001b0: 1ea3 803c 416f 203c 3b46 2fbd 81c9 803c
000001c0: 4ab9 943d 0d26 06bc 6251 35bd baa7 223d
000001d0: f5c8 b5bc 960d 37bd d297 493c adc7 873d
000001e0: 6adc 673d e2ae e8bb c26c ddbc 926c 7abd
000001f0: ee05 5c3d f6a5 883c cf01 e03b 28fe 533d
0.06528063 0.03289809 -0.0018974767 0.065394536 -0.028814422 0.03080369 -0.047847047 -0.004383003
0.059514437 0.010080975 -0.045235395 -0.047500372 -0.004018603 -0.037967205 -0.09523608 0.015510955
0.08907225 -0.04053724 -0.051594876 0.019242298 0.038631428 -0.03646515 -0.039246667 -0.06351551
0.07162142 0.0122528365 -0.015520118 -0.06418232 -0.050307803 -0.027290866 0.06578001 0.09793576
0.0016443948 0.09194217 0.010955542 0.02973722 -0.0711343 -0.002620346 -0.030989874 0.069799826
-0.059364248 0.035044987 -0.040706918 -0.072284766 -0.0050182473 0.08723267 0.09312405 0.025356354
0.03774685 0.00925847 -0.0355553 -0.05617655 -0.016313247 -0.10395733 0.08574562 -0.0023258626
-0.06417804 0.021143997 -0.08835556 0.065905266 0.021638222 -0.06074592 0.02637431 0.041755494
-0.09916126 0.029870754 -0.025125928 0.06826698 0.041339766 0.05361828 0.032500044 0.04564089
-0.044888705 -0.10149428 0.0649746 -0.05264214 -0.009867122 -0.06094366 -0.016195338 0.024976758
0.006454373 0.010894261 -0.0013079563 -0.029568434 -0.005833808 -0.028106922 0.054691274 -0.02163646
0.051050447 0.09685231 -0.05685507 -0.082177155 -0.020759134 -0.07905215 0.083839595 0.064840645
0.069392264 0.0084577445 -0.0016092253 0.004453071 -0.058993265 0.065320686 0.048029855 -0.0058352104
-0.04224793 -0.024187526 -0.06441972 0.045159306 0.01570278 0.00979215 -0.042791586 0.015721085
0.072619036 -0.008187783 -0.044267066 0.039710738 -0.02219055 -0.04469069 0.012304263 0.06629882
0.056606688 -0.007100926 -0.027029399 -0.061138697 0.053716592 0.016680699 0.006836153 0.051756054

net.4.weight f4 [2, 128]
00000000: 054b d53c 6c47 11bd e601 64bd 2749 afbd
00000010: ca22 aabd c264 adbd 22c0 073d 9d6e 3a3d
00000020: 8140 2f3d 7cee 4a3d f2d7 b13c 3e39 5239
00000030: a79d b83d 4b7a 85bd 944f 283c 25b6 8dbd
00000040: 0b84 ca3c 36dd 42bd 3c13 d93b 9aa1 d63c
00000050: 93e7 40bd abb0 9abc ff7d 57bd c15e 723c
00000060: 94c6 d1bc 3fe9 aebc 663e f73b ae17 abbc
00000070: 56c4 cb3c 6c7e 97bd 7e65 49bd b25a 71bd
00000080: 0e6e a13d 0bc5 973c c069 ff3c dbc2 e5bc
00000090: 31c3 883d 88d1 b63c 2548 093d e3f5 693d
000000a0: b546 8c3d 1922 54bd d852 623c 4fcb 4c3d
000000b0: 0366 12bd 79e9 75bd aa73 0d3b a7e3 603c
000000c0: b440 413d c089 0e3d 8a75 03bd 2a41 80bd
000000d0: b141 25bd a473 593d bf1b a03b 764c d83c
000000e0: c79d 383d 309a 813d 836a 37bd 0aa8 57bd
000000f0: 3dd6 b23d 7087 7bbd a9e2 a93d 0cd0 0d3c
00000100: 94e8 523d d7d4 923d 04a1 abbd a86a 86bd
00000110: 3a53 30bd 7def 4dbc 5a2f c8bd abab b43d
00000120: fef9 3cbd 9e38 993d abb8 34bd daca 373d
00000130: 6876 a2bd 2828 57bd f5c1 9fbd aba7 ad3d
00000140: 8f1a a9bd ade1 9b3d 88ed b03b 6a3f b4bc
00000150: ca73 93bd 3705 843c 4001 8a3d 48fa 9abd
00000160: e04a 8fbc 9e82 0dbd e76e aabc 4f66 9c3d
00000170: ffa1 953c 3f42 523d 7bfb 603d 7a67 5dbd
00000180: 6c65 85bb bba6 80bc 544b dfbd c5eb cbbc
00000190: 349b 80bd 8482 1fbb bcd1 6d3d 8a97 54bd
000001a0: 79f4 b73c 1b57 8dbb f7fc 8e3b 4883 6abd
000001b0: 12ab 86bc b75d 873d 9ec1 e9bc 0037 a23d
000001c0: 5086 62bd 2e60 433d 9891 6ebd d13e a1bd
000001d0: 01a5 183d 0420 b03d 3302 453d c9c7 62bd
000001e0: 5a83 72bd d361 edbc d612 973b ef9a 1bbd
000001f0: 2f36 a4bd fe0e 833d 8cd5 5a3d 8267 713c
00000200: 145e 7bbd 97ba 373d bdef 38bc c8f8 a3bc
00000210: a5c2 d23c 8886 4a3d cacf dd3c 80e9 8d3d
00000220: 6b15 7d3d 5e66 0d3c dbce 11bd 343c bb3c
00000230: 46a5 6b3c 17c3 7ebd 8039 af3c 9a99 3abc
00000240: f2e5 04bd 8538 9c3d 3a00 7fbd 50f4 3a3d
00000250: fde1 a7ba b1e3 bcbd 823e 4ebd 3fcd 493d
00000260: b373 31bd 175c 983d 8a0d 60bd 3437 20bd
00000270: a302 9fbd c0ae 013c 2ee6 7abd 9101 39bd
00000280: 4d29 793b 11e3 30bd ded4 4ebd 1946 33bc
00000290: e38c f73b 9a38 afbb c596 343c 52b6 0ebd
000002a0: 8e08 83bd 60b6 68bd 5e0b b5bd a281 7cbd
000002b0: 9fc3 4cbd a076 7d3d 344d 81bd aec4 b8bd
000002c0: 3d26 8abd b9de a6bd b0c9 20bc 699c 93bd
000002d0: fb17 2ebd a567 a73d 74b2 88bc 916d 843d
000002e0: 2247 533d d264 593d 6b85 a83d a765 21bd
000002f0: 9e3c a13d e3ba 35bc a803 a43c 03c8 6dbd
00000300: a58d 1a3d 957f a73c 0031 a73d a5b0 7e3d
00000310: eacf 59bd e2b7 f53c 334b 00bd 1aec 91bd
00000320: fc95 9bbd 218c 953d b207 08bd 54c8 333d
00000330: 2849 36bd a90a 1ebd 68c7 a43d 9dea 8a3c
00000340: 1667 7dbd 2ea3 903d a181 4ebd 530b 8e3d
00000350: 18da 24bd 22cf bc3b 0475 76bd 3011 773c
00000360: d550 133d 2ef0 40bd 9b75 713d 5312 a23d
00000370: 23f9 5a3d 67cc 72bd 92fb c7bc 5c8e 22bd
00000380: c175 373c 60cf 663d a865 8e3c ab10 9dbd
00000390: 767d 6e3d 77af 90bd d0f4 94bd 82e0 08bd
000003a0: 6137 44bd 84e8 48bd 0c48 bf39 8997 d33c
000003b0: 23c4 82bd aa56 a23d 2830 103c e699 90bd
000003c0: 37af 00bd cf3c c4bc fb2a 5a3d 0044 853d
000003d0: 7991 063d e532 873d d82b 6ebd 621e 41bd
000003e0: 60cb dabc 4f4a 8b3c c4b4 2e3d 0eff 35bd
000003f0: 759b 13bb 957c a4bc 8c1d ad3d f442 b63d
0.026036749 -0.035468504 -0.055665873 -0.085588746 -0.08307417 -0.08466484 0.033142217 0.045515645
0.042786125 0.049543843 0.021709416 0.00020048485 0.09014445 -0.06517466 0.010272879 -0.06919507
0.024721166 -0.047574244 0.0066246074 0.026200105 -0.047095846 -0.01888307 -0.052610394 0.014793099
-0.025607385 -0.021351455 0.0075452803 -0.020885315 0.024873894 -0.0739716 -0.049169056 -0.058924384
0.078823194 0.018526575 0.031178355 -0.028047016 0.06677855 0.02231671 0.033516068 0.05711926
0.06849424 -0.05179033 0.013813697 0.049998578 -0.035741817 -0.06003711 0.0021583834 0.013726152
0.047180846 0.034799337 -0.032094516 -0.06262429 -0.04034585 0.0530888 0.00488612 0.026403647
0.045072343 0.06328237 -0.044779312 -0.05265049 0.08732269 -0.06140846 0.08295185 0.008655559
0.051491335 0.07169502 -0.08380321 -0.06563312 -0.04304812 -0.0125693055 -0.097746566 0.088218056
-0.04613685 0.07481502 -0.044121426 0.04487119 -0.079327404 -0.05252853 -0.07800666 0.08479246
-0.08257019 0.076114036 0.0053994097 -0.022002894 -0.071998194 0.016115768 0.0673852 -0.075672686
-0.017491758 -0.034548394 -0.020804835 0.07636701 0.018265722 0.05133271 0.05492733 -0.05405376
-0.0040709283 -0.015704503 -0.109030396 -0.024892697 -0.06279603 -0.0024339268 0.058061346 -0.05190233
0.02245544 -0.0043133623 0.004363652 -0.057254106 -0.016438995 0.066096716 -0.028534707 0.07920647
-0.05530387 0.047699146 -0.058244318 -0.078733094 0.037266735 0.085998565 0.0480978 -0.05536631
-0.059207298 -0.02897731 0.0046103997 -0.037989553 -0.08018147 0.06399344 0.05342631 0.014734151
-0.061369017 0.04485568 -0.011287627 -0.02001609 0.02572758 0.049444705 0.02707662 0.06929302
0.061788004 0.008630363 -0.035597663 0.022855856 0.014382666 -0.06219777 0.021389723 -0.0113891605
-0.032445855 0.07627968 -0.062256075 0.04564315 -0.0012808439 -0.09223116 -0.05035258 0.049268004
-0.04332323 0.0743944 -0.05470041 -0.039115146 -0.07764175 0.007915199 -0.061254673 -0.04516751
0.0038019002 -0.043185297 -0.050495975 -0.010942006 0.007554637 -0.0053473236 0.011022274 -0.034841843
-0.06398116 -0.05681455 -0.08840059 -0.061647065 -0.049991246 0.061880708 -0.063135535 -0.09021889
-0.067455746 -0.0814795 -0.009813711 -0.07207567 -0.04250334 0.081740655 -0.016686656 0.06466211
0.05158151 0.053074665 0.082285725 -0.039403584 0.0787289 -0.011091921 0.020021275 -0.058052074
0.03773274 0.020446578 0.08163643 0.06218018 -0.053176798 0.029994909 -0.031321716 -0.07125111
-0.075969666 0.07302118 -0.033210464 0.04389222 -0.04450336 -0.038584385 0.08045846 0.016957575
-0.06186589 0.07062374 -0.050416593 0.06935754 -0.040247053 0.005761997 -0.06017019 0.015079781
0.03596576 -0.047104053 0.058950048 0.07913651 0.05346025 -0.059276965 -0.02441195 -0.039686546
0.011197508 0.056350112 0.017382458 -0.07669195 0.058225118 -0.07064717 -0.07273257 -0.033417232
-0.047904376 -0.04904987 0.00036484038 0.025829094 -0.06385066 0.07926686 0.008800544 -0.07060604
-0.031417098 -0.023954777 0.053263646 0.065071106 0.032853577 0.06601504 -0.05814728 -0.047148116
-0.026708305 0.017003207 0.04265286 -0.044432692 -0.002252308 -0.020078937 0.08452901 0.08899489

net.4.bias f4 [2]
00000000: 77d0 4f3c 584e bdbd
0.012683979 -0.092434585
