data/checkpoints/dqn_episode_300.pth (torch, 72408 bytes, 6 tensors)

net.0.weight f4 [128, 4]
0	0xbec548a8	-0.38531995
1	0x3d7a5e2a	0.061124958
2	0xbef557aa	-0.47918445
3	0xbef4ad09	-0.47788265
4	0xbd06f742	-0.032950647
5	0x3f00a19b	0.5024659
6	0x3ab3282a	0.0013668586
7	0x3ec93f67	0.39306185
8	0xbe51d39d	-0.2049088
9	0xbcd40c11	-0.02588466
10	0x3d24ce96	0.04023608
11	0x3ef45945	0.47724357
12	0xbdee8913	-0.116472386
13	0xbe204938	-0.1565293
14	0xbddbcff3	-0.107330225
15	0x3e94c9f0	0.29060316
16	0x3d83070b	0.06397828
17	0xbedba386	-0.42898196
18	0x3ee34f8c	0.44396627
19	0xbf01ccbf	-0.5070304
20	0x3e61ace5	0.2203861
21	0xbe6a6d68	-0.22893298
22	0x3eb55043	0.35412797
23	0xbc6577cb	-0.014005612
24	0x3efe5308	0.49672723
25	0x3ecaeca4	0.39633667
26	0x3eab4ac0	0.33455467
27	0x3dbfec3c	0.0937123
28	0xbe91d3ef	-0.28482005
29	0xbeb1ea8d	-0.3474926
30	0x3ef29a2c	0.4738325
31	0x3eb368b9	0.35040835
32	0xbdd6f732	-0.104963675
33	0xbee16e88	-0.4402964
34	0x3e8942f3	0.2680889
35	0xbedf0e56	-0.43565625
36	0xbea0927c	-0.3136176
37	0x3e2a1748	0.16610444
38	0x3ec70379	0.38869837
39	0xbea30345	-0.31838432
40	0x3e421146	0.18951902
41	0xbebd21b1	-0.36939767
42	0xbd0243f6	-0.031803094
43	0x3e81dd29	0.25364044
44	0xbd66aec1	-0.056319002
45	0xbeeabf6d	-0.4584917
46	0xbea1f335	-0.31630865
47	0x3dda8fbc	0.106719464
48	0xbc60b0ec	-0.013714056
49	0xbeab0754	-0.33404028
50	0x3e2962b8	0.16541564
51	0x3d89fbd2	0.06737484
52	0x3eb39afb	0.35079178
53	0xbe8adcdc	-0.27121627
54	0x3d9d07cb	0.07667502
55	0x3e051b17	0.12998615
56	0xbe7c7960	-0.24655676
57	0xbe57c7e1	-0.21072342
58	0x3df42e32	0.119228736
59	0xbd3d43a0	-0.04620707
60	0x3e1e93e7	0.15486108
61	0xbea0e466	-0.31424254
62	0xbcd7dc6b	-0.02635022
63	0xbefdddff	-0.49583432
64	0x3d2e44ae	0.042545967
65	0xbe7a0413	-0.24415617
66	0x3e4a6feb	0.19769256
67	0x3eab4e45	0.33458152
68	0x3e5ed183	0.2175961
69	0xbd9c2a8c	-0.07625303
70	0xbef71cca	-0.48264152
71	0xbe6797e0	-0.2261653
72	0x3ece0611	0.40239003
73	0xbc61b9d4	-0.013777215
74	0x3efa8254	0.48927557
75	0xbe067a6a	-0.13132635
76	0xbe8ac1fc	-0.27101123
77	0xbebadf8d	-0.3649868
78	0xbeea110f	-0.4571614
79	0xbe8a47dc	-0.2700795
80	0xbe982026	-0.29712027
81	0x3d32f810	0.043693602
82	0x3d3b4699	0.045721624
83	0xbea51de6	-0.32249373
84	0xbed0ed3b	-0.40805992
85	0xbec9bb54	-0.39400733
86	0x3e9ed262	0.31019884
87	0x3edaee6a	0.4276002
88	0x3e97761c	0.29582298
89	0x3e05a8f6	0.13052735
90	0xbe733773	-0.23751621
91	0x3d9527e4	0.07282999
92	0xbe0ea7c3	-0.13931184
93	0x3ea1fd1d	0.31638423
94	0xbec0763f	-0.37590215
95	0xbeaa9a46	-0.33320826
96	0x3ec095ca	0.3761428
97	0x3efb29c0	0.4905529
98	0xbe6cc37b	-0.23121445
99	0xbec85969	-0.39130715
100	0x3e8f6d81	0.28013232
101	0xbe63da23	-0.22251181
102	0xbd0dac49	-0.034588132
103	0xbeae4fe3	-0.34045324
104	0xbed7e820	-0.42169285
105	0xbeb26d59	-0.3484905
106	0x3ed1fc8a	0.41012985
107	0x3ca0a464	0.019609638
108	0x3e47a655	0.19497044
109	0x3ebeb2f7	0.37245914
110	0xbe84cdf7	-0.2593839
111	0x3dca3acf	0.09874498
112	0xbcd2c9be	-0.025730964
113	0xbec720cc	-0.3889221
114	0xbd026e38	-0.031843394
115	0xbe2ed3d6	-0.17072996
116	0xbe212d2c	-0.15739888
117	0x3ef33400	0.4750061
118	0x3eee1ebf	0.46507832
119	0x3ecd20bf	0.40064046
120	0x3e8c4d9f	0.2740297
121	0xbee63e5b	-0.44969448
122	0xbe210f79	-0.15728559
123	0xbe980140	-0.29688454
124	0xbe0fca63	-0.14042048
125	0x3ecb7b9c	0.39742744
126	0xbe31ad26	-0.17351207
127	0xbefc5de3	-0.4929038
128	0x3c4b3cdf	0.0124046495
129	0xbca5db6c	-0.02024623
130	0xbdbf8756	-0.09351985
131	0xbec72c6f	-0.38901088
132	0xbd33c979	-0.04389331
133	0x3e5dbcaf	0.21654008
134	0xbea54048	-0.32275605
135	0x3ea35436	0.31900185
136	0xbe8aa59b	-0.27079472
137	0x3e7aa877	0.24478327
138	0x3dab1024	0.08352688
139	0xbeed8cf5	-0.46396604
140	0x3ecff0d4	0.40613425
141	0xbe91c342	-0.28469282
142	0x3e80b61f	0.25138947
143	0x3e08012e	0.132817
144	0xbde6dcdc	-0.11272594
145	0xbf011bd1	-0.5043307
146	0xbd4222a9	-0.047396336
147	0x3e276c25	0.16349848
148	0xbe2b630c	-0.16737002
149	0x3c885d87	0.01664616
150	0x3d265b0c	0.040614173
151	0xbdccbd0c	-0.09996995
152	0x3e392bac	0.18083066
153	0x3ea6492d	0.32477704
154	0xbeac1d73	-0.33616218
155	0x3de36044	0.111023456
156	0xbe892dbf	-0.26792714
157	0x3d40751a	0.046986677
158	0xbebb3937	-0.3656709
159	0x3de38d82	0.11110975
160	0x3e195f62	0.14977792
161	0x3e99e0f6	0.30054444
162	0x3ea86556	0.32889813
163	0x3edec574	0.4351002
164	0xbed63638	-0.4183824
165	0xbe781d63	-0.2422996
166	0x3ec2fbba	0.38082677
167	0x3ee450f1	0.44593003
168	0xbe0fc245	-0.14038952
169	0x3d129c7a	0.03579376
170	0x3da1c7fd	0.07899473
171	0x3e3776c5	0.179164
172	0xbe094480	-0.13405037
173	0xbe862e84	-0.26207364
174	0xbde6aacd	-0.112630464
175	0xbec61159	-0.3868511
176	0xbecea452	-0.4035974
177	0xbed6becf	-0.4194245
178	0xbcd7c913	-0.026340997
179	0x3e9bbd8e	0.30418056
180	0x3e354f1b	0.17705958
181	0x3e538d32	0.2065933
182	0xbe57bcce	-0.21068117
183	0xbc291193	-0.010319131
184	0xbe201ec1	-0.15636732
185	0xbd855943	-0.06511166
186	0xbe980264	-0.29689324
187	0xbd45118f	-0.04811245
188	0x3df45b3f	0.11931466
189	0x3ee942be	0.45558733
190	0x3e986a12	0.29768425
191	0xbe9b3ae8	-0.3031838
192	0x3e97aeec	0.29625642
193	0xbec2a67b	-0.3801764
194	0xbeef1f8c	-0.46703756
195	0x3ef67189	0.48133495
196	0xbe8ed580	-0.27897263
197	0xbebaa082	-0.36450583
198	0xbecaa15a	-0.39576226
199	0xbdb02c79	-0.086022325
200	0xbdceca98	-0.100972354
201	0x3da70a53	0.08156266
202	0xbd41917a	-0.047257878
203	0x3eab28b1	0.33429483
204	0x3ee1c203	0.44093332
205	0x3eb74048	0.3579123
206	0x3dcebfff	0.10095214
207	0xbe977981	-0.29584888
208	0xbed831fd	-0.42225638
209	0x3edfa8d4	0.43683493
210	0x3e849cbe	0.25900835
211	0x3e65af4a	0.22430149
212	0xbd89390a	-0.067003325
213	0xbeabb8fa	-0.33539563
214	0xbdf2ed05	-0.11861614
215	0x3ef93ae6	0.48677748
216	0x3e0b9bda	0.13633671
217	0xbd009ba2	-0.031398423
218	0x3c160ed8	0.009158812
219	0x3d937b45	0.07201246
220	0xbe2caca9	-0.1686274
221	0xbd7d3331	-0.061816398
222	0x3e950818	0.29107738
223	0xbc48eb36	-0.01226311
224	0xbee35877	-0.4440343
225	0xbdd9c552	-0.10633339
226	0x3dd346e8	0.10316259
227	0xbea9bcfb	-0.33151993
228	0x3e8865a8	0.26640058
229	0xbf03df60	-0.5151272
230	0x3ea73910	0.32660723
231	0x3e0853fa	0.13313285
232	0xbe959a15	-0.29219118
233	0xbed7f353	-0.4217783
234	0xbde81433	-0.11331978
235	0x3e6cc16b	0.23120658
236	0xbd77ddc7	-0.060514238
237	0x3e101c8c	0.1407339
238	0xbd7740ea	-0.06036464
239	0xbe940095	-0.28906694
240	0xbd34e733	-0.0441658
241	0xbe8d1503	-0.27555093
242	0xbe348f73	-0.17632847
243	0x3dac28f2	0.08406247
244	0x3e35cd81	0.17754175
245	0xbeb08cb4	-0.34482348
246	0xbee32fa9	-0.443723
247	0x3e2e237a	0.1700572
248	0x3ebfabd2	0.37435776
249	0xbee9e8b5	-0.45685354
250	0x3ecbd032	0.39807278
251	0xbe302a81	-0.17203714
252	0xbe6fdf89	-0.23425116
253	0xbe17be39	-0.14818658
254	0x3e12d5dc	0.14339393
255	0x3dc72be1	0.09725166

net.0.bias f4 [128]
0	0x3ec9a89c	0.3938645
1	0x3e7ef748	0.24899018
2	0x3ed05ecd	0.40697327
3	0xbe0adcae	-0.13560745
4	0xbef4f946	-0.4784643
5	0x3db7ddc5	0.08977846
6	0xbd0114af	-0.031513866
7	0xbe1e5a9f	-0.15464257
8	0xbed898d1	-0.4230409
9	0x3eb02e93	0.34410533
10	0x3eb9294d	0.36164322
11	0xbeebbee5	-0.46044078
12	0xbf04d81b	-0.5189225
13	0x3d86ed09	0.065881796
14	0x3d6003ab	0.054690998
15	0xbcac2d4f	-0.021017699
16	0x3e59452c	0.21217793
17	0xbd9980d7	-0.074952774
18	0xbe4f2bbe	-0.2023153
19	0x3dcf2a18	0.101154506
20	0xbe93a894	-0.28839552
21	0xbc9c8fac	-0.019111477
22	0xbe01bb48	-0.12669098
23	0xbe9b22b2	-0.30299908
24	0xbcbb9cc1	-0.022901895
25	0xbed86355	-0.42263284
26	0xbde2dc3d	-0.11077163
27	0xbe4ad379	-0.19807233
28	0x3e4da520	0.20082521
29	0xbe7bc59b	-0.24587099
30	0xbdd8d925	-0.10588292
31	0xbd568b88	-0.05237916
32	0x3ebe3cd6	0.3715579
33	0xbeb224f3	-0.34793815
34	0x3e5ceead	0.21575423
35	0xbeef1c5f	-0.46701333
36	0x3e0ba74a	0.13638034
37	0x3b6d6284	0.003622205
38	0x3e098a17	0.13431583
39	0x3e4b082e	0.19827339
40	0xbd2e835b	-0.04260574
41	0x3eb181bc	0.34669292
42	0x3e479bc9	0.19493021
43	0xbe9a9bdb	-0.30197033
44	0x3e12abe3	0.14323382
45	0xbea359f9	-0.3190458
46	0x3ea4c60a	0.32182342
47	0xbdded1ea	-0.10879882
48	0xbefe3df4	-0.4965664
49	0x3e8697aa	0.26287585
50	0xbec7db1f	-0.39034364
51	0xbef7983c	-0.48358333
52	0x3f097fce	0.5371064
53	0xbd31c9d6	-0.043405376
54	0x3e2cc578	0.16872203
55	0x3ed087eb	0.40728697
56	0x3e12db3b	0.14341442
57	0x3eb539b1	0.35395578
58	0xbeaaa1f9	-0.333267
59	0xbddefecb	-0.10888442
60	0x3e239107	0.15973292
61	0x3cd8a011	0.026443513
62	0x3d69e3e6	0.057102107
63	0x3f036cc8	0.5133786
64	0x3ec55a3f	0.38545415
65	0x3cea64d9	0.028612541
66	0xbeab1ca3	-0.33420286
67	0xbe4462b3	-0.19178276
68	0xbde959b6	-0.11394064
69	0x3ed5c6f7	0.4175336
70	0x3e51aa0c	0.20475024
71	0xbd9c3302	-0.076269165
72	0xbd2d2889	-0.042274985
73	0x3eeb1ad6	0.45918912
74	0xbd8e3f8c	-0.06945714
75	0xbe571a5e	-0.21006152
76	0xbd8ea19f	-0.069644205
77	0x3e772d6f	0.24138425
78	0xbd6b17ca	-0.057395734
79	0x3d534471	0.051578943
80	0xbd427ae5	-0.047480483
81	0xbe9ff537	-0.31241772
82	0x3eb5c81e	0.3550424
83	0x3f035d01	0.5131379
84	0x3ed2bd84	0.41160214
85	0x3edc02f6	0.4297101
86	0x3db5a693	0.08869662
87	0x3e2be892	0.16787937
88	0x3e5ed0c6	0.21759328
89	0x3e0146fb	0.12624733
90	0x3eb59a6b	0.35469374
91	0xbed40fe5	-0.41418377
92	0xbf03b4e4	-0.5144789
93	0xbeeec989	-0.46638134
94	0xbec6bae9	-0.38814476
95	0xbe7f256c	-0.24916619
96	0x3e7e89c3	0.2485724
97	0xbd60a47e	-0.054844372
98	0xbe522e13	-0.20525388
99	0x3dc11f80	0.09429836
100	0x3dae1f5a	0.085020736
101	0xbed2a61a	-0.4114235
102	0xbd8e173a	-0.06938024
103	0xbed7bc2b	-0.42135748
104	0x3eb00a2e	0.34382766
105	0x3e927754	0.28606665
106	0xbef0e00f	-0.47045943
107	0x3e15c91c	0.14627498
108	0xbe202306	-0.1563836
109	0xbe3230a3	-0.17401366
110	0x3d18de90	0.037321627
111	0xbda4ac31	-0.080406554
112	0x3e723f6c	0.23657006
113	0xbecb46d2	-0.3970247
114	0xbee1d012	-0.44104058
115	0xbe45dccc	-0.19322509
116	0x3d54d2a7	0.051958706
117	0xbed020d6	-0.40650052
118	0x3df1931a	0.117956355
119	0xbe133b99	-0.14378203
120	0x3e23e2ab	0.16004436
121	0xbcd58c19	-0.02606778
122	0x3f01bf03	0.50682086
123	0xbe8f0afb	-0.27938065
124	0xbe96b6cb	-0.29436335
125	0xbedb1457	-0.42788956
126	0xbeeabb4b	-0.45846018
127	0x3e81ce67	0.25352785

net.2.weight f4 [128, 128]
0	0x3c8c2e3d	0.017111892
1	0x3dac23ee	0.084052905
2	0x3d686186	0.05673363
3	0x3da35b25	0.07976369
4	0xbc973f67	-0.01846285
5	0x3d278d5a	0.040906288
6	0x3c01162d	0.007878822
7	0x3c726fed	0.014797193
8	0x3d261d3a	0.040555216
9	0x3dc65241	0.096836574
10	0xbcc2be0d	-0.023772264
11	0x3d9893c8	0.07450062
12	0xbd8e3fd9	-0.06945772
13	0x3d2abcc2	0.04168392
14	0x3d67bd94	0.05657728
15	0x3d94bea2	0.07262923
16	0xbb4238ce	-0.002963591
17	0x3d3a7433	0.045520972
18	0x3d1721f1	0.036897603
19	0xbcede13b	-0.029038062
20	0x3d0b64a1	0.034031514
21	0x3daaa59c	0.08332369
22	0xbc1c74c1	-0.009549321
23	0xbd95d71d	-0.0731642
24	0x3b8fc161	0.0043870662
25	0xbd14aeb3	-0.03629942
26	0xbd01bfa5	-0.031676907
27	0xbcfa0e47	-0.030524386
28	0xbdb5c310	-0.08875096
29	0x3daefd2d	0.08544383
30	0xbcdb93b8	-0.026803836
31	0xbd2a4a79	-0.04157493
32	0x3d0cf19b	0.0344101
33	0x3c708288	0.014679559
34	0x3d6b1484	0.057392612
35	0x3d80baa5	0.062855996
36	0x3d92596c	0.07145962
37	0xbb827cf0	-0.003982179
38	0x3d5cf7f1	0.053947393
39	0x3ceb46f3	0.028720355
40	0x3db48244	0.08813909
41	0xbc5cf658	-0.013486467
42	0xbd063442	-0.03276468
43	0x3d33bb30	0.043879688
44	0xbda5bd4d	-0.08092747
45	0x3d51fba6	0.05126538
46	0xbd8700fb	-0.06591984
47	0xbd9f26d2	-0.07771076
48	0xbcddb974	-0.02706597
49	0x3d81b960	0.063341856
50	0xbd6d5c3e	-0.057949297
51	0xbcb79b93	-0.02241305
52	0x3d9b6d4a	0.075892046
53	0x3d7f9863	0.062401187
54	0xbda97996	-0.08275144
55	0xbd6645e4	-0.056218997
56	0x3d0ea547	0.03482559
57	0x3cb4fd28	0.02209337
58	0xbd55bc93	-0.05218179
59	0xbd3191e1	-0.04335201
60	0x3d99c27d	0.07507799
61	0x3e1c961f	0.15291642
62	0x3d8f08c6	0.06984095
63	0xbc01d443	-0.007924142
64	0xbd95c54f	-0.07313024
65	0x3c833f10	0.016021281
66	0x3cac4812	0.02103046
67	0x3d42d927	0.047570374
68	0x3d97e248	0.074162066
69	0x3d6bb14b	0.057542127
70	0xbc3f7f3e	-0.011688052
71	0x3cb62814	0.022235908
72	0x3ba6326d	0.005071929
73	0x3d0f25bf	0.034948107
74	0xbd44f994	-0.04808958
75	0x3d9becf3	0.07613554
76	0x3cc3463a	0.023837198
77	0xbda588b6	-0.08082716
78	0x3d74f26f	0.059801515
79	0xbd1f8c3a	-0.03895209
80	0xbcd05515	-0.025431195
81	0x3d126e5e	0.035749786
82	0xbba15cbb	-0.0049243844
83	0x3d6c09e8	0.057626635
84	0x3da83689	0.08213527
85	0xbd911415	-0.070839085
86	0x3d4f6e87	0.050642516
87	0x3d40ae2d	0.047041107
88	0x3d704a81	0.058664802
89	0x3d06db7f	0.03292417
90	0xbc08e70b	-0.008355866
91	0xbd117493	-0.035511564
92	0x3d8583b7	0.06519263
93	0x3d86ae9a	0.06576271
94	0xbda3238d	-0.07965765
95	0x3d669c49	0.05630139
96	0xbc16abe1	-0.009196253
97	0xb73035be	-1.050293e-05
98	0x3d7631d2	0.060106106
99	0xbd7e62f2	-0.06210608
100	0xbca25adf	-0.019818721
101	0xbd816005	-0.063171424
102	0x3d48cc06	0.049022697
103	0x3dadf410	0.08493817
104	0xbce431aa	-0.027855713
105	0xbb315238	-0.0027057063
106	0xbd7cbceb	-0.061703604
107	0x3d8850a5	0.06656007
108	0x3dab5589	0.08365924
109	0x3d9ee68a	0.077588156
110	0x3db27a7c	0.08714768
111	0xbd72628c	-0.059176013
112	0xbb86aff6	-0.0041103316
113	0x3d3336df	0.0437535
114	0xbc58f48b	-0.013241897
115	0x3daea196	0.08526914
116	0xbd8bfad0	-0.06834948
117	0x3d4235be	0.047414534
118	0x3d5e18c2	0.05422283
119	0x3d87eef9	0.06637377
120	0x3d98de04	0.07464221
121	0x3d20cc9d	0.039257634
122	0xbbce202a	-0.0062904553
123	0xbd91a5d6	-0.07111709
124	0xbd8fdb16	-0.07024209
125	0xbd9b1545	-0.07572416
126	0x3cf16845	0.029468665
127	0x3d6aff26	0.057372235
128	0xbd2f9b43	-0.04287268
129	0x3d4053c1	0.046954874
130	0x3da07276	0.07834332
131	0x3b88f350	0.0041793957
132	0x3d3dd146	0.046342157
133	0x3bfdbc59	0.0077434
134	0xbd897e4d	-0.06713543
135	0x3d86f927	0.06590491
136	0xbcbed8e3	-0.023296779
137	0x3ca33d6b	0.019926747
138	0x3da2ce53	0.079495095
139	0x3da398eb	0.07988151
140	0x3cb70ef6	0.022346001
141	0x3d982b0d	0.07430086
142	0xbd98136f	-0.07425582
143	0x3c81118b	0.015755435
144	0x3da4424f	0.0802046
145	0x3d19544c	0.037433907
146	0x3d05ba1c	0.03264819
147	0xbd59ae75	-0.05314489
148	0x3daddbc4	0.084891826
149	0x3d3a210b	0.04544167
150	0xbd39a024	-0.045318738
151	0xbceb1fa9	-0.02870162
152	0x3d9bb8af	0.07603585
153	0xbd9b7d66	-0.07592277
154	0xbc3e7f5e	-0.011627046
155	0xbdbda67b	-0.09260269
156	0x3cfa7022	0.030571047
157	0x3a2382ae	0.00062374293
158	0xbd46d83d	-0.048546065
159	0x3cfe18b7	0.031017644
160	0x3cf9087c	0.030399553
161	0x3c24ebbe	0.010065971
162	0xbd9ee2b0	-0.07758081
163	0xbd27b914	-0.04094799
164	0xbdb67769	-0.089094944
165	0xbd2c0d5e	-0.042004935
166	0xbdaf52fb	-0.08560749
167	0xbcfde4cb	-0.030992886
168	0xbd60b6f9	-0.054861996
169	0x3c87518d	0.016518379
170	0xbd2e957d	-0.042623032
171	0xbd8f633d	-0.0700135
172	0x3cc6af35	0.024253467
173	0xbd025f46	-0.03182914
174	0xbd19e58c	-0.03757243
175	0x3caac193	0.020844257
176	0xbd0470ec	-0.032334253
177	0x3ce48a1d	0.027897889
178	0x3d32468a	0.043524303
179	0x3d687b52	0.056758232
180	0x3d74de9b	0.059782606
181	0xbb95a8c2	-0.0045672366
182	0x3d15e940	0.036599398
183	0x3cd7daee	0.026349511
184	0x3b962aba	0.00458273
185	0xbd331175	-0.04371782
186	0xbd8ee6b0	-0.06977594
187	0x3d8c5da6	0.068537995
188	0xbd5f3b1e	-0.054499738
189	0xbdca1b0f	-0.09868442
190	0x3d844650	0.064587235
191	0xbd867009	-0.06564338
192	0x3d9d0578	0.07667059
193	0xbcb7fb13	-0.022458589
194	0x3d8ec212	0.0697061
195	0xbd87feae	-0.06640373
196	0x3d9e1fd4	0.077209145
197	0x3c6d8ed1	0.014499382
198	0xbd9697b3	-0.07353153
199	0x3d9b2b57	0.07576626
200	0xbcff78bb	-0.031185498
201	0x3d230289	0.03979734
202	0xbc406c84	-0.011744622
203	0xbd1a58ff	-0.03768253
204	0x3c7664cc	0.01503868
205	0xbd41d9f7	-0.047327008
206	0xbb39c56d	-0.0028346435
207	0x3d0912c4	0.033465162
208	0x3d18730d	0.037219096
209	0xbd5206ad	-0.051275898
210	0xbd74ed25	-0.05979647
211	0x3a0f40ab	0.00054646534
212	0x3c3910b4	0.011295486
213	0x3d5b3ec0	0.05352664
214	0xbd566a51	-0.052347485
215	0x3ca853ea	0.020547826
216	0x3d100722	0.035163052
217	0xbd7d7820	-0.06188214
218	0xbb8069e4	-0.003918873
219	0x3d584c71	0.052807275
220	0xbdade3ef	-0.084907405
221	0x3d22a05e	0.03970372
222	0x3d80db7f	0.062918656
223	0x3c2e86f9	0.010652297
224	0xbdaf1a02	-0.085498825
225	0xbd9f2170	-0.077700496
226	0x3ca793c5	0.020456204
227	0x3d9b2a6a	0.07576449
228	0xbd7c784a	-0.061638154
229	0x3d80cb63	0.06288793
230	0x3d8a347c	0.06748292
231	0xbc2fbcb6	-0.010726145
232	0x3d8f7097	0.07003897
233	0x3d69dedd	0.057097305
234	0x3ca17ea7	0.019713713
235	0xbd839230	-0.064243674
236	0xbd3d46e2	-0.046210177
237	0x3db5d1ee	0.088779315
238	0xbc500b67	-0.012698031
239	0xbc8909d2	-0.016728316
240	0xbd8cfb1e	-0.06883834
241	0xbb7de0f6	-0.0038738823
242	0xbd20e025	-0.03927626
243	0xbd236418	-0.03989038
244	0x3d0a3db1	0.03375024
245	0xbb60f154	-0.003432353
246	0x3d54a4d4	0.051915005
247	0x3ce26958	0.027638122
248	0xbd4fb744	-0.050711885
249	0x3b454583	0.0030101247
250	0xbd9f2aff	-0.07771873
251	0x3c2256fc	0.009908434
252	0x3da4c030	0.08044469
253	0x3d06614e	0.03280764
254	0x3d58a703	0.05289365
255	0x3d8821da	0.06647082

net.2.bias f4 [128]
0	0x3d9d4fe2	0.07681252
1	0x3cde556d	0.027140344
2	0x3c343188	0.010998137
3	0x3da5a2c7	0.08087688
4	0xbc6fa2b0	-0.01462619
5	0x3d2c90b0	0.042130172
6	0xbd810cf7	-0.06301301
7	0xbca299a4	-0.019848652
8	0x3d52bb12	0.051447935
9	0xbbbf34aa	-0.0058351355
10	0xbd178ecd	-0.03700142
11	0xbd78f758	-0.06078276
12	0xbc9f954e	-0.019480374
13	0xbcb88fbc	-0.022529475
14	0xbdd1f880	-0.10252476
15	0x3cfc7d3f	0.03082144
16	0x3dc10698	0.09425086
17	0xbd48b1b7	-0.048997607
18	0xbd1e7458	-0.038685173
19	0x3b74db86	0.0037362291
20	0x3d45fb6a	0.04833547
21	0xbcad6c64	-0.021169849
22	0xbcc37eac	-0.023864113
23	0xbd9fea40	-0.078083515
24	0x3db15549	0.08658845
25	0xb9e70a4c	-0.00044067425
26	0xbc2eac7c	-0.010661241
27	0xbd49bdd9	-0.04925332
28	0xbd1b1ae2	-0.037867434
29	0xbc3e9e4d	-0.011634422
30	0x3da4b069	0.0804146
31	0x3de8245c	0.1133506
32	0xbc5fbe62	-0.013656231
33	0x3dd10a4f	0.10207044
34	0x3c949c40	0.018140912
35	0x3d37125e	0.04469525
36	0xbdb11dfb	-0.086482964
37	0xbc83fe7b	-0.016112557
38	0xbd205a6e	-0.03914874
39	0x3d6f53df	0.058429595
40	0xbd793d41	-0.060849432
41	0x3d4e772e	0.050406627
42	0xbcdd3dcd	-0.027007008
43	0xbd93f1ba	-0.0722384
44	0x3bef9137	0.007311012
45	0x3db0a1d6	0.08624618
46	0x3dd4ec11	0.103965886
47	0x3d1ca583	0.03824378
48	0x3d31425c	0.043276176
49	0x3caac067	0.020843698
50	0xbca808e9	-0.020512061
51	0xbd265755	-0.04061063
52	0xba997f28	-0.0011710869
53	0xbdf43298	-0.119237125
54	0x3dc1dd3a	0.09466024
55	0xbc862bef	-0.016378371
56	0xbda2cab7	-0.07948821
57	0x3c630b81	0.013857723
58	0xbdc9179d	-0.09818957
59	0x3da29754	0.0793902
60	0x3bc8f1c3	0.006132336
61	0xbd3a90e7	-0.045548346
62	0x3c2b092a	0.010439197
63	0x3d677589	0.056508575
64	0xbdeaa64a	-0.11457498
65	0x3c49643e	0.012291966
66	0xbcbe634e	-0.023240712
67	0x3d8f6476	0.07001583
68	0x3d67ccc3	0.05659176
69	0x3d2eeae6	0.042704485
70	0x3d44c05e	0.04803502
71	0x3d2ad957	0.041711178
72	0xbd309f99	-0.043120954
73	0xbdef7179	-0.11691565
74	0x3da31a78	0.07964033
75	0xbd8f9053	-0.070099495
76	0x3bc4436f	0.005989484
77	0xbd5c430a	-0.05377487
78	0xbc9512f8	-0.018197522
79	0x3c1b28c8	0.009470172
80	0x3cb3752c	0.021906458
81	0xbb854b67	-0.0040678266
82	0x3c2c76f4	0.0105264075
83	0xbd2f237d	-0.042758454
84	0x3c1d50b0	0.009601757
85	0xbd346d3f	-0.044049498
86	0x3d4dee0a	0.05027584
87	0xbbc9d5f5	-0.006159539
88	0x3d2b4bd5	0.041820366
89	0x3de54312	0.11194433
90	0xbd7f9d37	-0.06240579
91	0xbdc880b4	-0.09790173
92	0xbd126000	-0.035736084
93	0xbda35886	-0.07975869
94	0x3d9796cf	0.07401811
95	0x3da45f78	0.08026022
96	0x3d846732	0.064649954
97	0x3aa42239	0.0012522406
98	0x3c5b0b47	0.013369388
99	0x3ca2f268	0.019890979
100	0xbd70b2e3	-0.05876435
101	0x3da462a7	0.08026629
102	0x3d5b2a82	0.053507335
103	0x3c1c027e	0.009522079
104	0xbd016633	-0.031591605
105	0xbc2498e9	-0.010046222
106	0xbd8bbbe9	-0.068229504
107	0x3d508501	0.050908092
108	0x3cfe1500	0.031015873
109	0xbb1aa889	-0.002359899
110	0xbcf102e6	-0.029420327
111	0x3c4813ea	0.012211779
112	0x3db43315	0.087988056
113	0xbc4bd1fb	-0.0124402
114	0xbd28ddfd	-0.04122733
115	0x3d3899f9	0.045068715
116	0xbce8d898	-0.028423592
117	0xbd7658ee	-0.060143404
118	0x3c7083f9	0.014679902
119	0x3da512a4	0.08060196
120	0x3d934d62	0.07192494
121	0x3b858074	0.0040741507
122	0xbd2800ba	-0.041016318
123	0xbd39c749	-0.04535607
124	0x3d8d6152	0.06903328
125	0x3c175033	0.00923543
126	0xbbfec09a	-0.0077744247
127	0x3d17979f	0.03700983

net.4.weight f4 [2, 128]
0	0x3cd8724b	0.026421687
1	0xbd0fed57	-0.035138454
2	0xbd5a9b2b	-0.053370636
3	0xbdabf731	-0.083967574
4	0xbda53f7a	-0.08068748
5	0xbdaa3906	-0.083116576
6	0x3d0073a4	0.031360283
7	0x3d2c647a	0.04208801
8	0x3d286543	0.041112196
9	0x3d3f6036	0.046722613
10	0x3cb32972	0.021870349
11	0xba5ed3ca	-0.0008500187
12	0x3db57b27	0.0886138
13	0xbd82d342	-0.063879505
14	0x3c0537ae	0.008130951
15	0xbd886f0b	-0.06661805
16	0x3cc3518f	0.023842601
17	0xbd4982be	-0.04919695
18	0x3c0b84d7	0.008515558
19	0x3cbbe9c6	0.02293862
20	0xbd31c309	-0.04339889
21	0xbc911356	-0.017709415
22	0xbd526a44	-0.051370874
23	0x3c331434	0.01093011
24	0xbcc0b24f	-0.023522524
25	0xbcbb7730	-0.022883981
26	0x3c0b530b	0.008503686
27	0xbc9fe32a	-0.0195175
28	0x3cda4a43	0.026646739
29	0xbd931300	-0.07181358
30	0xbd3f5da5	-0.046720166
31	0xbd6afafa	-0.057368256
32	0x3d9e052d	0.07715831
33	0x3b3f43a0	0.0029184595
34	0x3d01a8a1	0.031654958
35	0xbcd789c4	-0.026310809
36	0x3d865670	0.065594554
37	0x3cad26f4	0.021136738
38	0x3cead531	0.02866611
39	0x3d5a6c22	0.05332578
40	0x3d76e5d0	0.06027776
41	0xbd4f1c8b	-0.05056433
42	0x3c6da544	0.014504734
43	0x3d4658b2	0.04842443
44	0xbd086854	-0.03330262
45	0xbd68f052	-0.056869812
46	0x3804b82c	3.1642776e-05
47	0x3c7d8276	0.015472999
48	0x3d488e90	0.048964083
49	0x3d10e88b	0.03537802
50	0xbcfab04c	-0.030601643
51	0xbd6a90ce	-0.057267003
52	0xbd1ae12d	-0.0378124
53	0x3d5329e5	0.051553626
54	0xbb5346ed	-0.003223832
55	0x3cc8e149	0.024521487
56	0x3d337462	0.043812163
57	0x3d77df4f	0.060515698
58	0xbd3cee89	-0.046125922
59	0xbd4e0654	-0.050299004
60	0x3db016ed	0.08598123
61	0xbd64b204	-0.05583383
62	0x3da6ae41	0.08138705
63	0x3a6bbb14	0.00089924154
64	0x3d4f0fca	0.050552167
65	0x3d86d4ee	0.06583582
66	0xbda9854d	-0.08277378
67	0xbd852ec2	-0.06503059
68	0xbd2a8d34	-0.041638568
69	0xbc52d124	-0.012867246
70	0xbdc3f725	-0.095686235
71	0x3dadf8df	0.08494734
72	0xbd2de9de	-0.04245936
73	0x3d8aa8fe	0.06770514
74	0xbd2710b2	-0.040787406
75	0x3d31c118	0.04339704
76	0xbd9d560a	-0.07682426
77	0xbd45acc9	-0.048260484
78	0xbd95a9b7	-0.07307761
79	0x3dabf743	0.08396771
80	0xbda23694	-0.07920566
81	0x3d9557c6	0.07292132
82	0x3be9c481	0.007134021
83	0xbcc00ddf	-0.023444114
84	0xbd8ddd66	-0.06926994
85	0x3c65bd1e	0.01402214
86	0x3d851f0a	0.06500061
87	0xbd95878f	-0.073012464
88	0xbcaad5a1	-0.02085382
89	0xbd028fea	-0.03187553
90	0xbc8cb79c	-0.017177396
91	0x3d97c3fb	0.07410427
92	0x3c5616bd	0.013066945
93	0x3d52b80c	0.051445052
94	0x3d4c62cd	0.04989891
95	0xbd58dc28	-0.052944332
96	0xbb8de9d0	-0.004330851
97	0xbc9f3779	-0.019435631
98	0xbdd9d178	-0.10635656
99	0xbcc72fa9	-0.024314718
100	0xbd7fe568	-0.06247464
101	0xbad4eb6d	-0.0016244479
102	0x3d6e22f4	0.058138803
103	0xbd4cd6e6	-0.05000963
104	0x3cbd02b2	0.023072574
105	0xbb099b2b	-0.0020997028
106	0x3b226de7	0.0024784745
107	0xbd5855cc	-0.052816197
108	0xbc71d281	-0.014759661
109	0x3d84c306	0.0648251
110	0xbcdfbf18	-0.0273128
111	0x3d9fe276	0.07806866
112	0xbd59e6cc	-0.05319862
113	0x3d3b6761	0.045752887
114	0xbd69cb7f	-0.057078835
115	0xbd9ea1da	-0.077457145
116	0x3d0f426a	0.034975447
117	0x3dad3687	0.08457666
118	0x3d444f4b	0.047927182
119	0xbd5a5878	-0.053307027
120	0xbd60aa30	-0.054849803
121	0xbcd85f0b	-0.026412508
122	0x3b38356a	0.002810801
123	0xbd148904	-0.03626348
124	0xbda160c7	-0.07879787
125	0x3d799837	0.06093618
126	0x3d577e8f	0.05261093
127	0x3c655d28	0.013999261
128	0xbd78314e	-0.060593896
129	0x3d31e40c	0.043430373
130	0xbc221cfe	-0.009894608
131	0xbc98f603	-0.018671995
132	0x3cddd3d0	0.02707854
133	0x3d4c47ce	0.049873166
134	0x3cd0135a	0.025399853
135	0x3d86022e	0.065433845
136	0x3d6d23b9	0.057895396
137	0x3bd03511	0.0063539823
138	0xbd0e00bc	-0.03466867
139	0x3cad8338	0.021180734
140	0x3c52e0f8	0.01287102
141	0xbd796874	-0.06089063
142	0x3c86764d	0.016413832
143	0xbc12de2e	-0.008964105
144	0xbcfac064	-0.030609317
145	0x3d936e94	0.071988255
146	0xbd74455a	-0.05963645
147	0x3d2c8520	0.042119145
148	0x3b111f38	0.0022143852
149	0xbdb642b0	-0.088994384
150	0xbd486279	-0.048922036
151	0x3d325cd0	0.043545544
152	0xbd26af7e	-0.040694706
153	0x3d939383	0.0720587
154	0xbd549c13	-0.051906656
155	0xbd19bb9d	-0.037532438
156	0xbd99678c	-0.07490453
157	0x3c1c2937	0.009531311
158	0xbd71b275	-0.05900808
159	0xbd31e2ec	-0.0434293
160	0x3b07900f	0.002068523
161	0xbd849272	-0.06473245
162	0xbd482e71	-0.048872415
163	0xbc1b9696	-0.009496352
164	0x3bd22473	0.0064130365
165	0xbbca61e1	-0.006176219
166	0x3c045607	0.008077151
167	0xbd13ffc3	-0.036132585
168	0xbd750bc4	-0.059825674
169	0xbd6305dd	-0.055425514
170	0xbdb2b85d	-0.08726571
171	0xbd8119fd	-0.06303785
172	0xbd40fd6d	-0.047116686
173	0x3d6fb3a6	0.058520935
174	0xbd9db8e7	-0.07701283
175	0xbdb1fa53	-0.08690324
176	0xbd7d15d7	-0.061788406
177	0xbda44beb	-0.08022293
178	0xbc076b7a	-0.0082653705
179	0xbd88eed7	-0.0668618
180	0xbd221d79	-0.03957889
181	0x3da383e5	0.07984141
182	0xbc6ff062	-0.014644714
183	0x3d7f7b2d	0.06237333
184	0x3d4d8da8	0.050183922
185	0x3d50bc4e	0.05096083
186	0x3da39ce2	0.079889074
187	0xbd1929e0	-0.03739345
188	0x3d9e4bec	0.07729325
189	0xbbe0843f	-0.0068517025
190	0x3c9a3228	0.018822744
191	0xbd7ede2f	-0.06222361
192	0x3d160f6e	0.03663581
193	0x3c70a588	0.014687903
194	0x3da339c6	0.07970004
195	0x3d7d6297	0.0618616
196	0xbd532abb	-0.051554423
197	0x3cede0db	0.029037884
198	0xbcefc5f6	-0.0292692
199	0xbd922a9a	-0.07137032
200	0xbd8e9add	-0.069631316
201	0x3d85ac5c	0.065270156
202	0xbcf4ea2a	-0.029896814
203	0x3d2c4fb7	0.04206821
204	0xbd2d918f	-0.042375144
205	0xbd0fa098	-0.035065264
206	0x3d9c3309	0.07626922
207	0x3c83b517	0.016077561
208	0xbd704a97	-0.058664884
209	0x3d8ab739	0.06773228
210	0xbd480d89	-0.048841033
211	0x3d888b3c	0.06667182
212	0xbd18fa02	-0.0373478
213	0x3b8eb605	0.0043551945
214	0xbd71698d	-0.05893855
215	0x3c8c60e4	0.017136045
216	0x3cf4f623	0.029902523
217	0xbd34e3ae	-0.044162445
218	0x3d5add24	0.053433552
219	0x3d9dd432	0.07706489
220	0x3d4148d3	0.04718859
221	0xbd6e6883	-0.05820514
222	0xbcdcc2a7	-0.026948286
223	0xbd1db790	-0.038505137
224	0x3c280830	0.010255858
225	0x3d4fe778	0.050757855
226	0x3c9ee417	0.019395871
227	0xbd9bd596	-0.07609098
228	0x3d68e7d3	0.05686171
229	0xbd8e9b23	-0.06963184
230	0xbd927e9a	-0.071530536
231	0xbcfea556	-0.031084698
232	0xbd3e6fff	-0.046493527
233	0xbd3d0629	-0.046148453
234	0xbac6d848	-0.0015170658
235	0x3ce43732	0.02785835
236	0xbd7e4208	-0.06207469
237	0x3d9fc724	0.07801655
238	0x3c1bb266	0.009502983
239	0xbd8f3dba	-0.06994195
240	0xbcf03a0b	-0.029324552
241	0xbccd10d5	-0.02503244
242	0x3d55e717	0.052222338
243	0x3d851d98	0.06499785
244	0x3cf80304	0.030274875
245	0x3d84c957	0.06483715
246	0xbd6a9af0	-0.057276666
247	0xbd384a05	-0.044992466
248	0xbcbbe404	-0.022935875
249	0x3c8ddd17	0.017317338
250	0x3d26e694	0.04074724
251	0xbd2f7329	-0.042834435
252	0xba9afafb	-0.0011824066
253	0xbcb49841	-0.022045257
254	0x3daafa1f	0.08348488
255	0x3db4014a	0.08789308

net.4.bias f4 [2]
0	0xbb424cc6	-0.0029647811
1	0xbddb43fb	-0.107063256
