data/checkpoints/dqn_episode_100.pth (torch, 72408 bytes, 6 tensors)

net.0.weight f4 [128, 4]
-0.39247158 0.053626858 -0.48494694 -0.4836329 -0.031059492 0.4932043 0.0032867908 0.39471194
-0.20250559 -0.02210274 0.043762665 0.48123384 -0.116314314 -0.14979298 -0.10734045 0.291638
0.068045214 -0.4392636 0.44820297 -0.5039549 0.22282256 -0.2207267 0.3560821 -0.011655623
0.49988955 0.3844475 0.33716488 0.09645113 -0.28041917 -0.34185633 0.4770871 0.3537755
-0.11063151 -0.43734995 0.26261917 -0.4400682 -0.3192847 0.17086835 0.38244635 -0.32669827
0.19315661 -0.36166635 -0.029018825 0.25698775 -0.06717632 -0.44590852 -0.32477143 0.09885816
-0.010918288 -0.3440243 0.16790126 0.06983243 0.35199863 -0.281265 0.07763321 0.13114697
-0.23476695 -0.2087792 0.12351571 -0.044843428 0.15667671 -0.304156 -0.023955854 -0.49508664
0.046304643 -0.25579476 0.20089765 0.33818078 0.21601462 -0.08349509 -0.4843738 -0.22802423
0.40475088 -0.006502238 0.49106205 -0.1291401 -0.2732665 -0.3717674 -0.4592503 -0.27291626
-0.29982883 0.040252503 0.043275665 -0.32540047 -0.4072712 -0.3850232 0.31090522 0.42865857
0.29723865 0.121252686 -0.23693451 0.073964134 -0.1415909 0.30981028 -0.37747073 -0.33518383
0.37793013 0.47902283 -0.23094872 -0.3898545 0.28182614 -0.23911513 -0.03161926 -0.3387647
-0.41372994 -0.35401148 0.41710216 0.029250953 0.19753365 0.36915174 -0.25702757 0.101418056
-0.04429743 -0.37143674 -0.053756867 -0.2002463 -0.15395512 0.47884256 0.46778613 0.40375388
0.27705294 -0.46616393 -0.15464447 -0.29426196 -0.14129905 0.3890697 -0.1743016 -0.4940642
-0.0015749553 -0.012197674 -0.10331608 -0.40068376 -0.034430776 0.1970513 -0.31082174 0.3305814
-0.27643457 0.25739214 0.07973738 -0.46764633 0.40749422 -0.27619064 0.25263658 0.13452359
-0.10812474 -0.50106984 -0.04452791 0.16784179 -0.16950668 0.010031496 0.038934566 -0.10198966
0.19661087 0.3239898 -0.32188678 0.119774155 -0.2693839 0.0392109 -0.36685592 0.109593324
0.1541652 0.28381136 0.33454832 0.44148615 -0.40926325 -0.2364238 0.38625664 0.4535399
-0.11736885 0.015621976 0.0939225 0.19075355 -0.14102617 -0.25521123 -0.11924441 -0.3916476
-0.40512607 -0.41234514 -0.027127758 0.30691907 0.17842282 0.19998923 -0.21018177 -0.009932727
-0.1641077 -0.050091844 -0.30359167 -0.05939251 0.12005641 0.462073 0.29893714 -0.30295607
0.29632583 -0.39409474 -0.46626052 0.48281473 -0.2806291 -0.37210974 -0.39711726 -0.08764975
-0.08501202 0.06984082 -0.035351124 0.34929916 0.45737833 0.33322713 0.11658601 -0.28066108
-0.41931632 0.44289687 0.26110572 0.2270393 -0.06439042 -0.32851705 -0.11692613 0.48886165
0.13761985 -0.04167496 0.010308138 0.07301733 -0.16609563 -0.056055613 0.29312232 -0.010097208
-0.45709032 -0.09569773 0.09114988 -0.3447153 0.26997408 -0.50875396 0.3301975 0.13721476
-0.29338822 -0.4313897 -0.11536089 0.23011757 -0.063035406 0.15149198 -0.062825195 -0.29156965
-0.04760044 -0.27331293 -0.17581837 0.08286565 0.18755779 -0.3436159 -0.43594462 0.16759776
0.37894964 -0.4493877 0.40185642 -0.16801289 -0.23200549 -0.1417671 0.14461923 0.09976276
00000000: 09f2 c8be d6a7 5b3d f74a f8be bb9e f7be
00000010: 7a70 febc 4685 fc3e 3367 573b af17 ca3e
00000020: a05d 4fbe ce10 b5bc 7b40 333d 4864 f63e
00000030: 3336 eebd 5563 19be 4fd5 dbbd 9351 953e
00000040: 4a5b 8b3d 29e7 e0be dc7a e53e 3003 01bf
00000050: 992b 643e 2e06 62be 6550 b63e 3af7 3ebc
00000060: 86f1 ff3e 4dd6 c43e e0a0 ac3e 2c88 c53d
00000070: 1a93 8fbe cb07 afbe c344 f43e 1022 b53e
00000080: c692 e2bd 55ec dfbe 0576 863e 9e50 e1be
00000090: 4979 a3be 1df8 2e3e 02d0 c33e ff44 a7be
000000a0: d9ca 453e 552c b9be e3b8 edbc e693 833e
000000b0: bd93 89bd 1f4e e4be 7148 a6be 2676 ca3d
000000c0: 9ee2 32bc f423 b0be 4fee 2b3e 4e04 8f3d
000000d0: 2a39 b43e f701 90be 29fe 9e3d 644b 063e
000000e0: bf66 70be 37ca 55be cef5 fc3d bead 37bd
000000f0: dc6f 203e 56ba 9bbe 113f c4bc ff7b fdbe
00000100: f0a9 3d3d 88f7 82be 1db8 4d3e 0826 ad3e
00000110: f032 5d3e 79ff aabd d8ff f7be 2f7f 69be
00000120: 823b cf3e ba10 d5bb 7c6c fb3e 4d3d 04be
00000130: 96e9 8bbe 4c58 bebe db22 ebbe aebb 8bbe
00000140: 2a83 99be cfdf 243d d341 313d e49a a6be
00000150: da85 d0be c321 c5be f82e 9f3e 2379 db3e
00000160: aa2f 983e 5453 f83d f69e 72be 827a 973d
00000170: 34fd 10be 749f 9e3e d843 c1be 379d abbe
00000180: 0f80 c13e 7b42 f53e d27d 6cbe 029b c7be
00000190: 844b 903e 99da 74be 3283 01bd 9172 adbe
000001a0: 69d4 d3be fe40 b5be 6a8e d53e b29f ef3c
000001b0: 4346 4a3e 7501 bd3e 1e99 83be 45b4 cf3d
000001c0: 3971 35bd f52c bebe 2930 5cbd 5e0d 4dbe
000001d0: 69a6 1dbe da2a f53e aa81 ef3e d4b8 ce3e
000001e0: e2d9 8d3e 0aad eebe 1f5b 1ebe 81a9 96be
000001f0: b3b0 10be 2534 c73e 1e7c 32be fcf5 fcbe
00000200: bb6e ceba c1d8 47bc 6297 d3bd 6c26 cdbe
00000210: 4907 0dbd d1c7 493e 0724 9fbe f741 a93e
00000220: d588 8dbe e7c8 833e 5a4d a33d 576f efbe
00000230: 15a3 d03e dc68 8dbe 9559 813e 8dc0 093e
00000240: 8170 ddbd 1d46 00bf e662 36bd b8de 2b3e
00000250: 2993 2dbe 255b 243c da79 1f3d f4df d0bd
00000260: 5c54 493e fee1 a53e 58ce a4be 274c f53d
00000270: b0ec 89be 9c9b 203d 8ad4 bbbe 7772 e03d
00000280: 7bdd 1d3e b94f 913e eb49 ab3e 790a e23e
00000290: f48a d1be 1519 72be 6ec3 c53e 6236 e83e
000002a0: 145f f0bd 51f3 7f3c 715a c03d e654 433e
000002b0: 2a69 10be 0cab 82be 6a36 f4bd 0986 c8be
000002c0: af6c cfbe e71e d3be 083b debc 7f24 9d3e
000002d0: 79b4 363e fac9 4c3e e439 57be e0bc 22bc
000002e0: d90b 28be 1b2d 4dbd 5e70 9bbe 9045 73bd
000002f0: 23e0 f53d d594 ec3e 4a0e 993e 0f1d 9bbe
00000300: 05b8 973e c9c6 c9be b3b9 eebe 7e33 f73e
00000310: 9eae 8fbe 2b85 bebe f452 cbbe b681 b3bd
00000320: c81a aebd b408 8f3d 57cc 10bd 57d7 b23e
00000330: 7e2d ea3e bf9c aa3e a5c4 ee3d cfb2 8fbe
00000340: a1b0 d6be 61c3 e23e a6af 853e fe7c 683e
00000350: 20df 83bd 6333 a8be f876 efbd 134c fa3e
00000360: 38ec 0c3e 5db3 2abd 77e3 283c 1c8a 953d
00000370: f914 2abe 929a 65bd 2114 963e c36e 25bc
00000380: be07 eabe 2cfd c3bd caac ba3d 867e b0be
00000390: 0b3a 8a3e b33d 02bf a60f a93e 0782 0c3e
000003a0: fb36 96be 1cdf dcbe 5542 ecbd f1a3 6b3e
000003b0: b518 81bd b720 1b3e 7faa 80bd 9e48 95be
000003c0: aef8 42bd acef 8bbe bb09 34be 77b5 a93d
000003d0: 260f 403e 6cee afbe 2234 dfbe bf9e 2b3e
000003e0: b005 c23e 2516 e6be 20c0 cd3e 920b 2cbe
000003f0: d992 6dbe 652b 11be 1017 143e 6b50 cc3d

net.0.bias f4 [128]
0.40866494 0.2699298 0.39206192 -0.15636054 -0.45869425 0.07187215 -0.009728689 -0.17152038
-0.43646592 0.31994805 0.34431994 -0.48651576 -0.4989932 0.085851446 0.036940474 -0.025118303
0.23421705 -0.05657374 -0.21980377 0.11703072 -0.273201 -0.038103085 -0.10970322 -0.28487676
-0.015944395 -0.4070082 -0.12237384 -0.20384078 0.19389607 -0.2609066 -0.09440123 -0.0335387
0.34806386 -0.3160381 0.19479081 -0.48432302 0.118456304 0.021260833 0.13203305 0.21641435
-0.01904352 0.33028778 0.22532909 -0.320774 0.12562075 -0.29923183 0.30116364 -0.12387256
-0.47522393 0.281442 -0.37451056 -0.46814314 0.5185346 -0.0610798 0.18891944 0.38969305
0.1426484 0.3390819 -0.31213745 -0.13169514 0.15541732 0.010293519 0.041105144 0.49363986
0.40200162 0.012730282 -0.31373385 -0.20871852 -0.12863947 0.43555614 0.18679415 -0.0744057
-0.021657417 0.4776627 -0.04784134 -0.22223252 -0.052974146 0.21942045 -0.052550204 0.0334393
-0.058753677 -0.3314344 0.36601564 0.49511677 0.39774647 0.4486645 0.07756518 0.18123253
0.23672622 0.1050645 0.3387849 -0.39627123 -0.49265638 -0.48135057 -0.3694344 -0.26369858
0.22984508 -0.035757635 -0.22330633 0.07977686 0.10426269 -0.42351428 -0.08833456 -0.40614647
0.32148185 0.30375314 -0.4908152 0.13014281 -0.17655115 -0.15468945 0.019853912 -0.05521787
0.22178112 -0.38260558 -0.42107096 -0.17429785 0.037451364 -0.39778045 0.12802868 -0.14229257
0.17911886 -0.04379035 0.48464686 -0.2570727 -0.27629477 -0.41861612 -0.4443264 0.252103
00000000: 883c d13e 3d34 8a3e 57bc c83e fa1c 20be
00000010: f9d9 eabe b531 933d 1465 1fbc 0aa3 2fbe
00000020: 7678 dfbe 3bd0 a33e b44a b03e 9818 f9be
00000030: 097c ffbe e2d2 af3d e54e 173d e6c4 cdbc
00000040: 98d6 6f3e deb9 67bd 3d14 61be cdad ef3d
00000050: 00e1 8bbe fb11 1cbd 15ac e0bd 5edb 91be
00000060: d29d 82bc 6163 d0be 239f fabd a3bb 50be
00000070: b18c 463e 8d95 85be 6f55 c1bd e05f 09bd
00000080: 6d35 b23e bfcf a1be 3e77 473e 30f9 f7be
00000090: 3899 f23d 332b ae3c ac33 073e b99b 5d3e
000000a0: 2801 9cbc 7b1b a93e abbc 663e 7d3c a4be
000000b0: baa2 003e ea34 99be 1f32 9a3e e6b0 fdbd
000000c0: 8d50 f3be 2a19 903e d9bf bfbe 75b0 efbe
000000d0: afbe 043f d02e 7abd 1974 413e d985 c73e
000000e0: 6c12 123e 259c ad3e 7bd0 9fbe 17db 06be
000000f0: b825 1f3e 26a6 283c de5d 283d 5dbe fc3e
00000100: 28d3 cd3e ac92 503c b9a1 a0be 4fba 55be
00000110: 11ba 03be 3701 df3e f746 3f3e 0462 98bd
00000120: e56a b1bc 3590 f43e 48f5 43bd ec90 63be
00000130: 6bfb 58bd c1af 603e e23e 57bd a6f7 083d
00000140: b2a7 70bd c5b1 a9be 6766 bb3e f27f fd3e
00000150: 6da5 cb3e 5ab7 e53e 7eda 9e3d 0595 393e
00000160: 5c68 723e 0e2c d73d 3775 ad3e 10e4 cabe
00000170: 753d fcbe 9573 f6be 8126 bdbe 8003 87be
00000180: 825c 6b3e 9976 12bd 6aaa 64be 0d62 a33d
00000190: ad87 d53d ddd6 d8be c0e8 b4bd 6ef2 cfbe
000001a0: 4599 a43e 8885 9b3e 214c fbbe 2844 053e
000001b0: d3c9 34be e966 1ebe aca4 a23c 222c 62bd
000001c0: 971a 633e e1e4 c3be 9d96 d7be 237b 32be
000001d0: 9a66 193d e1a9 cbbe f319 033e 25b5 11be
000001e0: ef6a 373e 835d 33bd a223 f83e 089f 83be
000001f0: 8276 8dbe da54 d6be c07e e3be a513 813e

net.2.weight f4 [128, 128]
0.016250012 0.08511341 0.05773117 0.08089076 -0.017821701 0.041559566 0.008706401 0.015541279
0.036856003 0.092461035 -0.023009675 0.07369683 -0.0690293 0.04231278 0.049148686 0.07168001
-0.0023017963 0.044695906 0.037654217 -0.029973006 0.03304023 0.084087715 -0.011738624 -0.07391882
0.006038766 -0.039719045 -0.033020314 -0.0294075 -0.09023136 0.08647789 -0.038316097 -0.04241136
0.03353365 0.017511776 0.056506246 0.06369394 0.071743555 -0.0051671676 0.050509132 0.027993288
0.089012265 -0.012752692 -0.032088492 0.043030486 -0.081795484 0.050985105 -0.06669033 -0.07615674
-0.025910987 0.062387235 -0.056953292 -0.022562703 0.076024674 0.06349952 -0.08221366 -0.05573219
0.03372512 0.022734879 -0.053485688 -0.044070113 0.063883364 0.099982716 0.0703247 -0.008499254
-0.07457593 0.015138115 0.021649556 0.04831243 0.074843146 0.055884145 -0.010906235 0.022979124
0.005497068 0.033828255 -0.047627445 0.07700613 0.023013903 -0.081579395 0.06294081 -0.038032662
-0.024498027 0.035181683 -0.006144357 0.057524256 0.08043818 -0.070108354 -0.0002630942 0.044741787
0.05791006 0.032681447 -0.007830614 -0.036391333 0.06602644 0.06742435 -0.080228746 0.057492126
-0.009116227 0.0008679848 0.06104942 -0.06109167 -0.020505 -0.06205879 0.04952682 0.08429952
-0.029149497 -0.0034923092 -0.060735773 0.06722816 0.08277672 0.07949919 0.08806602 -0.059883557
-0.0030259779 0.04274282 -0.012259101 0.08615706 -0.06642136 0.047753435 0.05493175 0.06728108
0.07393125 0.0400278 -0.0073572802 -0.07048192 -0.07071248 -0.07640955 0.028585048 0.05852157
-0.04429768 0.04844405 0.07955542 0.005365603 0.046810586 0.009175755 -0.06566326 0.06725329
-0.020781469 0.024413122 0.0808946 0.07857794 0.023822604 0.07576974 -0.06767333 0.014796888
0.081668824 0.036048647 0.0340156 -0.05455165 0.08354883 0.046659 -0.040007215 -0.030114876
0.07190232 -0.071605556 -0.009779977 -0.09079666 0.029377095 0.0019728364 -0.04030463 0.029641274
0.028965931 0.010113951 -0.078942075 -0.039580986 -0.08786452 -0.04327353 -0.08769451 -0.03238783
-0.05341633 0.017844891 -0.04131462 -0.07155231 0.026932996 -0.032866213 -0.038966767 0.02107776
-0.03163599 0.026487004 0.044906557 0.059224017 0.06227624 -0.0035143076 0.038175136 0.027636759
0.003288789 -0.04230931 -0.06759548 0.06709693 -0.04668171 -0.074777365 0.065994374 -0.063250355
0.07669402 -0.019612014 0.07116992 -0.06503324 0.07843605 0.01851908 -0.072127186 0.07665179
-0.028576402 0.038435552 -0.0100864265 -0.036411293 0.013626703 -0.04872459 -0.0030121433 0.034886014
0.038479537 -0.05262541 -0.06112769 0.0021533403 0.017614277 0.055090617 -0.028188538 0.025322516
0.033742536 -0.061985124 -0.0025474592 0.051410004 -0.083489895 0.040179417 0.061525777 0.0119933095
-0.08407479 -0.07622457 0.021848215 0.07713756 -0.06302236 0.0632453 0.06879463 -0.012101397
0.06864942 0.05570468 0.021633072 -0.06278214 -0.045246243 0.08782847 -0.011405249 -0.015348354
-0.067535944 -0.0052122655 -0.038041502 -0.038650054 0.03493032 -0.0020001493 0.0507901 0.028932478
-0.047859598 0.004515387 -0.079136185 0.011756655 0.07913427 0.0313113 0.05146016 0.066878825
00000000: bf1e 853c f14f ae3d 8577 6c3d 0eaa a53d
00000010: d1fe 91bc 5d3a 2a3d 4ba5 0e3c d9a0 7e3c
00000020: 52f6 163d 365c bd3d c97e bcbc 5dee 963d
00000030: 3c5f 8dbd 2a50 2d3d 2250 493d f8cc 923d
00000040: bcd9 16bb 0e13 373d 4f3b 1a3d f389 f5bc
00000050: 3155 073d 2e36 ac3d 5c53 40bc c062 97bd
00000060: d7e0 c53b 70b0 22bd 4f40 07bd ffe7 f0bc
00000070: 38cb b8bd 521b b13d 57f1 1cbd 89b7 2dbd
00000080: 955a 093d db74 8f3c 1873 673d f871 823d
00000090: 49ee 923d 5851 a9bb aae2 4e3d 2e52 e53c
000000a0: 104c b63d abf0 50bc 396f 03bd bc40 303d
000000b0: 6484 a7bd c2d5 503d f194 88bd 11f8 9bbd
000000c0: 4743 d4bc c289 7f3d db47 69bd 6bd5 b8bc
000000d0: d3b2 9b3d 090c 823d a35f a8bd 7047 64bd
000000e0: 5a23 0a3d 7f3e ba3c cf13 5bbd dd82 34bd
000000f0: 48d5 823d bdc3 cc3d 6506 903d 7440 0bbc
00000100: 44bb 98bd db05 783c 695a b13c 41e3 453d
00000110: 5d47 993d c6e6 643d 11b0 32bc b73e bc3c
00000120: c020 b43b 7f8f 0a3d ff14 43bd 64b5 9d3d
00000130: a787 bc3c 1913 a7bd 1de7 803d 23c8 1bbd
00000140: 16b0 c8bc ab1a 103d 9a56 c9bb 8e9e 6b3d
00000150: c6bc a43d f894 8fbd e8ef 89b9 2a43 373d
00000160: 1933 6d3d fbdc 053d fa4b 00bc 140f 15bd
00000170: df38 873d c715 8a3d f84e a4bd dd7c 6b3d
00000180: 3a5c 15bc 7989 633a f50e 7a3d 423b 7abd
00000190: 1afa a7bc 5c31 7ebd a3dc 4a3d 3aa5 ac3d
000001a0: edca eebc 3adf 64bb 13c6 78bd ebae 893d
000001b0: d786 a93d 79d0 a23d f55b b43d 7648 75bd
000001c0: 7c4f 46bb 1813 2f3d 65da 48bc 1d73 b03d
000001d0: ec07 88bd 1b99 433d 1d00 613d aaca 893d
000001e0: 4469 973d 31f4 233d 5715 f1bb d358 90bd
000001f0: b4d1 90bd 9c7c 9cbd 312b ea3c 50b4 6f3d
00000200: 7c71 35bd 456d 463d f4ed a23d f1d1 af3b
00000210: 75bc 3f3d e855 163c 767a 86bd 18bc 893d
00000220: e63d aabc 07fe c73c 11ac a53d 79ed a03d
00000230: 9f27 c33c 2a2d 9b3d 5198 8abd a66e 723c
00000240: fc41 a73d bfa7 133d f153 0b3d 8d71 5fbd
00000250: a61b ab3d 821d 3f3d 9bde 23bd 79b3 f6bc
00000260: 8641 933d efa5 92bd 323c 20bc 99f3 b9bd
00000270: 3ca8 f03c b44a 013b 7816 25bd 42d2 f23c
00000280: f649 ed3c fcb4 253c 62ac a1bd ac1f 22bd
00000290: 50f2 b3bd 963f 31bd 2e99 b3bd 1aa9 04bd
000002a0: 15cb 5abd 732f 923c 8539 29bd 048a 92bd
000002b0: 96a2 dc3c b99e 06bd 9e9b 1fbd 44ab ac3c
000002c0: bd94 01bd 46fb d83c f0ef 373d e294 723d
000002d0: 5f15 7f3d 4c50 66bb 885d 1c3d 7c66 e23c
000002e0: b988 573b 874c 2dbd 806f 8abd 1e6a 893d
000002f0: 5235 3fbd e024 99bd 0f28 873d 6789 81bd
00000300: c111 9d3d 60a9 a0bc 89c1 913d 2630 85bd
00000310: 14a3 a03d 53b5 973c 6bb7 93bd 9dfb 9c3d
00000320: 0f19 eabc 996e 1d3d 8a41 25bc 0224 15bd
00000330: 8942 5f3c 7093 47bd 6167 45bb a3e4 0e3d
00000340: b89c 1d3d be8d 57bd 0761 7abd 0e1f 0d3b
00000350: d14b 903c b3a6 613d a6eb e6bc 2a71 cf3c
00000360: 9d35 0a3d 1de4 7dbd 46f3 26bb 4c93 523d
00000370: c0fc aabd 2c93 243d 7402 7c3d 967f 443c
00000380: 672f acbd a11b 9cbd 07fb b23c 4cfa 9d3d
00000390: de11 81bd c086 813d 33e4 8c3d f044 46bc
000003a0: 1198 8c3d 972a 643d d737 b13c ec93 80bd
000003b0: 2054 39bd 6adf b33d 15dd 3abc aa77 7bbc
000003c0: 4950 8abd a7cb aabb 68d1 1bbd 854f 1ebd
000003d0: 1813 0f3d f014 03bb 4809 503d ce03 ed3c
000003e0: 6d08 44bd d0f5 933b 2712 a2bd fc9e 403c
000003f0: 2611 a23d 4740 003d e4c7 523d c4f7 883d

net.2.bias f4 [128]
0.061842367 0.035265256 -0.0034572808 0.061163366 -0.032577563 0.02801325 -0.043658067 -0.00027850262
0.060493466 0.014451257 -0.047842022 -0.043734446 0.00019108233 -0.042244267 -0.08935991 0.011329753
0.08776606 -0.037650056 -0.055474382 0.023600351 0.037863776 -0.041268 -0.043501947 -0.059551213
0.06744847 0.015937531 -0.018637186 -0.06834454 -0.053973872 -0.031535797 0.062005688 0.09367765
0.005787149 0.09181659 0.0077449484 0.025632277 -0.0669661 0.0008925404 -0.027869813 0.072822586
-0.057102595 0.030784793 -0.044649005 -0.071502924 -0.00658667 0.08755489 0.08608804 0.021443184
0.034855407 0.0057880026 -0.039661814 -0.060529817 -0.02052035 -0.099701285 0.083843865 0.00025300652
-0.059928037 0.021730201 -0.08524681 0.06313376 0.025930524 -0.06443214 0.030741595 0.037678298
-0.0949123 0.034267075 -0.02603213 0.06847761 0.03708839 0.05686339 0.028239511 0.04624259
-0.046237104 -0.09759148 0.061228357 -0.048068106 -0.014247358 -0.06709582 -0.015286744 0.0291999
0.0021781141 0.0151484 -0.005510575 -0.025642008 -0.010094496 -0.023658799 0.055410083 -0.025700195
0.054500103 0.09265137 -0.05269255 -0.0778055 -0.016555466 -0.07841653 0.085222945 0.06058416
0.06966414 0.012341046 -0.0056407223 0.000108085595 -0.05738217 0.06106081 0.045896046 -0.010059736
-0.045515038 -0.02820945 -0.06413823 0.04193045 0.011378801 0.01093751 -0.046324804 0.016048128
0.06838932 -0.006747229 -0.044423632 0.0387565 -0.01909925 -0.04069706 0.010302844 0.06235773
0.052268516 -0.009787182 -0.022890575 -0.06553421 0.049571376 0.020679398 0.010297913 0.055913065
00000000: 6c4e 7d3d 4d72 103d 8c93 62bb 7086 7a3d
00000010: 0d70 05bd 0b7c e53c cdd2 32bd fd03 92b9
00000020: ffc7 773d f7c4 6c3c fff5 43bd e422 33bd
00000030: 465d 4839 5308 2dbd 5402 b7bd 6ea0 393c
00000040: b1be b33d f236 1abd 1b39 63bd 8655 c13c
00000050: 0c17 1b3d a208 29bd 192f 32bd f9eb 73bd
00000060: 6c22 8a3d 6d8f 823c 03ad 98bc 39f8 8bbd
00000070: b513 5dbd ae2b 01bd adf9 7d3d 11da bf3d
00000080: 20a2 bd3b 560a bc3d 56c9 fd3b c8fa d13c
00000090: 8625 89bd 5ff9 693a 3c4f e4bc 0224 953d
000000a0: 69e4 69bd 6430 fc3c e0e1 36bd 2070 92bd
000000b0: fed4 d7bb fa4f b33d ed4e b03d 9ea9 af3c
000000c0: 8bc4 0e3d 49a9 bd3b 6d74 22bd 1dee 77bd
000000d0: 4b1a a8bc 3030 ccbd 55b6 ab3d f6a5 8439
000000e0: 1a77 75bd 8903 b23c e195 aebd 464c 813d
000000f0: 406c d43c fff4 83bd ccd5 fb3c 8f54 1a3d
00000100: 6161 c2bd a25b 0c3d 5541 d5bc fd3d 8c3d
00000110: ffe9 173d 96e9 683d 8c56 e73c df68 3d3d
00000120: 1e63 3dbd 0bde c7bd 96ca 7a3d 10e3 44bd
00000130: c06d 69bc 8969 89bd 4075 7abc a134 ef3c
00000140: b1be 0e3b ff30 783c 0e92 b4bb 300f d2bc
00000150: 6363 25bc 19d0 c1bc aff5 623d 3789 d2bc
00000160: 803b 5f3d 00c0 bd3d 25d4 57bd 7d58 9fbd
00000170: 549f 87bc d898 a0bd 5e89 ae3d 1927 783d
00000180: 13ac 8e3d 1932 4a3c cfd5 b8bb 03ac e238
00000190: 9109 6bbd e61a 7a3d 7efd 3b3d 97d1 24bc
000001a0: fa6d 3abd 8117 e7bc e85a 83bd 43bf 2b3d
000001b0: 276e 3a3c 3e33 333c 14bf 3dbd 5d77 833c
000001c0: b30f 8c3d dc17 ddbb 8ef5 35bd 23bf 1e3d
000001d0: 0876 9cbc f6b1 26bd 43cd 283c d26a 7f3d
000001e0: 8317 563d 6b5a 20bc 0485 bbbc cd36 86bd
000001f0: 5b0b 4b3d d767 a93c 94b8 283c 1905 653d

net.4.weight f4 [2, 128]
0.026185263 -0.035126645 -0.056512237 -0.08592313 -0.083581924 -0.08480175 0.033294126 0.04651061
0.042861648 0.05044874 0.021930698 0.00042668663 0.09024065 -0.06534797 0.013942602 -0.069370545
0.024875388 -0.047056884 0.0062192925 0.027589235 -0.04746024 -0.018995635 -0.052675787 0.015925119
-0.02569478 -0.021194855 0.007510049 -0.020875754 0.024905212 -0.07472719 -0.050051417 -0.05912873
0.078950115 0.021312533 0.030231321 -0.028306285 0.06672903 0.02230233 0.035206344 0.058035206
0.06909639 -0.05181456 0.0138868345 0.052077133 -0.036198534 -0.060539406 0.009599354 0.01381178
0.047726743 0.03483626 -0.03211129 -0.06427968 -0.041003738 0.05322357 0.0064650658 0.026671646
0.045067288 0.06331304 -0.044789556 -0.05353395 0.08740904 -0.06272575 0.083573334 0.008105045
0.051528614 0.07335901 -0.08428469 -0.0654109 -0.04307025 -0.012727195 -0.09791683 0.08929056
-0.047924407 0.076862216 -0.04494371 0.045529816 -0.080241226 -0.054648798 -0.07916683 0.084743634
-0.083118975 0.077056356 0.0049089906 -0.02135531 -0.072312735 0.016807377 0.06796447 -0.076000385
-0.016658798 -0.035019312 -0.021820901 0.07716807 0.019653758 0.053502154 0.05553422 -0.054091673
-0.0040798285 -0.012443797 -0.10926431 -0.025227182 -0.06279239 -0.0028296944 0.05794319 -0.052014697
0.022546064 -0.0045901826 0.0042822734 -0.05807027 -0.01703368 0.06613967 -0.028682604 0.07924778
-0.05554128 0.048505552 -0.058037583 -0.07905597 0.037537795 0.086124346 0.04793581 -0.055841204
-0.06074483 -0.029860027 0.005257061 -0.038713533 -0.08030109 0.06542651 0.053500842 0.014690613
-0.061280422 0.045802537 -0.0112051 -0.020270865 0.025575137 0.049775537 0.027117934 0.07043863
0.061821632 0.009476657 -0.035550475 0.023245303 0.01440411 -0.06228713 0.023476735 -0.011284472
-0.033153333 0.07766729 -0.06258713 0.047265887 -0.00211155 -0.09264262 -0.050259724 0.051046915
-0.043393195 0.074661694 -0.054248247 -0.0390556 -0.077751756 0.0073005017 -0.06212867 -0.045397826
0.0037917166 -0.040717375 -0.052152455 -0.011094454 0.0074348273 -0.005637904 0.012901587 -0.03467037
-0.0641949 -0.056783646 -0.08843659 -0.059955124 -0.05071609 0.062557206 -0.046231948 -0.09041257
-0.06768505 -0.081568815 -0.009827417 -0.07391261 -0.04314372 0.081999585 -0.017713252 0.06522733
0.05159519 0.05310222 0.082592025 -0.040412087 0.07881687 -0.012262483 0.02058993 -0.05900055
0.037685238 0.022068722 0.0825254 0.0627467 -0.053295538 0.029946167 -0.031356677 -0.07179834
-0.07717253 0.075366944 -0.03447056 0.044659775 -0.0453862 -0.038952604 0.08180775 0.016790371
-0.0620286 0.07145804 -0.051094968 0.07043883 -0.040550746 0.00658533 -0.060844183 0.015511837
0.03757836 -0.04741992 0.06075507 0.079949126 0.055284165 -0.060382966 -0.024137931 -0.039734833
0.011177528 0.060861945 0.01759704 -0.07714402 0.05918256 -0.071154326 -0.07334019 -0.03339552
-0.048089392 -0.04935299 0.0004008083 0.026279947 -0.064549595 0.07931041 0.008791701 -0.07127953
-0.031603787 -0.023909545 0.05419095 0.065105736 0.03520571 0.06615816 -0.0587837 -0.047482852
-0.028197436 0.016563552 0.043486316 -0.04520095 -0.002161816 -0.01868897 0.084756896 0.0889288
00000000: 7a82 d63c f5e0 0fbd 6079 67bd 77f8 afbd
00000010: 002d abbd 8aac adbd 6c5f 083d e981 3e3d
00000020: b28f 2f3d 57a3 4e3d 02a8 b33c e9b4 df39
00000030: 17d0 b83d 28d5 85bd 836f 643c 2512 8ebd
00000040: 78c7 cb3c b8be 40bd 35cb cb3b d202 e23c
00000050: ab65 42bd bc9c 9bbc 91c2 57bd 6575 823c
00000060: dc7d d2bc d5a0 adbc db16 f63b a103 abbc
00000070: 0406 cc3c 920a 99bd b702 4dbd f830 72bd
00000080: 99b0 a13d 9f97 ae3c ada7 f73c 95e2 e7bc
00000090: 3ba9 883d 60b3 b63c 8734 103d 53b6 6d3d
000000a0: 6882 8d3d 813b 54bd 9b85 633c d54e 553d
000000b0: ea44 14bd 2bf8 77bd 9c46 1d3c ce4a 623c
000000c0: 1e7d 433d 77b0 0e3d 2187 03bd 11a5 83bd
000000d0: 89f3 27bd f500 5a3d e7d8 d33b 7f7e da3c
000000e0: 7a98 383d 44aa 813d 4175 37bd 6a46 5bbd
000000f0: 8303 b33d 5c76 80bd 7f28 ab3d 06cb 043c
00000100: ab0f 533d 403d 963d 749d acbd 26f6 85bd
00000110: 6e6a 30bd ba85 50bc 9e88 c8bd f8dd b63d
00000120: 624c 44bd f069 9d3d e516 38bd 797d 3a3d
00000130: 8355 a4bd 6bd7 5fbd 3822 a2bd 128e ad3d
00000140: 483a aabd b9cf 9d3d 99db a03b 55f1 aebc
00000150: b318 94bd a0af 893c f530 8b3d 17a6 9bbd
00000160: 0878 88bc 6970 0fbd bfc1 b2bc 4b0a 9e3d
00000170: eb00 a13c 1325 5b3d da77 633d 3b8f 5dbd
00000180: 15b0 85bb 11e1 4bbc f7c5 dfbd 3ca9 cebc
00000190: 4c99 80bd 6572 39bb d755 6d3d 5d0d 55bd
000001a0: 86b2 b83c 3e69 96bb 5052 8c3b 17db 6dbd
000001b0: 378a 8bbc 3c74 873d c8f7 eabc a94c a23d
000001c0: 417f 63bd c2ad 463d d1b8 6dbd 19e8 a1bd
000001d0: 3bc1 193d f661 b03d 5758 443d bfb9 64bd
000001e0: 92cf 78bd 049d f4bc 6d43 ac3b 1592 1ebd
000001f0: e674 a4bd 56fe 853d b323 5b3d e6b0 703c
00000200: 2e01 7bbd 719b 3b3d 9995 37bc 160f a6bc
00000210: f382 d13c 6fe1 4b3d 6e26 de3c 2142 903d
00000220: ae38 7d3d fb43 1b3c 609d 11bd ef6c be3c
00000230: 37ff 6b3c ca20 7fbd 4852 c03c 82e2 38bc
00000240: cacb 07bd 0710 9f3d ae2d 80bd e099 413d
00000250: ee61 0abb 6abb bdbd 24dd 4dbd 9216 513d
00000260: 10bd 31bd 3be8 983d 6933 5ebd c4f8 1fbd
00000270: 503c 9fbd 0c39 ef3b a27a 7ebd 12f3 39bd
00000280: 737e 783b 43c7 26bd d09d 55bd 83c5 35bc
00000290: da9f f33b 2bbe b8bb 2e61 533c 8502 0ebd
000002a0: 9e78 83bd f895 68bd 3e1e b5bd 8193 75bd
000002b0: adbb 4fbd fe1d 803d b65d 3dbd 3a2a b9bd
000002c0: 769e 8abd 8d0d a7bd 2d03 21bc 7f5f 97bd
000002d0: 78b7 30bd 66ef a73d 621b 91bc e895 853d
000002e0: 7a55 533d b781 593d 0226 a93d 2587 25bd
000002f0: bd6a a13d 95e8 48bc 36ac a83c 90aa 71bd
00000300: d65b 1a3d 77c9 b43c 1403 a93d 5881 803d
00000310: 6c4c 5abd aa51 f53c dc6f 00bd 020b 93bd
00000320: a20c 9ebd fc59 9a3d 0031 0dbd 2bed 363d
00000330: e1e6 39bd c48c 1fbd d28a a73d f68b 893c
00000340: b411 7ebd 9858 923d f548 51bd 3c42 903d
00000350: 8a18 26bd c0c9 d73b c037 79bd 5c25 7e3c
00000360: c4eb 193d 643b 42bd 4fda 783d 5ebc a33d
00000370: a671 623d 2154 77bd e9bc c5bc fec0 22bd
00000380: f321 373c 604a 793d ab27 903c affd 9dbd
00000390: 6969 723d 5cb9 91bd 6233 96bd bec9 08bd
000003a0: 62f9 44bd 5c26 4abd 9423 d239 0b49 d73c
000003b0: 9432 84bd 7f6d a23d 110b 103c 01fb 91bd
000003c0: f972 01bd f3dd c3bc 54f7 5d3d 2856 853d
000003d0: dd33 103d ee7d 873d 2dc7 70bd 617d 42bd
000003e0: 4ffe e6bc 49b0 873c b51e 323d a224 39bd
000003f0: 41ad 0dbb 9c19 99bc 0695 ad3d 4d20 b63d

net.4.bias f4 [2]
0.016922303 -0.08827109
00000000: a4a0 8a3c 79c7 b4bd
