data/checkpoints/dqn_episode_50.pth (torch, 72398 bytes, 6 tensors)

net.0.weight f4 [128, 4]
000000 f0 19 ca be e4 18 55 3d f2 04 f9 be 05 5c f8 be
       -0.39472914 0.05202569 -0.48636585 -0.48507705
000010 6a 7f fa bc f1 86 fb 3e ed 7d 87 3b 1f 61 ca 3e
       -0.030578334 0.4912639 0.0041348846 0.39527223
000020 20 c5 4e be 23 60 aa bc 5c 05 36 3d a3 f4 f6 3e
       -0.20192385 -0.020797795 0.044438705 0.48233518
000030 b3 ff eb bd 20 27 18 be 55 7c db bd 03 88 95 3e
       -0.1152338 -0.14858675 -0.10717074 0.2920533
000040 68 dc 8d 3d 17 a2 e2 be 36 61 e6 3e ac 89 00 bf
       0.06926805 -0.4426429 0.4499604 -0.5021007
000050 83 e2 64 3e aa 12 5f be f5 5d b6 3e da eb 36 bc
       0.22352032 -0.21784464 0.3561856 -0.01116463
000060 0e 20 00 3f 20 78 c3 3e e1 07 ad 3e 55 b7 c6 3d
       0.5004891 0.38177586 0.33795074 0.097029366
000070 c1 d0 8e be 05 59 ae be a0 98 f4 3e 7c a6 b5 3e
       -0.27893642 -0.34052292 0.47772694 0.3547858
000080 93 fe e7 bd d1 8d dd be 8d 7f 84 3e 88 81 e4 be
       -0.11327853 -0.4327226 0.25878564 -0.44630075
000090 0b 17 a1 be 6e ab 2f 3e 57 b7 c3 3e ec a0 a8 be
       -0.31462893 0.17155239 0.38225815 -0.32935274
0000a0 89 d5 46 3e 64 e2 b7 be 05 41 ea bc 68 04 84 3e
       0.19417395 -0.3591491 -0.028595457 0.25784612
0000b0 29 79 8c bd 50 41 e3 be 8a d6 a6 be 39 9e c8 3d
       -0.06859047 -0.44385767 -0.32585555 0.097958036
0000c0 22 49 2f bc cd 24 b1 be c4 96 2c 3e 6d ba 8f 3d
       -0.010698589 -0.3459839 0.16854388 0.0701798
0000d0 f4 48 b4 3e 93 63 91 be 12 38 a0 3d 9f b6 06 3e
       0.3521191 -0.28396282 0.078231946 0.13155602
0000e0 c1 de 6d be 97 cb 54 be 93 8e fc 3d 2a 2a 30 bd
       -0.23229505 -0.20780788 0.123318814 -0.04300896
0000f0 47 e5 24 3e e8 34 9d be fa ea a0 bc 0b c6 fb be
       0.16103087 -0.30704427 -0.019643296 -0.49174532
000100 c4 f5 3d 3d bb 05 84 be 8d 0b 4e 3e b4 54 ad 3e
       0.04637696 -0.25785622 0.20121594 0.33853686
000110 d2 6c 5c 3e 26 c6 ae bd 50 1e f8 be 18 f3 69 be
       0.21525887 -0.085338876 -0.48460627 -0.22846639
000120 0f a9 cf 3e bf 4d 93 bb 7c 7e fb 3e 4e d8 03 be
       0.4055867 -0.004495352 0.49119937 -0.12875482
000130 f1 26 8c be 6a 2e bf be 12 2a eb be f0 ea 8b be
       -0.2737346 -0.373401 -0.45930535 -0.2732768
000140 0b 2b 9a be b4 d4 23 3d 36 7e 2e 3d 03 27 a7 be
       -0.30110964 0.03999777 0.042600833 -0.3264695
000150 f5 6f d0 be 0d 05 c4 be 80 17 9f 3e 45 88 db 3e
       -0.40710416 -0.38285103 0.31072617 0.42877403
000160 82 fd 97 3e 2b b5 f3 3d 5b f7 72 be 02 f4 96 3d
       0.296856 0.118997894 -0.23727171 0.073707595
000170 2f e5 11 be ea 93 9d 3e 2d 5c c1 be 36 ec ab be
       -0.14247583 0.30776912 -0.37765637 -0.33578652
000180 77 9e bf 3e ae 39 f4 3e 53 64 70 be 2c c7 c8 be
       0.37425587 0.47700256 -0.2347577 -0.39214456
000190 12 e0 90 3e 91 19 7a be c1 9d fd bc 25 e3 ac be
       0.28295952 -0.24423815 -0.030959012 -0.33767048
0001a0 25 03 d3 be 09 5d b6 be a2 5f d6 3e ed cc ff 3c
       -0.41213337 -0.35617855 0.41869837 0.031225646
0001b0 79 43 4b 3e 2a 18 be 3e 55 bc 83 be f9 8c c9 3d
       0.19849958 0.3712781 -0.25729623 0.098413415
0001c0 44 e0 41 bd 4c 25 bf be 37 c0 64 bd 26 14 51 be
       -0.047333017 -0.37333143 -0.055847373 -0.20417842
0001d0 03 a9 1c be 63 80 f5 3e 99 ad ef 3e 7a 0f cf 3e
       -0.15298848 0.47949514 0.46812132 0.40441495
0001e0 a2 4b 8e 3e 98 39 f1 be 3a e9 1d be eb 4a 95 be
       0.27792078 -0.47114253 -0.15421 -0.2915872
0001f0 21 27 11 be 95 56 c6 3e dd 8e 32 be 50 20 fd be
       -0.14175083 0.38737932 -0.1743731 -0.49438715
000200 10 da 35 bb e7 58 25 bc 69 c1 d5 bd f1 f6 cd be
       -0.0027748384 -0.010091997 -0.10437281 -0.40227464
000210 35 a3 de bc b9 15 44 3e d3 74 9b be e9 3e ac 3e
       -0.027177433 0.19148912 -0.30362567 0.33641747
000220 c3 4f 8e be 00 e8 85 3e fe 81 a1 3d 75 d8 ef be
       -0.27795228 0.26153564 0.07886122 -0.4684483
000230 99 fa d0 3e eb 68 8c be 13 7b 81 3e 1a 4a 0a 3e
       0.4081619 -0.27423796 0.2528921 0.1350483
000240 ac 16 d9 bd 5e 2c 00 bf d2 76 32 bd 55 51 2d 3e
       -0.106000274 -0.500677 -0.043570347 0.16925557
000250 6b a9 2e be a5 24 0d 3c f3 92 1d 3d 02 8f d2 bd
       -0.17056815 0.008614694 0.03847022 -0.10281183
000260 7c 32 51 3e 12 25 a6 3e d5 89 a1 be 85 c1 f8 3d
       0.20429415 0.32450157 -0.3155047 0.12146286
000270 a1 3e 8a be 2b bd 16 3d 7b ec bb be ae af df 3d
       -0.27000907 0.0368015 -0.36703858 0.1092218
000280 50 81 1e 3e 0b 76 8f 3e 6c c1 ab 3e 8e 76 e2 3e
       0.15479016 0.28019747 0.33546007 0.44231075
000290 69 49 d0 be 0d 58 71 be 0d 53 c6 3e 11 63 e9 3e
       -0.40681008 -0.23568745 0.38735238 0.45583394
0002a0 75 b8 e7 bd e1 a0 37 3c 12 57 c6 3d 04 0f 46 3e
       -0.11314479 0.01120779 0.09684576 0.19341666
0002b0 75 c1 12 be 64 1e 82 be 7f 46 fa bd 15 e8 c9 be
       -0.1433161 -0.2541381 -0.12220477 -0.39434877
0002c0 1a b0 cf be 6f c1 d1 be 08 77 e8 bc 94 7b 9d 3e
       -0.40564042 -0.4096789 -0.028377071 0.30758345
0002d0 28 99 35 3e 6d dc 4a 3e 0f bc 57 be e2 65 30 bc
       0.17734206 0.19810648 -0.21067832 -0.010766478
0002e0 cb 7d 2b be e3 9e 2b bd 27 37 9d be a6 b4 84 bd
       -0.16747205 -0.041899573 -0.3070614 -0.064797685
0002f0 03 71 f9 3d e5 32 ed 3e ba 86 99 3e 34 43 9a be
       0.121797584 0.46327892 0.299856 -0.30129397
000300 e0 cb 97 3e 49 86 cb be c2 93 ee be a3 5b f7 3e
       0.29647732 -0.3975089 -0.46597105 0.483121
000310 c9 08 90 be f0 85 bf be a7 59 cb be e6 32 b4 bd
       -0.28131703 -0.37406874 -0.39716837 -0.087987706
000320 27 c7 a9 bd 21 18 8e 3d 01 f3 08 bd f4 92 b4 3e
       -0.082899384 0.06938196 -0.03343487 0.35268366
000330 36 65 ed 3e 16 10 a8 3e 60 d8 f7 3d 1b 03 8d be
       0.4636628 0.32824773 0.12101817 -0.27541432
000340 fc ec d5 be fd 2d e3 3e 6c 10 86 3e b8 34 69 3e
       -0.41782367 0.44371024 0.26184404 0.22774017
000350 0e c1 83 bd 54 13 a7 be 1f 74 f0 bd 3c 7c fa 3e
       -0.06433307 -0.32631934 -0.11740898 0.48922908
000360 c2 f8 0c 3e 16 12 35 bd 63 4d 2f 3c 3b ee 95 3d
       0.13766769 -0.0442067 0.010699603 0.073208295
000370 10 6b 28 be e3 7a 62 bd a0 7b 96 3e 4f 86 12 bc
       -0.16447091 -0.055292975 0.29391193 -0.0089431545
000380 75 ae ea be 63 09 c1 bd af 5e b9 3d 0e 21 b1 be
       -0.45836225 -0.094256185 0.090512626 -0.3459553
000390 ae d6 8a 3e 47 cc 01 bf 33 57 a9 3e 06 a3 0d 3e
       0.27116913 -0.5070233 0.3307434 0.1383172
0003a0 68 8c 95 be 5c 0f de be 5b 9b eb bd 0d 14 6c 3e
       -0.29208684 -0.43371093 -0.11504241 0.23054524
0003b0 ed a1 81 bd 3a df 1d 3e f5 56 82 bd 4c 86 95 be
       -0.06329713 0.15417185 -0.06364242 -0.29204023
0003c0 27 d1 3e bd b1 fe 89 be 81 7e 37 be 70 cf 9f 3d
       -0.046586182 -0.26952127 -0.17919351 0.078032374
0003d0 ea 2e 48 3e c1 66 b3 be 66 8f d9 be e9 38 33 3e
       0.19549146 -0.35039333 -0.42492217 0.17502178
0003e0 36 c1 c2 3e 8d 07 e5 be 12 36 ce 3e a6 f0 2a be
       0.38038033 -0.44732323 0.40275627 -0.16693363
0003f0 fe 4d 6d be 5b cd 0f be e4 ec 13 3e 23 8d cc 3d
       -0.23174283 -0.1404318 0.14445835 0.09987857

net.0.bias f4 [128]
000000 6e 75 d2 3e 90 76 8c 3e 34 6d c7 3e 1c fa 23 be
       0.41105217 0.27434206 0.38950503 -0.16013378
000010 e0 d0 e8 be 26 43 8c 3d c1 62 b6 bb 78 b6 32 be
       -0.4547186 0.06848745 -0.0055659716 -0.17452419
000020 a0 80 e2 be 0d e0 a1 3e 3f 99 ae 3e 32 2f fb be
       -0.44238758 0.3161625 0.34101292 -0.49059445
000030 66 89 fd be 37 05 b8 3d 06 2b 07 3d 5b 29 af bc
       -0.4951889 0.0898537 0.033000015 -0.021382025
000040 34 98 73 3e b8 ca 58 bd dd 94 64 be 2d eb f6 3d
       0.2378853 -0.052927703 -0.22322412 0.12056575
000050 2a 7e 8a be c5 a9 2b bd f2 ca da bd ee 0c 90 be
       -0.2704938 -0.04190995 -0.1068324 -0.28134865
000060 0a 6b 96 bc 38 21 cf be 97 f3 fa bd 42 ff 55 be
       -0.018361587 -0.4045503 -0.12253492 -0.20898154
000070 d9 f3 47 3e cc 43 87 be 0f ab bc bd 92 0d f6 bc
       0.19526614 -0.26418912 -0.09212314 -0.030035768
000080 d1 70 b0 3e 68 e9 9c be f3 9c 43 3e f1 9b f9 be
       0.34461072 -0.30646825 0.1910284 -0.48751786
000090 89 66 ec 3d c4 96 c6 3c db ba 06 3e 03 ef 60 3e
       0.115429945 0.024241813 0.13157217 0.21966176
0000a0 d8 24 7c bc b3 f5 a7 3e a7 a8 6c 3e 77 01 a7 be
       -0.015389644 0.3280464 0.23111211 -0.32618305
0000b0 39 8d f8 3d cd 8d 97 be 1c b4 97 3e 5a ea 00 be
       0.12136311 -0.29600373 0.296296 -0.12589398
0000c0 c4 53 f1 be 5c 00 92 3e 6f d1 bf be 9c d7 ed be
       -0.4713422 0.285159 -0.37464473 -0.4645356
0000d0 65 f2 03 3f 00 78 85 bd b7 52 45 3e 52 f7 c5 3e
       0.5154174 -0.06517029 0.19269834 0.38665253
0000e0 8a e1 12 3e 3a 03 ac 3e 4a 9d 9d be 1c 5f 0b be
       0.14343849 0.33596212 -0.30784065 -0.136105
0000f0 1b 91 1b 3e bd cb 76 3c f5 31 1e 3d 94 b4 fa 3e
       0.15192072 0.015063223 0.03862186 0.48965895
000100 19 87 d0 3e 6b dd 2b 3c d0 9e 9e be f9 87 58 be
       0.4072807 0.010489802 -0.3098054 -0.2114562
000110 62 dd 05 be 34 ec e1 3e e1 e5 3b 3e 35 1e 9f bd
       -0.13072732 0.4412552 0.1834941 -0.077694334
000120 b1 f6 91 bc f8 4f f6 3e 03 5c 31 bd f9 99 66 be
       -0.017817827 0.48107886 -0.04330064 -0.22519673
000130 7d e6 4a bd 69 c0 59 3e 1f 1a 65 bd 6e db f5 3c
       -0.049536217 0.21264805 -0.055933114 0.030011859
000140 f3 04 79 bd f6 c8 ab be 9f 56 bd 3e a8 a3 fb 3e
       -0.060795736 -0.3355176 0.3698015 0.49148297
000150 ae eb cb 3e 44 48 e8 3e b3 d7 a0 3d 88 db 3b 3e
       0.39828247 0.45367634 0.07853641 0.18345463
000160 d7 eb 75 3e 4c ac cd 3d 5d 13 ac 3e c2 11 c9 be
       0.24015747 0.10042629 0.33608523 -0.3927136
000170 66 26 fa be 47 41 f8 be de 54 bb be 04 52 88 be
       -0.4885742 -0.48487303 -0.36588186 -0.26625073
000180 d9 16 68 3e 54 e9 01 bd 05 ef 67 be 62 cd 9e 3d
       0.22664966 -0.03171666 -0.22649772 0.077540174
000190 32 92 dc 3d 6e 92 d9 be 5b 73 bc bd ea e3 ce be
       0.10770072 -0.4249453 -0.0920169 -0.4040826
0001a0 61 72 a2 3e 7a f3 9c 3e 04 a6 fc be e1 5f 02 3e
       0.3172789 0.30654508 -0.4934541 0.12731887
0001b0 83 95 38 be c2 49 1c be 3d ac 86 3c 1e 8d 40 bd
       -0.18025784 -0.15262511 0.016439551 -0.04700958
0001c0 c3 41 60 3e e0 6b c2 be 6f 3f d6 be 74 a5 2f be
       0.21900086 -0.37972927 -0.4184527 -0.17152959
0001d0 7a 6c 12 3d 37 02 cb be c4 e5 06 3e da 54 11 be
       0.035747983 -0.39650127 0.13173586 -0.14192525
0001e0 69 5c 3b 3e 18 07 41 bd df 12 f6 3e b7 c5 81 be
       0.1829697 -0.047125906 0.48061273 -0.25346157
0001f0 7b 95 8b be d9 b1 d5 be 99 4c e2 be 4f 96 81 3e
       -0.27262482 -0.4173725 -0.44199064 0.2530999

net.2.weight f4 [128, 128]
000000 ea bb 83 3c 6d a5 ae 3d 92 df 6c 3d a5 8f a6 3d
       0.016080815 0.08527646 0.0578304 0.08132867
000010 aa dc 95 bc 83 9f 2a 3d ff 0f 12 3c 87 31 7d 3c
       -0.018293697 0.04165603 0.008914947 0.015453703
000020 9e b6 3f 3d 09 fb b4 3d 13 e4 b9 bc 63 36 97 3d
       0.046805017 0.08836944 -0.022691762 0.0738342
000030 96 75 8d bd 4c 6f 2e 3d 45 d8 2c 3d 6f 32 96 3d
       -0.06907193 0.04258661 0.04219844 0.07333838
000040 55 f4 10 bb 22 84 37 3d 7b cb 1a 3d ea bc f6 bc
       -0.002211829 0.044803746 0.03779171 -0.030119378
000050 f9 d6 05 3d 41 eb ab 3d 91 3c 39 bc ec 9b 97 bd
       0.032675717 0.083944805 -0.011305944 -0.074027866
000060 0a aa c9 3b e5 1f 1f bd e5 71 0c bd bf ad fc bc
       0.0061543034 -0.038848776 -0.034288306 -0.030844567
000070 29 51 b9 bd 91 25 b1 3d 71 f3 15 bd db 77 2e bd
       -0.09048683 0.08649743 -0.036609117 -0.04259477
000080 24 c4 08 3d 8d d6 92 3c 57 1b 66 3d 6b f1 82 3d
       0.03339018 0.017924571 0.056178417 0.06393703
000090 81 14 93 3d ae fb b9 bb cd f6 3d 3d 12 5e e4 3c
       0.07181645 -0.0056757545 0.046377946 0.027876887
0000a0 3c 90 b6 3d 3e 4d 53 bc d1 cc 03 bd 81 88 2f 3d
       0.08914229 -0.012896834 -0.03217775 0.04285479
0000b0 aa f7 a8 bd 06 df 53 3d 09 cb 88 bd da 85 9b bd
       -0.08250363 0.051726364 -0.06679351 -0.075938895
0000c0 97 6c cc bc 70 e7 7e 3d 94 26 68 bd 1b 23 b3 bc
       -0.024954123 0.062232435 -0.056677416 -0.021867326
0000d0 a5 86 9a 3d 68 bd 82 3d ba d5 a7 bd 1d 46 66 bd
       0.07545213 0.063837826 -0.08195062 -0.05621921
0000e0 d2 5b 08 3d 4b 66 bb 3c cb db 57 bd 95 28 35 bd
       0.03329069 0.022875926 -0.052699845 -0.044228155
0000f0 8a ce 47 3d ca a6 a7 3d d1 41 90 3d 96 8e 18 bc
       0.048780955 0.08186109 0.070438035 -0.009311339
000100 27 53 9f bd 13 d3 81 3c 2b 73 b2 3c 27 98 46 3d
       -0.07779532 0.015847718 0.021783432 0.048484948
000110 54 e2 98 3d cc af 63 3d 15 49 34 bc 19 38 c2 3c
       0.07465044 0.055587575 -0.011003752 0.02370839
000120 db 08 c6 3b 21 95 0a 3d f1 3e 40 bd dd 94 9d 3d
       0.006043536 0.033833627 -0.046935026 0.07694409
000130 28 8a bb 3c 08 d7 a7 bd c5 88 80 3d 91 79 1b bd
       0.022893026 -0.08195311 0.06276087 -0.03795773
000140 3f ab c5 bc 66 fd 0f 3d e3 81 cb bb 36 58 69 3d
       -0.024129508 0.03515377 -0.006210552 0.05696889
000150 5b a9 a4 3d 8e 50 8f bd 95 ea a4 bc f6 f4 37 3d
       0.080401145 -0.069977865 -0.020131389 0.044911347
000160 cd 92 6c 3d 25 80 fb 3c aa a0 fd bb 5d 03 16 bd
       0.057757188 0.030700753 -0.0077401 -0.0366243
000170 fd 9a 87 3d a1 bc 8a 3d 89 fe a3 bd 4d 1e 6d 3d
       0.066213585 0.06774259 -0.08007533 0.057890225
000180 0e 31 1a bc 5f 76 87 3a 08 47 7b 3d 4a b5 78 bd
       -0.00941111 0.001033496 0.061347038 -0.060719766
000190 ff c5 a7 bc e9 dc 7d bd 72 68 49 3d a4 cf ab 3d
       -0.020480154 -0.061978254 0.049171872 0.08389214
0001a0 a0 08 f2 bc 93 91 72 bb a3 5f 77 bd 5d ee 89 3d
       -0.029545128 -0.0037013039 -0.06039394 0.06734917
0001b0 21 81 a8 3d 0a b1 a3 3d 46 6e b3 3d 67 f8 6e bd
       0.082277544 0.07992752 0.08761267 -0.058342364
0001c0 a2 51 55 bb ef 5c 2e 3d ca 9f 41 bc 38 ea b0 3d
       -0.0032549878 0.042569097 -0.011817882 0.08638424
0001d0 5b 35 87 bd 01 a7 46 3d 09 9c 59 3d 11 33 8a 3d
       -0.066019736 0.04849911 0.053127322 0.067480214
0001e0 b1 3c 98 3d b9 16 23 3d 07 fe fb bb d2 61 90 bd
       0.07433451 0.039816592 -0.0076901945 -0.07049908
0001f0 5a cc 8f bd 95 08 9d bd 23 3b e9 3c 10 90 71 3d
       -0.07021399 -0.076676525 0.028470581 0.05897528
000200 d6 ce 36 bd 70 2b 48 3d ad be a3 3d f1 4c b1 3b
       -0.044630848 0.04886955 0.07995353 0.0054107835
000210 e3 1b 41 3d ad 02 1c 3c 8b db 85 bd 90 cf 8a 3d
       0.047145735 0.009522122 -0.06536015 0.06777871
000220 1e e0 de bc 1e 10 e1 3c a6 03 a6 3d 8f ad 9f 3d
       -0.027206477 0.027473506 0.08106165 0.077967755
000230 1a 90 c6 3c 8a 8e 9b 3d fe 1d 80 bd e8 1d 56 3c
       0.024238635 0.075955465 -0.062557206 0.013068654
000240 4e 05 a8 3d 64 43 11 3d 7f 9e 0c 3d 19 f8 60 bd
       0.08204137 0.03546466 0.03433084 -0.054924104
000250 d7 c1 aa 3d 29 5b 41 3d 30 64 23 bd 5b aa f9 bc
       0.08337753 0.047206078 -0.039890468 -0.03047674
000260 ac 08 95 3d df 5d 95 bd 87 71 09 bc a8 75 b5 bd
       0.07277045 -0.07293295 -0.008388883 -0.08860332
000270 d2 9e ed 3c fb 70 22 3b 7a 07 2b bd bd 58 f0 3c
       0.029006395 0.002478658 -0.041755177 0.029339189
000280 23 46 ea 3c ba 2e 27 3c 8a 09 a2 bd 1a 28 21 bd
       0.028597897 0.010204012 -0.07911976 -0.039344884
000290 47 8f b3 bd 1e 80 31 bd 03 b3 b0 bd de 04 06 bd
       -0.08767562 -0.043335073 -0.08627894 -0.032719485
0002a0 b8 36 59 bd ad e7 96 3c 70 0e 27 bd 01 48 93 bd
       -0.0530307 0.018421018 -0.040785253 -0.07191468
0002b0 d9 bd e6 3c 2a 8d 0a bd 90 12 21 bd 33 98 ac 3c
       0.028166698 -0.03382603 -0.039324343 0.021068668
0002c0 22 76 03 bd a7 f7 d5 3c 9d 0f 39 3d 39 ef 71 3d
       -0.032095082 0.026119066 0.045180906 0.05906603
0002d0 d4 86 81 3d 7b 06 5c bb b5 3c 1d 3d 0f 55 e9 3c
       0.063245445 -0.0033573199 0.038387973 0.028482942
0002e0 1a b9 4f 3b 59 13 2c bd 0c ae 8b bd 43 c3 88 3d
       0.0031696022 -0.04201064 -0.06820306 0.06677868
0002f0 e4 b9 01 bd 69 5b 88 bd 8a b9 87 3d c3 7d 7e bd
       -0.03167142 -0.0665806 0.06627186 -0.062131654
000300 7f 38 a4 3d 9a b6 a2 bc 4a 62 92 3d 25 9f 84 bd
       0.08018588 -0.019862462 0.071476534 -0.06475667
000310 e6 da a1 3d e9 ad 9e 3c b2 8e 92 bd 2d 35 9c 3d
       0.0790308 0.019370036 -0.07156123 0.0762733
000320 b0 ce e8 bc 0c 33 1b 3d e1 57 28 bc fe 06 13 bd
       -0.028418869 0.03789048 -0.010274858 -0.03589534
000330 10 3b 59 3c 59 09 48 bd aa 34 09 bb 1b b4 10 3d
       0.0132587105 -0.04883704 -0.0020935931 0.035328012
000340 88 1d 1e 3d 5f 1b 59 bd e6 6e 7c bd 0f ba 42 3b
       0.038602382 -0.05300462 -0.0616292 0.002971295
000350 2c 76 9a 3c 81 35 63 3d d6 30 9b bc 51 a1 d4 3c
       0.018855177 0.055470947 -0.018944185 0.025955828
000360 c2 ea 08 3d e3 2d 77 bd c1 1f 13 bb 51 70 51 3d
       0.033427007 -0.060346495 -0.0022449347 0.051132504
000370 6c 5d aa bd f4 0c 25 3d 3d bb 79 3d 36 e4 47 3c
       -0.083186 0.040295556 0.06096958 0.012200406
000380 04 f9 aa bd ef 5e 9b bd 8e d6 b4 3c 92 55 9e 3d
       -0.08348277 -0.075864665 0.022074964 0.07731165
000390 16 ff 81 bd 84 83 81 3d 4f 57 8e 3d 12 1a 47 bc
       -0.06347482 0.06323913 0.069502465 -0.012152212
0003a0 1f 1f 8c 3d 4c 19 63 3d 9c bd b3 3c f2 bb 7f bd
       0.068418734 0.055444047 0.021940999 -0.062435098
0003b0 96 e5 37 bd 1e 00 b3 3d 8f df 2b bc 24 4e 86 bc
       -0.044896685 0.08740257 -0.010490312 -0.016394682
0003c0 f4 c7 88 bd 5b 7f b6 bb 4b 91 1b bd bd 51 1d bd
       -0.06678763 -0.005569381 -0.03798036 -0.03840803
0003d0 31 dd 0f 3d 0e 56 20 bb 24 70 58 3d ba 52 ef 3c
       0.035123054 -0.0024465355 0.05284132 0.029214252
0003e0 75 34 43 bd e9 9a ab 3b 49 8b a2 bd e9 13 47 3c
       -0.04765745 0.0052369726 -0.07936723 0.012150743
0003f0 10 54 a0 3d 47 b4 fe 3c 0d 25 51 3d 1b d8 88 3d
       0.07828534 0.031091822 0.051060725 0.06681844

net.2.bias f4 [128]
000000 71 d0 6f 3d d6 c7 1a 3d 72 51 a3 bb 85 f2 6b 3d
       0.058548395 0.037788235 -0.0049840743 0.05760433
000010 a0 a2 11 bd bc d9 d4 3c 99 e5 23 bd f8 0d 55 3b
       -0.035555482 0.02598273 -0.040013883 0.0032509547
000020 5c 0b 7a 3d 43 65 94 3c f9 c2 4e bd 5f 6b 25 bd
       0.06104599 0.018114692 -0.05047891 -0.0403856
000030 82 f0 73 3b f1 43 3c bd 10 ee ae bd f1 d3 fc 3b
       0.0037222211 -0.04596323 -0.085415006 0.007715695
000040 14 fd ae 3d 97 79 0e bd f4 9f 71 bd a9 6f e0 3c
       0.085443646 -0.034783926 -0.058990434 0.027396994
000050 df 09 1a 3d 6b e2 37 bd b5 5c 41 bd 34 e1 67 bd
       0.03760707 -0.044893663 -0.047207553 -0.056611255
000060 91 5f 82 3d 12 6b 9d 3c f6 4f a2 bc 50 91 93 bd
       0.06365884 0.019216094 -0.019813519 -0.072054505
000070 21 77 6b bd a8 61 0f bd 12 06 76 3d 65 58 b8 3d
       -0.057486657 -0.03500524 0.060064383 0.09001235
000080 ba 9d 17 3c 32 16 ba 3d a5 aa 9f 3b 74 87 b5 3c
       0.009253914 0.09086265 0.0048726373 0.022159316
000090 de f9 81 bd 41 b3 78 3b 62 28 d1 bc 78 d6 99 3d
       -0.063464865 0.003794864 -0.025531951 0.0751161
0000a0 b5 84 69 bd 15 be dd 3c 34 c1 45 bd ac 8f 93 bd
       -0.057011325 0.027068177 -0.048279956 -0.072051376
0000b0 1f 4a e8 bb 42 cd b4 3d cd 63 a6 3d 61 ed 90 3c
       -0.007088914 0.08828212 0.08124504 0.017691316
0000c0 31 9e 07 3d 21 9b 21 3b e1 de 30 bd ed aa 83 bd
       0.033109847 0.0024659114 -0.043181304 -0.06429086
0000d0 87 3f c6 bc ac 8d c4 bd 2d fb a8 3d 3c 5f 94 3a
       -0.024200214 -0.09597334 0.08251033 0.0011319886
0000e0 40 45 66 bd 82 a1 b3 3c 0f 53 a8 bd a9 db 7d 3d
       -0.056218386 0.021927599 -0.08218967 0.061977062
0000f0 75 cb f2 3c cc cc 8a bd 76 ec 0c 3d d7 99 0b 3d
       0.029638031 -0.06777343 0.034405194 0.03408226
000100 81 dd ba bd 49 58 1b 3d c1 65 d6 bc 9a 9b 8d 3d
       -0.0912428 0.037925992 -0.026171567 0.06914444
000110 d5 8a 08 3d 20 cb 75 3d 4d f9 c8 3c dd 11 40 3d
       0.033335526 0.06000817 0.024532938 0.046892036
000120 62 9d 3c bd 1d cd c0 bd fc 8f 6c 3d 8e 8a 34 bd
       -0.04604853 -0.09414122 0.0577545 -0.04407745
000130 1b 47 93 bc 57 8a 96 bd f6 ee 4d bc a7 28 06 3d
       -0.017978242 -0.07350605 -0.01256918 0.032753613
000140 5a 69 d1 ba e1 e1 98 3c 36 fe 18 bc f3 ef b3 bc
       -0.0015976832 0.018662395 -0.009337952 -0.021965003
000150 f4 ed 62 bc f8 2d a3 bc 03 dc 63 3d 11 29 e8 bc
       -0.013850678 -0.01991938 0.05562974 -0.028339894
000160 05 45 6e 3d b1 20 b6 3d a0 ef 4c bd a9 9a 97 bd
       0.05817129 0.08892954 -0.05003321 -0.07402546
000170 a9 7d 59 bc c0 0a a4 bd ee a0 b0 3d b6 26 69 3d
       -0.013274589 -0.08009863 0.08624445 0.056921683
000180 6d 16 97 3d d0 aa 7e 3c 65 6b 14 bc f0 7b 74 bb
       0.07377324 0.015543655 -0.009058808 -0.0037305318
000190 20 eb 67 bd 46 61 6a 3d 6e 95 32 3d 9b c1 61 bc
       -0.056620717 0.057221673 0.04359954 -0.013779069
0001a0 90 50 47 bd a6 ce 02 bd 8d e6 82 bd d1 b0 21 3d
       -0.048660815 -0.031935357 -0.0639163 0.039475266
0001b0 d9 f9 f6 3b 1a fd 3d 3c cc 85 49 bd cb 31 82 3c
       0.0075371084 0.011595989 -0.049199864 0.015892884
0001c0 c8 8f 84 3d cd 4f 9a bb 7d a9 34 bd 49 42 1c 3d
       0.064727366 -0.00470922 -0.04410695 0.038149152
0001d0 73 98 83 bc b8 cb 1b bd cd bc 04 3c a0 de 70 3d
       -0.016063904 -0.03803608 0.008101654 0.05880606
0001e0 ff 8e 48 3d f8 49 4b bc 6e c3 9f bc 06 03 8e bd
       0.048964497 -0.012407772 -0.019502368 -0.069341704
0001f0 d6 ea 3c 3d 6a 11 b5 3c e2 de 41 3c 8b 52 74 3d
       0.046122395 0.02210303 0.011832925 0.05964903

net.4.weight f4 [2, 128]
000000 91 d4 d6 3c f4 6c 0f bd fb a4 6c bd c3 e8 b0 bd
       0.026224406 -0.035016015 -0.057774525 -0.08638146
000010 43 8c ac bd 64 14 ae bd 91 a5 09 3d 88 73 42 3d
       -0.0842519 -0.08499983 0.033605162 0.04747346
000020 12 bf 2f 3d 0b aa 51 3d 41 a4 b4 3c 3d e5 58 3a
       0.04290683 0.051187556 0.022050979 0.0008273905
000030 35 41 b9 3d 55 6c 86 bd 85 14 78 3c b4 66 8e bd
       0.090456404 -0.065636314 0.015141611 -0.06953183
000040 7d 83 cb 3c f2 93 3e bd 73 78 c4 3b 5a 94 ea 3c
       0.024842972 -0.04652781 0.005995804 0.028635193
000050 d5 da 42 bd 22 95 9c bc 2a 29 58 bd 70 4e 8b 3c
       -0.047571976 -0.01911408 -0.052773632 0.017005175
000060 f4 df d3 bc 66 f9 aa bc 27 a9 e1 3b ae 72 ab bc
       -0.025863625 -0.020870876 0.0068866196 -0.020928707
000070 a2 03 cc 3c 35 54 9a bd 36 33 4f bd 53 7f 73 bd
       0.024904076 -0.075355925 -0.050585948 -0.059447598
000080 b7 22 a2 3d 30 b8 b0 3c de 5e f0 3c 6b 31 eb bc
       0.079167776 0.021572202 0.029342111 -0.028710088
000090 06 b9 88 3d 90 ef b6 3c ac 0c 18 3d 35 06 71 3d
       0.066759154 0.02233103 0.03712146 0.05884381
0000a0 28 ec 8f 3d bf aa 54 bd a7 3f 63 3c fa 17 5b 3d
       0.07027465 -0.05192065 0.013870156 0.053489663
0000b0 b3 ac 14 bd ec ee 79 bd 20 8b c5 3c 6a 66 63 3c
       -0.03629751 -0.06101887 0.024114192 0.013879398
0000c0 4c 33 43 3d 31 49 0e 3d f9 2c 04 bd 79 b7 86 bd
       0.047656342 0.03473777 -0.03226945 -0.065779634
0000d0 c9 37 2b bd c6 23 5b 3d c0 86 e6 3b 2d 27 dd 3c
       -0.041801248 0.053500913 0.0070351064 0.02699622
0000e0 68 04 39 3d ef af 81 3d 02 e0 36 bd 92 16 60 bd
       0.045170218 0.06332385 -0.044647224 -0.054709025
0000f0 f2 86 b3 3d da e3 83 bd d3 36 ac 3d 87 37 fb 3b
       0.08765973 -0.064399436 0.084088944 0.0076665315
000100 b3 77 53 3d a4 65 99 3d 44 07 ae bd 67 c5 85 bd
       0.051627826 0.074900895 -0.084974796 -0.06531792
000110 aa e5 30 bd e3 a1 51 bc cc 0f c9 bd 4d 95 b8 3d
       -0.043187775 -0.012794944 -0.09817466 0.09012852
000120 e6 6f 48 bd 89 27 a1 3d cd 5b 3c bd 48 3f 3d 3d
       -0.04893484 0.07868869 -0.045985986 0.046202928
000130 a3 bd a5 bd dd 6f 5e bd f2 42 a4 bd ec ab ad 3d
       -0.08092811 -0.0543059 -0.08020581 0.08480057
000140 5d 5f ab bd fb 8d 9f 3d 80 c6 94 3b 2f c9 aa bc
       -0.083677985 0.077907525 0.0045402646 -0.020847885
000150 87 fc 94 bd c1 0c 8e 3c 79 c9 8b 3d c4 75 9b bd
       -0.07274728 0.017340066 0.06825537 -0.075908214
000160 ca 91 81 bc 04 a5 11 bd 61 de b2 bc 2b 6c 9f 3d
       -0.015816588 -0.03555776 -0.021834554 0.07784303
000170 18 e2 ac 3c dd 09 5b 3d 47 bb 66 3d 23 33 5e bd
       0.021103904 0.053476203 0.056330945 -0.054247987
000180 2e 75 46 bb 24 df 28 bc 0b 42 e0 bd 5f 62 d0 bc
       -0.0030282247 -0.010307107 -0.10950097 -0.025437532
000190 9a 66 83 bd b9 57 4b bb 31 2f 6d 3d 31 84 55 bd
       -0.06416054 -0.0031027629 0.057906333 -0.05212802
0001a0 77 28 b8 3c 2a 9b 9f bb d3 17 8c 3b 27 08 6e bd
       0.022480233 -0.004870792 0.004275301 -0.058113243
0001b0 27 96 8f bc ff 86 87 3d a1 81 ed bc eb bc a2 3d
       -0.017527653 0.06617545 -0.028992476 0.079461895
0001c0 a3 56 65 bd 06 0f 4b 3d 2a ef 6c bd 67 71 a2 bd
       -0.055990826 0.049574874 -0.057845272 -0.07931786
0001d0 fe 20 23 3d fe e1 b0 3d ea 38 44 3d fb 1c 67 bd
       0.039826386 0.086368546 0.04790584 -0.056424122
0001e0 2c 4d 7e bd 96 f8 fa bc 01 b7 bc 3b a6 04 21 bd
       -0.062085316 -0.030636113 0.0057591205 -0.039311074
0001f0 93 cd a4 bd cf 99 87 3d 3c f2 5b 3d cf 51 71 3c
       -0.08047023 0.066211335 0.05369781 0.014728977
000200 58 12 7b bd 92 a0 3d 3d 81 c0 f9 bb 9f 29 a9 bc
       -0.06129679 0.04629571 -0.007621825 -0.02064973
000210 f8 96 cd 3c 72 ca 4c 3d 45 b8 df 3c 91 18 92 3d
       0.025096402 0.049997754 0.027309546 0.07133592
000220 af 8f 7d 3d 7c 5d 23 3c a5 dd 11 bd 09 6f c3 3c
       0.061904605 0.009971019 -0.035611767 0.023856657
000230 31 27 6f 3c e6 db 7f bd 9f 05 d3 3c 57 5a 35 bc
       0.014596746 -0.06246557 0.025759516 -0.011068902
000240 e7 02 0b bd 1e 2d a1 3d 1f a5 80 bd 86 17 46 3d
       -0.033938315 0.078699335 -0.06281494 0.048362277
000250 a8 64 3b bb bd 35 bd bd f7 e9 4d bd ad 38 56 3d
       -0.0028593931 -0.092387654 -0.050271954 0.052300144
000260 81 1b 32 bd 10 bf 99 3d 16 cc 4a bd 1c 57 20 bd
       -0.04348326 0.075071454 -0.049511038 -0.039145574
000270 7c 2f 9f bd d6 d4 e1 3b a2 40 80 bd de 4c 3b bd
       -0.07772729 0.006891827 -0.06262328 -0.045727603
000280 1b 02 80 3b 77 bc 27 bd 0f bc 5b bd bb ec 3a bc
       0.003906501 -0.04095122 -0.053646144 -0.01140898
000290 ed f3 f1 3b 4f ef be bb aa 6d 65 3c 34 66 0d bd
       0.0073838145 -0.0058268677 0.014003197 -0.034521297
0002a0 e9 91 85 bd 5c 94 68 bd 7d 64 b5 bd 67 85 5c bd
       -0.06521971 -0.05678211 -0.08857057 -0.05383816
0002b0 83 4d 51 bd 49 f2 80 3d 53 4a d7 bc af 1f b9 bd
       -0.05109931 0.06296212 -0.026280558 -0.09039246
0002c0 8e 08 8c bd c3 89 a7 bd 67 2b 23 bc c6 75 9a bd
       -0.06837569 -0.08180573 -0.009959078 -0.07541995
0002d0 df ec 33 bd a5 d3 a8 3d bb 7e 8c bc 6b cc 86 3d
       -0.04392707 0.08243493 -0.017150274 0.065819584
0002e0 05 b1 53 3d 04 9e 59 3d 5b da a9 3d 69 90 26 bd
       0.05168249 0.05312921 0.08293601 -0.040665064
0002f0 84 f1 a1 3d 9e 82 60 bc e3 6c ac 3c 2b 76 74 bd
       0.079073936 -0.013703017 0.021048015 -0.059683006
000300 43 8c 1a 3d de bd c2 3c c2 0d a9 3d 07 4d 81 3d
       0.03773142 0.023772176 0.08254577 0.0631352
000310 53 c4 5a bd 11 ab f5 3c a0 c5 00 bd 5f ba 93 bd
       -0.053409886 0.029988797 -0.03143847 -0.07213282
000320 06 db a0 bd 0e c9 9d 3d cb ac 12 bd 57 e0 38 3d
       -0.078542754 0.07704364 -0.03580932 0.045135822
000330 bd d5 3c bd 7c 3f 19 bd 23 51 a8 3d 13 98 89 3c
       -0.046102274 -0.03741406 0.082186006 0.016796147
000340 a1 09 7e bd 96 a6 93 3d 7f ca 52 bd d8 da 91 3d
       -0.0620209 0.07209508 -0.051462647 0.07121819
000350 86 97 27 bd 8b 1c e7 3b 27 24 7c bd 44 02 85 3c
       -0.04091599 0.007052963 -0.061557915 0.016236432
000360 f5 8f 1e 3d 8a dc 43 bd 84 72 7d 3d fb 1c a5 3d
       0.038711507 -0.047817744 0.06187679 0.08062168
000370 e5 04 68 3d 51 6c 7f bd 3f f6 c6 bc 6d 7d 23 bd
       0.056645293 -0.062359158 -0.024287341 -0.039914537
000380 27 46 52 3c 9e b2 83 3d 8c 57 92 3c 42 7d 9e bd
       0.012834108 0.06430553 0.017864011 -0.07738735
000390 ea bc 74 3d e7 56 92 bd 92 ad 96 bd 8d e2 08 bd
       0.059750475 -0.071454816 -0.07357325 -0.03341918
0003a0 b0 1c 46 bd 48 51 4b bd 28 aa e9 39 94 15 e2 3c
       -0.048367202 -0.049638063 0.00044568 0.02759818
0003b0 5e 2c 85 bd aa b4 a2 3d 51 1b 0c 3c 9a 74 92 bd
       -0.06502603 0.07944615 0.008551435 -0.07151146
0003c0 27 35 03 bd 8d d4 c4 bc af 66 61 3d 34 d4 85 3d
       -0.032033112 -0.024027133 0.055029567 0.06534615
0003d0 78 c3 17 3d 1f fb 87 3d 62 3e 72 bd 61 b3 44 bd
       0.037051648 0.066396944 -0.059141524 -0.04802263
0003e0 ab ef f1 bc 8f c0 84 3c 6b 5e 34 3d 62 18 3b bd
       -0.029533228 0.0162051 0.044035356 -0.04567755
0003f0 eb 11 0b bb cc 0c 95 bc ac 72 ae 3d e0 37 b6 3d
       -0.0021220397 -0.018194579 0.08517966 0.08897376

net.4.bias f4 [2]
000000 2a 3c a7 3c b7 13 ad bd
       0.02041443 -0.08451026
